<?xml version="1.0"?>
<net name="torch_jit" version="11">
	<layers>
		<layer id="2" name="input_ids" type="Parameter" version="opset1">
			<data shape="1,384" element_type="i64" />
			<rt_info>
				<attribute name="old_api_map_element_type" version="0" value="i32" />
			</rt_info>
			<output>
				<port id="0" precision="I64" names="input_ids">
					<dim>1</dim>
					<dim>384</dim>
				</port>
			</output>
		</layer>
		<layer id="1" name="attention_mask" type="Parameter" version="opset1">
			<data shape="1,384" element_type="i64" />
			<rt_info>
				<attribute name="old_api_map_element_type" version="0" value="i32" />
			</rt_info>
			<output>
				<port id="0" precision="I64" names="attention_mask">
					<dim>1</dim>
					<dim>384</dim>
				</port>
			</output>
		</layer>
		<layer id="0" name="token_type_ids" type="Parameter" version="opset1">
			<data shape="1,384" element_type="i64" />
			<rt_info>
				<attribute name="old_api_map_element_type" version="0" value="i32" />
			</rt_info>
			<output>
				<port id="0" precision="I64" names="token_type_ids">
					<dim>1</dim>
					<dim>384</dim>
				</port>
			</output>
		</layer>
		<layer id="3" name="Constant_22525" type="Const" version="opset1">
			<data element_type="f32" shape="1, 1, 2" offset="0" size="8" />
			<output>
				<port id="0" precision="FP32">
					<dim>1</dim>
					<dim>1</dim>
					<dim>2</dim>
				</port>
			</output>
		</layer>
		<layer id="4" name="Constant_22518" type="Const" version="opset1">
			<data element_type="f32" shape="1, 1, 768" offset="8" size="3072" />
			<output>
				<port id="0" precision="FP32">
					<dim>1</dim>
					<dim>1</dim>
					<dim>768</dim>
				</port>
			</output>
		</layer>
		<layer id="5" name="Constant_38030" type="Const" version="opset1">
			<data element_type="f32" shape="1, 1, 699" offset="3080" size="2796" />
			<output>
				<port id="0" precision="FP32">
					<dim>1</dim>
					<dim>1</dim>
					<dim>699</dim>
				</port>
			</output>
		</layer>
		<layer id="6" name="Constant_22506" type="Const" version="opset1">
			<data element_type="f32" shape="1, 1, 768" offset="5876" size="3072" />
			<output>
				<port id="0" precision="FP32">
					<dim>1</dim>
					<dim>1</dim>
					<dim>768</dim>
				</port>
			</output>
		</layer>
		<layer id="7" name="Constant_38037" type="Const" version="opset1">
			<data element_type="f32" shape="1, 1, 320" offset="8948" size="1280" />
			<output>
				<port id="0" precision="FP32">
					<dim>1</dim>
					<dim>1</dim>
					<dim>320</dim>
				</port>
			</output>
		</layer>
		<layer id="8" name="Constant_22475" type="Const" version="opset1">
			<data element_type="f32" shape="1, 1, 768" offset="10228" size="3072" />
			<output>
				<port id="0" precision="FP32">
					<dim>1</dim>
					<dim>1</dim>
					<dim>768</dim>
				</port>
			</output>
		</layer>
		<layer id="9" name="Constant_38044" type="Const" version="opset1">
			<data element_type="f32" shape="1, 1, 560" offset="13300" size="2240" />
			<output>
				<port id="0" precision="FP32">
					<dim>1</dim>
					<dim>1</dim>
					<dim>560</dim>
				</port>
			</output>
		</layer>
		<layer id="10" name="Constant_22463" type="Const" version="opset1">
			<data element_type="f32" shape="1, 1, 768" offset="15540" size="3072" />
			<output>
				<port id="0" precision="FP32">
					<dim>1</dim>
					<dim>1</dim>
					<dim>768</dim>
				</port>
			</output>
		</layer>
		<layer id="11" name="Constant_38051" type="Const" version="opset1">
			<data element_type="f32" shape="1, 1, 256" offset="18612" size="1024" />
			<output>
				<port id="0" precision="FP32">
					<dim>1</dim>
					<dim>1</dim>
					<dim>256</dim>
				</port>
			</output>
		</layer>
		<layer id="12" name="Constant_22432" type="Const" version="opset1">
			<data element_type="f32" shape="1, 1, 768" offset="19636" size="3072" />
			<output>
				<port id="0" precision="FP32">
					<dim>1</dim>
					<dim>1</dim>
					<dim>768</dim>
				</port>
			</output>
		</layer>
		<layer id="13" name="Constant_38058" type="Const" version="opset1">
			<data element_type="f32" shape="1, 1, 545" offset="22708" size="2180" />
			<output>
				<port id="0" precision="FP32">
					<dim>1</dim>
					<dim>1</dim>
					<dim>545</dim>
				</port>
			</output>
		</layer>
		<layer id="14" name="Constant_22420" type="Const" version="opset1">
			<data element_type="f32" shape="1, 1, 768" offset="24888" size="3072" />
			<output>
				<port id="0" precision="FP32">
					<dim>1</dim>
					<dim>1</dim>
					<dim>768</dim>
				</port>
			</output>
		</layer>
		<layer id="15" name="Constant_38065" type="Const" version="opset1">
			<data element_type="f32" shape="1, 1, 448" offset="27960" size="1792" />
			<output>
				<port id="0" precision="FP32">
					<dim>1</dim>
					<dim>1</dim>
					<dim>448</dim>
				</port>
			</output>
		</layer>
		<layer id="16" name="Constant_22389" type="Const" version="opset1">
			<data element_type="f32" shape="1, 1, 768" offset="29752" size="3072" />
			<output>
				<port id="0" precision="FP32">
					<dim>1</dim>
					<dim>1</dim>
					<dim>768</dim>
				</port>
			</output>
		</layer>
		<layer id="17" name="Constant_38072" type="Const" version="opset1">
			<data element_type="f32" shape="1, 1, 942" offset="32824" size="3768" />
			<output>
				<port id="0" precision="FP32">
					<dim>1</dim>
					<dim>1</dim>
					<dim>942</dim>
				</port>
			</output>
		</layer>
		<layer id="18" name="Constant_22377" type="Const" version="opset1">
			<data element_type="f32" shape="1, 1, 768" offset="36592" size="3072" />
			<output>
				<port id="0" precision="FP32">
					<dim>1</dim>
					<dim>1</dim>
					<dim>768</dim>
				</port>
			</output>
		</layer>
		<layer id="19" name="Constant_38079" type="Const" version="opset1">
			<data element_type="f32" shape="1, 1, 576" offset="39664" size="2304" />
			<output>
				<port id="0" precision="FP32">
					<dim>1</dim>
					<dim>1</dim>
					<dim>576</dim>
				</port>
			</output>
		</layer>
		<layer id="20" name="Constant_22346" type="Const" version="opset1">
			<data element_type="f32" shape="1, 1, 768" offset="41968" size="3072" />
			<output>
				<port id="0" precision="FP32">
					<dim>1</dim>
					<dim>1</dim>
					<dim>768</dim>
				</port>
			</output>
		</layer>
		<layer id="21" name="Constant_38086" type="Const" version="opset1">
			<data element_type="f32" shape="1, 1, 1170" offset="45040" size="4680" />
			<output>
				<port id="0" precision="FP32">
					<dim>1</dim>
					<dim>1</dim>
					<dim>1170</dim>
				</port>
			</output>
		</layer>
		<layer id="22" name="Constant_22334" type="Const" version="opset1">
			<data element_type="f32" shape="1, 1, 768" offset="49720" size="3072" />
			<output>
				<port id="0" precision="FP32">
					<dim>1</dim>
					<dim>1</dim>
					<dim>768</dim>
				</port>
			</output>
		</layer>
		<layer id="23" name="Constant_38093" type="Const" version="opset1">
			<data element_type="f32" shape="1, 1, 448" offset="52792" size="1792" />
			<output>
				<port id="0" precision="FP32">
					<dim>1</dim>
					<dim>1</dim>
					<dim>448</dim>
				</port>
			</output>
		</layer>
		<layer id="24" name="Constant_22303" type="Const" version="opset1">
			<data element_type="f32" shape="1, 1, 768" offset="54584" size="3072" />
			<output>
				<port id="0" precision="FP32">
					<dim>1</dim>
					<dim>1</dim>
					<dim>768</dim>
				</port>
			</output>
		</layer>
		<layer id="25" name="Constant_38100" type="Const" version="opset1">
			<data element_type="f32" shape="1, 1, 1299" offset="57656" size="5196" />
			<output>
				<port id="0" precision="FP32">
					<dim>1</dim>
					<dim>1</dim>
					<dim>1299</dim>
				</port>
			</output>
		</layer>
		<layer id="26" name="Constant_22291" type="Const" version="opset1">
			<data element_type="f32" shape="1, 1, 768" offset="62852" size="3072" />
			<output>
				<port id="0" precision="FP32">
					<dim>1</dim>
					<dim>1</dim>
					<dim>768</dim>
				</port>
			</output>
		</layer>
		<layer id="27" name="Constant_38107" type="Const" version="opset1">
			<data element_type="f32" shape="1, 1, 576" offset="65924" size="2304" />
			<output>
				<port id="0" precision="FP32">
					<dim>1</dim>
					<dim>1</dim>
					<dim>576</dim>
				</port>
			</output>
		</layer>
		<layer id="28" name="Constant_22260" type="Const" version="opset1">
			<data element_type="f32" shape="1, 1, 768" offset="68228" size="3072" />
			<output>
				<port id="0" precision="FP32">
					<dim>1</dim>
					<dim>1</dim>
					<dim>768</dim>
				</port>
			</output>
		</layer>
		<layer id="29" name="Constant_38114" type="Const" version="opset1">
			<data element_type="f32" shape="1, 1, 1446" offset="71300" size="5784" />
			<output>
				<port id="0" precision="FP32">
					<dim>1</dim>
					<dim>1</dim>
					<dim>1446</dim>
				</port>
			</output>
		</layer>
		<layer id="30" name="Constant_22248" type="Const" version="opset1">
			<data element_type="f32" shape="1, 1, 768" offset="77084" size="3072" />
			<output>
				<port id="0" precision="FP32">
					<dim>1</dim>
					<dim>1</dim>
					<dim>768</dim>
				</port>
			</output>
		</layer>
		<layer id="31" name="Constant_38121" type="Const" version="opset1">
			<data element_type="f32" shape="1, 1, 576" offset="80156" size="2304" />
			<output>
				<port id="0" precision="FP32">
					<dim>1</dim>
					<dim>1</dim>
					<dim>576</dim>
				</port>
			</output>
		</layer>
		<layer id="32" name="Constant_22217" type="Const" version="opset1">
			<data element_type="f32" shape="1, 1, 768" offset="82460" size="3072" />
			<output>
				<port id="0" precision="FP32">
					<dim>1</dim>
					<dim>1</dim>
					<dim>768</dim>
				</port>
			</output>
		</layer>
		<layer id="33" name="Constant_38128" type="Const" version="opset1">
			<data element_type="f32" shape="1, 1, 1561" offset="85532" size="6244" />
			<output>
				<port id="0" precision="FP32">
					<dim>1</dim>
					<dim>1</dim>
					<dim>1561</dim>
				</port>
			</output>
		</layer>
		<layer id="34" name="Constant_22205" type="Const" version="opset1">
			<data element_type="f32" shape="1, 1, 768" offset="91776" size="3072" />
			<output>
				<port id="0" precision="FP32">
					<dim>1</dim>
					<dim>1</dim>
					<dim>768</dim>
				</port>
			</output>
		</layer>
		<layer id="35" name="Constant_38135" type="Const" version="opset1">
			<data element_type="f32" shape="1, 1, 640" offset="94848" size="2560" />
			<output>
				<port id="0" precision="FP32">
					<dim>1</dim>
					<dim>1</dim>
					<dim>640</dim>
				</port>
			</output>
		</layer>
		<layer id="36" name="Constant_22174" type="Const" version="opset1">
			<data element_type="f32" shape="1, 1, 768" offset="97408" size="3072" />
			<output>
				<port id="0" precision="FP32">
					<dim>1</dim>
					<dim>1</dim>
					<dim>768</dim>
				</port>
			</output>
		</layer>
		<layer id="37" name="Constant_38142" type="Const" version="opset1">
			<data element_type="f32" shape="1, 1, 1618" offset="100480" size="6472" />
			<output>
				<port id="0" precision="FP32">
					<dim>1</dim>
					<dim>1</dim>
					<dim>1618</dim>
				</port>
			</output>
		</layer>
		<layer id="38" name="Constant_22162" type="Const" version="opset1">
			<data element_type="f32" shape="1, 1, 768" offset="106952" size="3072" />
			<output>
				<port id="0" precision="FP32">
					<dim>1</dim>
					<dim>1</dim>
					<dim>768</dim>
				</port>
			</output>
		</layer>
		<layer id="39" name="Constant_38149" type="Const" version="opset1">
			<data element_type="f32" shape="1, 1, 576" offset="110024" size="2304" />
			<output>
				<port id="0" precision="FP32">
					<dim>1</dim>
					<dim>1</dim>
					<dim>576</dim>
				</port>
			</output>
		</layer>
		<layer id="40" name="Constant_22131" type="Const" version="opset1">
			<data element_type="f32" shape="1, 1, 768" offset="112328" size="3072" />
			<output>
				<port id="0" precision="FP32">
					<dim>1</dim>
					<dim>1</dim>
					<dim>768</dim>
				</port>
			</output>
		</layer>
		<layer id="41" name="Constant_38156" type="Const" version="opset1">
			<data element_type="f32" shape="1, 1, 1631" offset="115400" size="6524" />
			<output>
				<port id="0" precision="FP32">
					<dim>1</dim>
					<dim>1</dim>
					<dim>1631</dim>
				</port>
			</output>
		</layer>
		<layer id="42" name="Constant_22119" type="Const" version="opset1">
			<data element_type="f32" shape="1, 1, 768" offset="121924" size="3072" />
			<output>
				<port id="0" precision="FP32">
					<dim>1</dim>
					<dim>1</dim>
					<dim>768</dim>
				</port>
			</output>
		</layer>
		<layer id="43" name="Constant_38163" type="Const" version="opset1">
			<data element_type="f32" shape="1, 1, 576" offset="124996" size="2304" />
			<output>
				<port id="0" precision="FP32">
					<dim>1</dim>
					<dim>1</dim>
					<dim>576</dim>
				</port>
			</output>
		</layer>
		<layer id="44" name="Constant_22088" type="Const" version="opset1">
			<data element_type="f32" shape="1, 1, 768" offset="127300" size="3072" />
			<output>
				<port id="0" precision="FP32">
					<dim>1</dim>
					<dim>1</dim>
					<dim>768</dim>
				</port>
			</output>
		</layer>
		<layer id="45" name="Constant_38170" type="Const" version="opset1">
			<data element_type="f32" shape="1, 1, 1573" offset="130372" size="6292" />
			<output>
				<port id="0" precision="FP32">
					<dim>1</dim>
					<dim>1</dim>
					<dim>1573</dim>
				</port>
			</output>
		</layer>
		<layer id="46" name="Constant_22076" type="Const" version="opset1">
			<data element_type="f32" shape="1, 1, 768" offset="136664" size="3072" />
			<output>
				<port id="0" precision="FP32">
					<dim>1</dim>
					<dim>1</dim>
					<dim>768</dim>
				</port>
			</output>
		</layer>
		<layer id="47" name="Constant_38177" type="Const" version="opset1">
			<data element_type="f32" shape="1, 1, 512" offset="139736" size="2048" />
			<output>
				<port id="0" precision="FP32">
					<dim>1</dim>
					<dim>1</dim>
					<dim>512</dim>
				</port>
			</output>
		</layer>
		<layer id="48" name="Constant_22045" type="Const" version="opset1">
			<data element_type="f32" shape="1, 1, 768" offset="141784" size="3072" />
			<output>
				<port id="0" precision="FP32">
					<dim>1</dim>
					<dim>1</dim>
					<dim>768</dim>
				</port>
			</output>
		</layer>
		<layer id="49" name="Constant_38184" type="Const" version="opset1">
			<data element_type="f32" shape="1, 1, 1485" offset="144856" size="5940" />
			<output>
				<port id="0" precision="FP32">
					<dim>1</dim>
					<dim>1</dim>
					<dim>1485</dim>
				</port>
			</output>
		</layer>
		<layer id="50" name="Constant_22033" type="Const" version="opset1">
			<data element_type="f32" shape="1, 1, 768" offset="150796" size="3072" />
			<output>
				<port id="0" precision="FP32">
					<dim>1</dim>
					<dim>1</dim>
					<dim>768</dim>
				</port>
			</output>
		</layer>
		<layer id="51" name="Constant_38191" type="Const" version="opset1">
			<data element_type="f32" shape="1, 1, 448" offset="153868" size="1792" />
			<output>
				<port id="0" precision="FP32">
					<dim>1</dim>
					<dim>1</dim>
					<dim>448</dim>
				</port>
			</output>
		</layer>
		<layer id="52" name="/nncf_module/bert/embeddings/word_embeddings/pre_ops.0/op/Constant" type="Const" version="opset1">
			<data element_type="i8" shape="30522, 768" offset="155660" size="23440896" />
			<output>
				<port id="0" precision="I8">
					<dim>30522</dim>
					<dim>768</dim>
				</port>
			</output>
		</layer>
		<layer id="53" name="Convert_23436" type="Convert" version="opset1">
			<data destination_type="f32" />
			<input>
				<port id="0" precision="I8">
					<dim>30522</dim>
					<dim>768</dim>
				</port>
			</input>
			<output>
				<port id="1" precision="FP32">
					<dim>30522</dim>
					<dim>768</dim>
				</port>
			</output>
		</layer>
		<layer id="54" name="Constant_23343" type="Const" version="opset1">
			<data element_type="f32" shape="1, 1" offset="23596556" size="4" />
			<output>
				<port id="0" precision="FP32">
					<dim>1</dim>
					<dim>1</dim>
				</port>
			</output>
		</layer>
		<layer id="55" name="/nncf_module/bert/embeddings/word_embeddings/pre_ops.0/op/FakeQuantize" type="Multiply" version="opset1">
			<data auto_broadcast="numpy" />
			<input>
				<port id="0" precision="FP32">
					<dim>30522</dim>
					<dim>768</dim>
				</port>
				<port id="1" precision="FP32">
					<dim>1</dim>
					<dim>1</dim>
				</port>
			</input>
			<output>
				<port id="2" precision="FP32" names="/nncf_module/bert/embeddings/word_embeddings/pre_ops.0/op/FakeQuantize_output_0">
					<dim>30522</dim>
					<dim>768</dim>
				</port>
			</output>
		</layer>
		<layer id="56" name="Constant_140" type="Const" version="opset1">
			<data element_type="i64" shape="" offset="23596560" size="8" />
			<output>
				<port id="0" precision="I64" />
			</output>
		</layer>
		<layer id="57" name="/nncf_module/bert/embeddings/word_embeddings/Gather" type="Gather" version="opset8">
			<data batch_dims="0" />
			<input>
				<port id="0" precision="FP32">
					<dim>30522</dim>
					<dim>768</dim>
				</port>
				<port id="1" precision="I64">
					<dim>1</dim>
					<dim>384</dim>
				</port>
				<port id="2" precision="I64" />
			</input>
			<output>
				<port id="3" precision="FP32" names="/nncf_module/bert/embeddings/word_embeddings/Gather_output_0">
					<dim>1</dim>
					<dim>384</dim>
					<dim>768</dim>
				</port>
			</output>
		</layer>
		<layer id="58" name="/nncf_module/bert/embeddings/token_type_embeddings/pre_ops.0/op/Constant" type="Const" version="opset1">
			<data element_type="i8" shape="2, 768" offset="23596568" size="1536" />
			<output>
				<port id="0" precision="I8">
					<dim>2</dim>
					<dim>768</dim>
				</port>
			</output>
		</layer>
		<layer id="59" name="Convert_23605" type="Convert" version="opset1">
			<data destination_type="f32" />
			<input>
				<port id="0" precision="I8">
					<dim>2</dim>
					<dim>768</dim>
				</port>
			</input>
			<output>
				<port id="1" precision="FP32">
					<dim>2</dim>
					<dim>768</dim>
				</port>
			</output>
		</layer>
		<layer id="60" name="Constant_23512" type="Const" version="opset1">
			<data element_type="f32" shape="1, 1" offset="23598104" size="4" />
			<output>
				<port id="0" precision="FP32">
					<dim>1</dim>
					<dim>1</dim>
				</port>
			</output>
		</layer>
		<layer id="61" name="/nncf_module/bert/embeddings/token_type_embeddings/pre_ops.0/op/FakeQuantize" type="Multiply" version="opset1">
			<data auto_broadcast="numpy" />
			<input>
				<port id="0" precision="FP32">
					<dim>2</dim>
					<dim>768</dim>
				</port>
				<port id="1" precision="FP32">
					<dim>1</dim>
					<dim>1</dim>
				</port>
			</input>
			<output>
				<port id="2" precision="FP32" names="/nncf_module/bert/embeddings/token_type_embeddings/pre_ops.0/op/FakeQuantize_output_0">
					<dim>2</dim>
					<dim>768</dim>
				</port>
			</output>
		</layer>
		<layer id="62" name="Constant_146" type="Const" version="opset1">
			<data element_type="i64" shape="" offset="23596560" size="8" />
			<output>
				<port id="0" precision="I64" />
			</output>
		</layer>
		<layer id="63" name="/nncf_module/bert/embeddings/token_type_embeddings/Gather" type="Gather" version="opset8">
			<data batch_dims="0" />
			<input>
				<port id="0" precision="FP32">
					<dim>2</dim>
					<dim>768</dim>
				</port>
				<port id="1" precision="I64">
					<dim>1</dim>
					<dim>384</dim>
				</port>
				<port id="2" precision="I64" />
			</input>
			<output>
				<port id="3" precision="FP32" names="/nncf_module/bert/embeddings/token_type_embeddings/Gather_output_0">
					<dim>1</dim>
					<dim>384</dim>
					<dim>768</dim>
				</port>
			</output>
		</layer>
		<layer id="64" name="/nncf_module/bert/embeddings/Add" type="Add" version="opset1">
			<data auto_broadcast="numpy" />
			<input>
				<port id="0" precision="FP32">
					<dim>1</dim>
					<dim>384</dim>
					<dim>768</dim>
				</port>
				<port id="1" precision="FP32">
					<dim>1</dim>
					<dim>384</dim>
					<dim>768</dim>
				</port>
			</input>
			<output>
				<port id="2" precision="FP32" names="/nncf_module/bert/embeddings/Add_output_0">
					<dim>1</dim>
					<dim>384</dim>
					<dim>768</dim>
				</port>
			</output>
		</layer>
		<layer id="65" name="Constant_21989" type="Const" version="opset1">
			<data element_type="f32" shape="1, 1, 1" offset="23598108" size="4" />
			<output>
				<port id="0" precision="FP32">
					<dim>1</dim>
					<dim>1</dim>
					<dim>1</dim>
				</port>
			</output>
		</layer>
		<layer id="66" name="Constant_21990" type="Const" version="opset1">
			<data element_type="f32" shape="1, 1, 1" offset="23598112" size="4" />
			<output>
				<port id="0" precision="FP32">
					<dim>1</dim>
					<dim>1</dim>
					<dim>1</dim>
				</port>
			</output>
		</layer>
		<layer id="67" name="Constant_21991" type="Const" version="opset1">
			<data element_type="f32" shape="1, 1, 1" offset="23598108" size="4" />
			<output>
				<port id="0" precision="FP32">
					<dim>1</dim>
					<dim>1</dim>
					<dim>1</dim>
				</port>
			</output>
		</layer>
		<layer id="68" name="Constant_21992" type="Const" version="opset1">
			<data element_type="f32" shape="1, 1, 1" offset="23598112" size="4" />
			<output>
				<port id="0" precision="FP32">
					<dim>1</dim>
					<dim>1</dim>
					<dim>1</dim>
				</port>
			</output>
		</layer>
		<layer id="69" name="/nncf_module/bert/embeddings/BertForQuestionAnswering/BertModel[bert]/BertEmbeddings[embeddings]/__add___0|OUTPUT/FakeQuantize" type="FakeQuantize" version="opset1">
			<data levels="256" auto_broadcast="numpy" />
			<input>
				<port id="0" precision="FP32">
					<dim>1</dim>
					<dim>384</dim>
					<dim>768</dim>
				</port>
				<port id="1" precision="FP32">
					<dim>1</dim>
					<dim>1</dim>
					<dim>1</dim>
				</port>
				<port id="2" precision="FP32">
					<dim>1</dim>
					<dim>1</dim>
					<dim>1</dim>
				</port>
				<port id="3" precision="FP32">
					<dim>1</dim>
					<dim>1</dim>
					<dim>1</dim>
				</port>
				<port id="4" precision="FP32">
					<dim>1</dim>
					<dim>1</dim>
					<dim>1</dim>
				</port>
			</input>
			<output>
				<port id="5" precision="FP32" names="/nncf_module/bert/embeddings/BertForQuestionAnswering/BertModel[bert]/BertEmbeddings[embeddings]/__add___0|OUTPUT/FakeQuantize_output_0">
					<dim>1</dim>
					<dim>384</dim>
					<dim>768</dim>
				</port>
			</output>
		</layer>
		<layer id="70" name="/nncf_module/bert/embeddings/position_embeddings/pre_ops.0/op/Constant" type="Const" version="opset1">
			<data element_type="i8" shape="512, 768" offset="23598116" size="393216" />
			<output>
				<port id="0" precision="I8">
					<dim>512</dim>
					<dim>768</dim>
				</port>
			</output>
		</layer>
		<layer id="71" name="Convert_23774" type="Convert" version="opset1">
			<data destination_type="f32" />
			<input>
				<port id="0" precision="I8">
					<dim>512</dim>
					<dim>768</dim>
				</port>
			</input>
			<output>
				<port id="1" precision="FP32">
					<dim>512</dim>
					<dim>768</dim>
				</port>
			</output>
		</layer>
		<layer id="72" name="Constant_23681" type="Const" version="opset1">
			<data element_type="f32" shape="1, 1" offset="23991332" size="4" />
			<output>
				<port id="0" precision="FP32">
					<dim>1</dim>
					<dim>1</dim>
				</port>
			</output>
		</layer>
		<layer id="73" name="/nncf_module/bert/embeddings/position_embeddings/pre_ops.0/op/FakeQuantize" type="Multiply" version="opset1">
			<data auto_broadcast="numpy" />
			<input>
				<port id="0" precision="FP32">
					<dim>512</dim>
					<dim>768</dim>
				</port>
				<port id="1" precision="FP32">
					<dim>1</dim>
					<dim>1</dim>
				</port>
			</input>
			<output>
				<port id="2" precision="FP32" names="/nncf_module/bert/embeddings/position_embeddings/pre_ops.0/op/FakeQuantize_output_0">
					<dim>512</dim>
					<dim>768</dim>
				</port>
			</output>
		</layer>
		<layer id="74" name="onnx::Gather_3385" type="Const" version="opset1">
			<data element_type="i64" shape="1, 384" offset="23991336" size="3072" />
			<output>
				<port id="0" precision="I64" names="onnx::Gather_3385">
					<dim>1</dim>
					<dim>384</dim>
				</port>
			</output>
		</layer>
		<layer id="75" name="Constant_156" type="Const" version="opset1">
			<data element_type="i64" shape="" offset="23596560" size="8" />
			<output>
				<port id="0" precision="I64" />
			</output>
		</layer>
		<layer id="76" name="/nncf_module/bert/embeddings/position_embeddings/Gather" type="Gather" version="opset8">
			<data batch_dims="0" />
			<input>
				<port id="0" precision="FP32">
					<dim>512</dim>
					<dim>768</dim>
				</port>
				<port id="1" precision="I64">
					<dim>1</dim>
					<dim>384</dim>
				</port>
				<port id="2" precision="I64" />
			</input>
			<output>
				<port id="3" precision="FP32" names="/nncf_module/bert/embeddings/position_embeddings/Gather_output_0">
					<dim>1</dim>
					<dim>384</dim>
					<dim>768</dim>
				</port>
			</output>
		</layer>
		<layer id="77" name="Constant_21997" type="Const" version="opset1">
			<data element_type="f32" shape="1, 1, 1" offset="23994408" size="4" />
			<output>
				<port id="0" precision="FP32">
					<dim>1</dim>
					<dim>1</dim>
					<dim>1</dim>
				</port>
			</output>
		</layer>
		<layer id="78" name="Constant_21998" type="Const" version="opset1">
			<data element_type="f32" shape="1, 1, 1" offset="23994412" size="4" />
			<output>
				<port id="0" precision="FP32">
					<dim>1</dim>
					<dim>1</dim>
					<dim>1</dim>
				</port>
			</output>
		</layer>
		<layer id="79" name="Constant_21999" type="Const" version="opset1">
			<data element_type="f32" shape="1, 1, 1" offset="23994408" size="4" />
			<output>
				<port id="0" precision="FP32">
					<dim>1</dim>
					<dim>1</dim>
					<dim>1</dim>
				</port>
			</output>
		</layer>
		<layer id="80" name="Constant_22000" type="Const" version="opset1">
			<data element_type="f32" shape="1, 1, 1" offset="23994412" size="4" />
			<output>
				<port id="0" precision="FP32">
					<dim>1</dim>
					<dim>1</dim>
					<dim>1</dim>
				</port>
			</output>
		</layer>
		<layer id="81" name="/nncf_module/bert/embeddings/position_embeddings/BertForQuestionAnswering/BertModel[bert]/BertEmbeddings[embeddings]/NNCFEmbedding[position_embeddings]/embedding_0|OUTPUT/FakeQuantize" type="FakeQuantize" version="opset1">
			<data levels="256" auto_broadcast="numpy" />
			<input>
				<port id="0" precision="FP32">
					<dim>1</dim>
					<dim>384</dim>
					<dim>768</dim>
				</port>
				<port id="1" precision="FP32">
					<dim>1</dim>
					<dim>1</dim>
					<dim>1</dim>
				</port>
				<port id="2" precision="FP32">
					<dim>1</dim>
					<dim>1</dim>
					<dim>1</dim>
				</port>
				<port id="3" precision="FP32">
					<dim>1</dim>
					<dim>1</dim>
					<dim>1</dim>
				</port>
				<port id="4" precision="FP32">
					<dim>1</dim>
					<dim>1</dim>
					<dim>1</dim>
				</port>
			</input>
			<output>
				<port id="5" precision="FP32" names="/nncf_module/bert/embeddings/position_embeddings/BertForQuestionAnswering/BertModel[bert]/BertEmbeddings[embeddings]/NNCFEmbedding[position_embeddings]/embedding_0|OUTPUT/FakeQuantize_output_0">
					<dim>1</dim>
					<dim>384</dim>
					<dim>768</dim>
				</port>
			</output>
		</layer>
		<layer id="82" name="/nncf_module/bert/embeddings/Add_1" type="Add" version="opset1">
			<data auto_broadcast="numpy" />
			<input>
				<port id="0" precision="FP32">
					<dim>1</dim>
					<dim>384</dim>
					<dim>768</dim>
				</port>
				<port id="1" precision="FP32">
					<dim>1</dim>
					<dim>384</dim>
					<dim>768</dim>
				</port>
			</input>
			<output>
				<port id="2" precision="FP32" names="/nncf_module/bert/embeddings/Add_1_output_0">
					<dim>1</dim>
					<dim>384</dim>
					<dim>768</dim>
				</port>
			</output>
		</layer>
		<layer id="83" name="Constant_162" type="Const" version="opset1">
			<data element_type="i64" shape="1" offset="23994416" size="8" />
			<output>
				<port id="0" precision="I64">
					<dim>1</dim>
				</port>
			</output>
		</layer>
		<layer id="84" name="/nncf_module/bert/embeddings/LayerNorm/Div" type="MVN" version="opset6">
			<data eps="9.999999960041972e-13" normalize_variance="true" eps_mode="INSIDE_SQRT" />
			<input>
				<port id="0" precision="FP32">
					<dim>1</dim>
					<dim>384</dim>
					<dim>768</dim>
				</port>
				<port id="1" precision="I64">
					<dim>1</dim>
				</port>
			</input>
			<output>
				<port id="2" precision="FP32" names="/nncf_module/bert/embeddings/LayerNorm/Div_output_0">
					<dim>1</dim>
					<dim>384</dim>
					<dim>768</dim>
				</port>
			</output>
		</layer>
		<layer id="85" name="Constant_22001" type="Const" version="opset1">
			<data element_type="f32" shape="1, 1, 768" offset="23994424" size="3072" />
			<output>
				<port id="0" precision="FP32">
					<dim>1</dim>
					<dim>1</dim>
					<dim>768</dim>
				</port>
			</output>
		</layer>
		<layer id="86" name="/nncf_module/bert/embeddings/LayerNorm/Mul" type="Multiply" version="opset1">
			<data auto_broadcast="numpy" />
			<input>
				<port id="0" precision="FP32">
					<dim>1</dim>
					<dim>384</dim>
					<dim>768</dim>
				</port>
				<port id="1" precision="FP32">
					<dim>1</dim>
					<dim>1</dim>
					<dim>768</dim>
				</port>
			</input>
			<output>
				<port id="2" precision="FP32" names="/nncf_module/bert/embeddings/LayerNorm/Mul_output_0">
					<dim>1</dim>
					<dim>384</dim>
					<dim>768</dim>
				</port>
			</output>
		</layer>
		<layer id="87" name="Constant_22002" type="Const" version="opset1">
			<data element_type="f32" shape="1, 1, 768" offset="23997496" size="3072" />
			<output>
				<port id="0" precision="FP32">
					<dim>1</dim>
					<dim>1</dim>
					<dim>768</dim>
				</port>
			</output>
		</layer>
		<layer id="88" name="/nncf_module/bert/embeddings/LayerNorm/Add_1" type="Add" version="opset1">
			<data auto_broadcast="numpy" />
			<input>
				<port id="0" precision="FP32">
					<dim>1</dim>
					<dim>384</dim>
					<dim>768</dim>
				</port>
				<port id="1" precision="FP32">
					<dim>1</dim>
					<dim>1</dim>
					<dim>768</dim>
				</port>
			</input>
			<output>
				<port id="2" precision="FP32" names="/nncf_module/bert/embeddings/LayerNorm/Add_1_output_0">
					<dim>1</dim>
					<dim>384</dim>
					<dim>768</dim>
				</port>
			</output>
		</layer>
		<layer id="89" name="Constant_22003" type="Const" version="opset1">
			<data element_type="f32" shape="1, 1, 1" offset="24000568" size="4" />
			<output>
				<port id="0" precision="FP32">
					<dim>1</dim>
					<dim>1</dim>
					<dim>1</dim>
				</port>
			</output>
		</layer>
		<layer id="90" name="Constant_22004" type="Const" version="opset1">
			<data element_type="f32" shape="1, 1, 1" offset="24000572" size="4" />
			<output>
				<port id="0" precision="FP32">
					<dim>1</dim>
					<dim>1</dim>
					<dim>1</dim>
				</port>
			</output>
		</layer>
		<layer id="91" name="Constant_22005" type="Const" version="opset1">
			<data element_type="f32" shape="1, 1, 1" offset="24000568" size="4" />
			<output>
				<port id="0" precision="FP32">
					<dim>1</dim>
					<dim>1</dim>
					<dim>1</dim>
				</port>
			</output>
		</layer>
		<layer id="92" name="Constant_22006" type="Const" version="opset1">
			<data element_type="f32" shape="1, 1, 1" offset="24000572" size="4" />
			<output>
				<port id="0" precision="FP32">
					<dim>1</dim>
					<dim>1</dim>
					<dim>1</dim>
				</port>
			</output>
		</layer>
		<layer id="93" name="/nncf_module/bert/encoder/layer.0/attention/self/query/BertForQuestionAnswering/BertModel[bert]/BertEncoder[encoder]/ModuleList[layer]/BertLayer[0]/BertAttention[attention]/BertSelfAttention[self]/NNCFLinear[query]/linear_0|INPUT0/FakeQuantize" type="FakeQuantize" version="opset1">
			<data levels="256" auto_broadcast="numpy" />
			<input>
				<port id="0" precision="FP32">
					<dim>1</dim>
					<dim>384</dim>
					<dim>768</dim>
				</port>
				<port id="1" precision="FP32">
					<dim>1</dim>
					<dim>1</dim>
					<dim>1</dim>
				</port>
				<port id="2" precision="FP32">
					<dim>1</dim>
					<dim>1</dim>
					<dim>1</dim>
				</port>
				<port id="3" precision="FP32">
					<dim>1</dim>
					<dim>1</dim>
					<dim>1</dim>
				</port>
				<port id="4" precision="FP32">
					<dim>1</dim>
					<dim>1</dim>
					<dim>1</dim>
				</port>
			</input>
			<output>
				<port id="5" precision="FP32" names="/nncf_module/bert/encoder/layer.0/attention/self/query/BertForQuestionAnswering/BertModel[bert]/BertEncoder[encoder]/ModuleList[layer]/BertLayer[0]/BertAttention[attention]/BertSelfAttention[self]/NNCFLinear[query]/linear_0|INPUT0/FakeQuantize_output_0">
					<dim>1</dim>
					<dim>384</dim>
					<dim>768</dim>
				</port>
			</output>
		</layer>
		<layer id="94" name="Constant_38198" type="Const" version="opset1">
			<data element_type="i8" shape="448, 768" offset="24000576" size="344064" />
			<output>
				<port id="0" precision="I8">
					<dim>448</dim>
					<dim>768</dim>
				</port>
			</output>
		</layer>
		<layer id="95" name="Convert_23895" type="Convert" version="opset1">
			<data destination_type="f32" />
			<input>
				<port id="0" precision="I8">
					<dim>448</dim>
					<dim>768</dim>
				</port>
			</input>
			<output>
				<port id="1" precision="FP32">
					<dim>448</dim>
					<dim>768</dim>
				</port>
			</output>
		</layer>
		<layer id="96" name="Constant_38205" type="Const" version="opset1">
			<data element_type="f32" shape="448, 1" offset="24344640" size="1792" />
			<output>
				<port id="0" precision="FP32">
					<dim>448</dim>
					<dim>1</dim>
				</port>
			</output>
		</layer>
		<layer id="97" name="/nncf_module/bert/encoder/layer.0/attention/self/query/pre_ops.1/op/FakeQuantize" type="Multiply" version="opset1">
			<data auto_broadcast="numpy" />
			<input>
				<port id="0" precision="FP32">
					<dim>448</dim>
					<dim>768</dim>
				</port>
				<port id="1" precision="FP32">
					<dim>448</dim>
					<dim>1</dim>
				</port>
			</input>
			<output>
				<port id="2" precision="FP32" names="/nncf_module/bert/encoder/layer.0/attention/self/query/pre_ops.1/op/FakeQuantize_output_0">
					<dim>448</dim>
					<dim>768</dim>
				</port>
			</output>
		</layer>
		<layer id="98" name="/nncf_module/bert/encoder/layer.0/attention/self/query/MatMul" type="MatMul" version="opset1">
			<data transpose_a="false" transpose_b="true" />
			<input>
				<port id="0" precision="FP32">
					<dim>1</dim>
					<dim>384</dim>
					<dim>768</dim>
				</port>
				<port id="1" precision="FP32">
					<dim>448</dim>
					<dim>768</dim>
				</port>
			</input>
			<output>
				<port id="2" precision="FP32" names="/nncf_module/bert/encoder/layer.0/attention/self/query/MatMul_output_0">
					<dim>1</dim>
					<dim>384</dim>
					<dim>448</dim>
				</port>
			</output>
		</layer>
		<layer id="99" name="/nncf_module/bert/encoder/layer.0/attention/self/query/Add" type="Add" version="opset1">
			<data auto_broadcast="numpy" />
			<input>
				<port id="0" precision="FP32">
					<dim>1</dim>
					<dim>1</dim>
					<dim>448</dim>
				</port>
				<port id="1" precision="FP32">
					<dim>1</dim>
					<dim>384</dim>
					<dim>448</dim>
				</port>
			</input>
			<output>
				<port id="2" precision="FP32" names="/nncf_module/bert/encoder/layer.0/attention/self/query/Add_output_0">
					<dim>1</dim>
					<dim>384</dim>
					<dim>448</dim>
				</port>
			</output>
		</layer>
		<layer id="100" name="Constant_22008" type="Const" version="opset1">
			<data element_type="f32" shape="1, 1, 1" offset="24346432" size="4" />
			<output>
				<port id="0" precision="FP32">
					<dim>1</dim>
					<dim>1</dim>
					<dim>1</dim>
				</port>
			</output>
		</layer>
		<layer id="101" name="Constant_22009" type="Const" version="opset1">
			<data element_type="f32" shape="1, 1, 1" offset="24346436" size="4" />
			<output>
				<port id="0" precision="FP32">
					<dim>1</dim>
					<dim>1</dim>
					<dim>1</dim>
				</port>
			</output>
		</layer>
		<layer id="102" name="Constant_22010" type="Const" version="opset1">
			<data element_type="f32" shape="1, 1, 1" offset="24346432" size="4" />
			<output>
				<port id="0" precision="FP32">
					<dim>1</dim>
					<dim>1</dim>
					<dim>1</dim>
				</port>
			</output>
		</layer>
		<layer id="103" name="Constant_22011" type="Const" version="opset1">
			<data element_type="f32" shape="1, 1, 1" offset="24346436" size="4" />
			<output>
				<port id="0" precision="FP32">
					<dim>1</dim>
					<dim>1</dim>
					<dim>1</dim>
				</port>
			</output>
		</layer>
		<layer id="104" name="/nncf_module/bert/encoder/layer.0/attention/self/query/BertForQuestionAnswering/BertModel[bert]/BertEncoder[encoder]/ModuleList[layer]/BertLayer[0]/BertAttention[attention]/BertSelfAttention[self]/NNCFLinear[query]/linear_0|OUTPUT/FakeQuantize" type="FakeQuantize" version="opset1">
			<data levels="256" auto_broadcast="numpy" />
			<input>
				<port id="0" precision="FP32">
					<dim>1</dim>
					<dim>384</dim>
					<dim>448</dim>
				</port>
				<port id="1" precision="FP32">
					<dim>1</dim>
					<dim>1</dim>
					<dim>1</dim>
				</port>
				<port id="2" precision="FP32">
					<dim>1</dim>
					<dim>1</dim>
					<dim>1</dim>
				</port>
				<port id="3" precision="FP32">
					<dim>1</dim>
					<dim>1</dim>
					<dim>1</dim>
				</port>
				<port id="4" precision="FP32">
					<dim>1</dim>
					<dim>1</dim>
					<dim>1</dim>
				</port>
			</input>
			<output>
				<port id="5" precision="FP32" names="/nncf_module/bert/encoder/layer.0/attention/self/query/BertForQuestionAnswering/BertModel[bert]/BertEncoder[encoder]/ModuleList[layer]/BertLayer[0]/BertAttention[attention]/BertSelfAttention[self]/NNCFLinear[query]/linear_0|OUTPUT/FakeQuantize_output_0">
					<dim>1</dim>
					<dim>384</dim>
					<dim>448</dim>
				</port>
			</output>
		</layer>
		<layer id="105" name="/nncf_module/bert/encoder/layer.0/attention/self/Shape_4" type="ShapeOf" version="opset3">
			<data output_type="i64" />
			<input>
				<port id="0" precision="FP32">
					<dim>1</dim>
					<dim>384</dim>
					<dim>448</dim>
				</port>
			</input>
			<output>
				<port id="1" precision="I64" names="/nncf_module/bert/encoder/layer.0/attention/self/Shape_4_output_0,/nncf_module/bert/encoder/layer.0/attention/self/Shape_5_output_0">
					<dim>3</dim>
				</port>
			</output>
		</layer>
		<layer id="106" name="Constant_16685" type="Const" version="opset1">
			<data element_type="i64" shape="2" offset="24346440" size="16" />
			<output>
				<port id="0" precision="I64">
					<dim>2</dim>
				</port>
			</output>
		</layer>
		<layer id="107" name="Constant_16686" type="Const" version="opset1">
			<data element_type="i64" shape="" offset="23596560" size="8" />
			<output>
				<port id="0" precision="I64" />
			</output>
		</layer>
		<layer id="108" name="Gather_16687" type="Gather" version="opset8">
			<data batch_dims="0" />
			<input>
				<port id="0" precision="I64">
					<dim>3</dim>
				</port>
				<port id="1" precision="I64">
					<dim>2</dim>
				</port>
				<port id="2" precision="I64" />
			</input>
			<output>
				<port id="3" precision="I64">
					<dim>2</dim>
				</port>
			</output>
		</layer>
		<layer id="109" name="/nncf_module/bert/encoder/layer.0/attention/self/Constant_10" type="Const" version="opset1">
			<data element_type="i64" shape="1" offset="24346456" size="8" />
			<output>
				<port id="0" precision="I64" names="/nncf_module/bert/encoder/layer.0/attention/self/Constant_10_output_0">
					<dim>1</dim>
				</port>
			</output>
		</layer>
		<layer id="110" name="/nncf_module/bert/encoder/layer.0/attention/self/Constant_11" type="Const" version="opset1">
			<data element_type="i64" shape="1" offset="24346464" size="8" />
			<output>
				<port id="0" precision="I64" names="/nncf_module/bert/encoder/layer.0/attention/self/Constant_11_output_0">
					<dim>1</dim>
				</port>
			</output>
		</layer>
		<layer id="111" name="/nncf_module/bert/encoder/layer.0/attention/self/Concat_2" type="Concat" version="opset1">
			<data axis="0" />
			<input>
				<port id="0" precision="I64">
					<dim>2</dim>
				</port>
				<port id="1" precision="I64">
					<dim>1</dim>
				</port>
				<port id="2" precision="I64">
					<dim>1</dim>
				</port>
			</input>
			<output>
				<port id="3" precision="I64" names="/nncf_module/bert/encoder/layer.0/attention/self/Concat_2_output_0">
					<dim>4</dim>
				</port>
			</output>
		</layer>
		<layer id="112" name="Constant_38228" type="Const" version="opset1">
			<data element_type="i64" shape="4" offset="24346472" size="32" />
			<output>
				<port id="0" precision="I64">
					<dim>4</dim>
				</port>
			</output>
		</layer>
		<layer id="113" name="Subtract_38229" type="Subtract" version="opset1">
			<data auto_broadcast="numpy" />
			<input>
				<port id="0" precision="I64">
					<dim>4</dim>
				</port>
				<port id="1" precision="I64">
					<dim>4</dim>
				</port>
			</input>
			<output>
				<port id="2" precision="I64">
					<dim>4</dim>
				</port>
			</output>
		</layer>
		<layer id="114" name="/nncf_module/bert/encoder/layer.0/attention/self/Reshape_2" type="Reshape" version="opset1">
			<data special_zero="true" />
			<input>
				<port id="0" precision="FP32">
					<dim>1</dim>
					<dim>384</dim>
					<dim>448</dim>
				</port>
				<port id="1" precision="I64">
					<dim>4</dim>
				</port>
			</input>
			<output>
				<port id="2" precision="FP32" names="/nncf_module/bert/encoder/layer.0/attention/self/Reshape_2_output_0">
					<dim>1</dim>
					<dim>384</dim>
					<dim>7</dim>
					<dim>64</dim>
				</port>
			</output>
		</layer>
		<layer id="115" name="Constant_405" type="Const" version="opset1">
			<data element_type="i64" shape="4" offset="24346504" size="32" />
			<output>
				<port id="0" precision="I64">
					<dim>4</dim>
				</port>
			</output>
		</layer>
		<layer id="116" name="/nncf_module/bert/encoder/layer.0/attention/self/Transpose_1" type="Transpose" version="opset1">
			<input>
				<port id="0" precision="FP32">
					<dim>1</dim>
					<dim>384</dim>
					<dim>7</dim>
					<dim>64</dim>
				</port>
				<port id="1" precision="I64">
					<dim>4</dim>
				</port>
			</input>
			<output>
				<port id="2" precision="FP32" names="/nncf_module/bert/encoder/layer.0/attention/self/Transpose_1_output_0">
					<dim>1</dim>
					<dim>7</dim>
					<dim>384</dim>
					<dim>64</dim>
				</port>
			</output>
		</layer>
		<layer id="117" name="Constant_38265" type="Const" version="opset1">
			<data element_type="f32" shape="1, 1, 448" offset="24346536" size="1792" />
			<output>
				<port id="0" precision="FP32">
					<dim>1</dim>
					<dim>1</dim>
					<dim>448</dim>
				</port>
			</output>
		</layer>
		<layer id="118" name="Constant_22012" type="Const" version="opset1">
			<data element_type="f32" shape="1, 1, 1" offset="24348328" size="4" />
			<output>
				<port id="0" precision="FP32">
					<dim>1</dim>
					<dim>1</dim>
					<dim>1</dim>
				</port>
			</output>
		</layer>
		<layer id="119" name="Constant_22013" type="Const" version="opset1">
			<data element_type="f32" shape="1, 1, 1" offset="24348332" size="4" />
			<output>
				<port id="0" precision="FP32">
					<dim>1</dim>
					<dim>1</dim>
					<dim>1</dim>
				</port>
			</output>
		</layer>
		<layer id="120" name="Constant_22014" type="Const" version="opset1">
			<data element_type="f32" shape="1, 1, 1" offset="24348328" size="4" />
			<output>
				<port id="0" precision="FP32">
					<dim>1</dim>
					<dim>1</dim>
					<dim>1</dim>
				</port>
			</output>
		</layer>
		<layer id="121" name="Constant_22015" type="Const" version="opset1">
			<data element_type="f32" shape="1, 1, 1" offset="24348332" size="4" />
			<output>
				<port id="0" precision="FP32">
					<dim>1</dim>
					<dim>1</dim>
					<dim>1</dim>
				</port>
			</output>
		</layer>
		<layer id="122" name="/nncf_module/bert/encoder/layer.0/attention/self/key/BertForQuestionAnswering/BertModel[bert]/BertEncoder[encoder]/ModuleList[layer]/BertLayer[0]/BertAttention[attention]/BertSelfAttention[self]/NNCFLinear[key]/linear_0|INPUT0/FakeQuantize" type="FakeQuantize" version="opset1">
			<data levels="256" auto_broadcast="numpy" />
			<input>
				<port id="0" precision="FP32">
					<dim>1</dim>
					<dim>384</dim>
					<dim>768</dim>
				</port>
				<port id="1" precision="FP32">
					<dim>1</dim>
					<dim>1</dim>
					<dim>1</dim>
				</port>
				<port id="2" precision="FP32">
					<dim>1</dim>
					<dim>1</dim>
					<dim>1</dim>
				</port>
				<port id="3" precision="FP32">
					<dim>1</dim>
					<dim>1</dim>
					<dim>1</dim>
				</port>
				<port id="4" precision="FP32">
					<dim>1</dim>
					<dim>1</dim>
					<dim>1</dim>
				</port>
			</input>
			<output>
				<port id="5" precision="FP32" names="/nncf_module/bert/encoder/layer.0/attention/self/key/BertForQuestionAnswering/BertModel[bert]/BertEncoder[encoder]/ModuleList[layer]/BertLayer[0]/BertAttention[attention]/BertSelfAttention[self]/NNCFLinear[key]/linear_0|INPUT0/FakeQuantize_output_0">
					<dim>1</dim>
					<dim>384</dim>
					<dim>768</dim>
				</port>
			</output>
		</layer>
		<layer id="123" name="Constant_38272" type="Const" version="opset1">
			<data element_type="i8" shape="448, 768" offset="24348336" size="344064" />
			<output>
				<port id="0" precision="I8">
					<dim>448</dim>
					<dim>768</dim>
				</port>
			</output>
		</layer>
		<layer id="124" name="Convert_24016" type="Convert" version="opset1">
			<data destination_type="f32" />
			<input>
				<port id="0" precision="I8">
					<dim>448</dim>
					<dim>768</dim>
				</port>
			</input>
			<output>
				<port id="1" precision="FP32">
					<dim>448</dim>
					<dim>768</dim>
				</port>
			</output>
		</layer>
		<layer id="125" name="Constant_38279" type="Const" version="opset1">
			<data element_type="f32" shape="448, 1" offset="24692400" size="1792" />
			<output>
				<port id="0" precision="FP32">
					<dim>448</dim>
					<dim>1</dim>
				</port>
			</output>
		</layer>
		<layer id="126" name="/nncf_module/bert/encoder/layer.0/attention/self/key/pre_ops.1/op/FakeQuantize" type="Multiply" version="opset1">
			<data auto_broadcast="numpy" />
			<input>
				<port id="0" precision="FP32">
					<dim>448</dim>
					<dim>768</dim>
				</port>
				<port id="1" precision="FP32">
					<dim>448</dim>
					<dim>1</dim>
				</port>
			</input>
			<output>
				<port id="2" precision="FP32" names="/nncf_module/bert/encoder/layer.0/attention/self/key/pre_ops.1/op/FakeQuantize_output_0">
					<dim>448</dim>
					<dim>768</dim>
				</port>
			</output>
		</layer>
		<layer id="127" name="/nncf_module/bert/encoder/layer.0/attention/self/key/MatMul" type="MatMul" version="opset1">
			<data transpose_a="false" transpose_b="true" />
			<input>
				<port id="0" precision="FP32">
					<dim>1</dim>
					<dim>384</dim>
					<dim>768</dim>
				</port>
				<port id="1" precision="FP32">
					<dim>448</dim>
					<dim>768</dim>
				</port>
			</input>
			<output>
				<port id="2" precision="FP32" names="/nncf_module/bert/encoder/layer.0/attention/self/key/MatMul_output_0">
					<dim>1</dim>
					<dim>384</dim>
					<dim>448</dim>
				</port>
			</output>
		</layer>
		<layer id="128" name="/nncf_module/bert/encoder/layer.0/attention/self/key/Add" type="Add" version="opset1">
			<data auto_broadcast="numpy" />
			<input>
				<port id="0" precision="FP32">
					<dim>1</dim>
					<dim>1</dim>
					<dim>448</dim>
				</port>
				<port id="1" precision="FP32">
					<dim>1</dim>
					<dim>384</dim>
					<dim>448</dim>
				</port>
			</input>
			<output>
				<port id="2" precision="FP32" names="/nncf_module/bert/encoder/layer.0/attention/self/key/Add_output_0">
					<dim>1</dim>
					<dim>384</dim>
					<dim>448</dim>
				</port>
			</output>
		</layer>
		<layer id="129" name="Constant_22017" type="Const" version="opset1">
			<data element_type="f32" shape="1, 1, 1" offset="24694192" size="4" />
			<output>
				<port id="0" precision="FP32">
					<dim>1</dim>
					<dim>1</dim>
					<dim>1</dim>
				</port>
			</output>
		</layer>
		<layer id="130" name="Constant_22018" type="Const" version="opset1">
			<data element_type="f32" shape="1, 1, 1" offset="24694196" size="4" />
			<output>
				<port id="0" precision="FP32">
					<dim>1</dim>
					<dim>1</dim>
					<dim>1</dim>
				</port>
			</output>
		</layer>
		<layer id="131" name="Constant_22019" type="Const" version="opset1">
			<data element_type="f32" shape="1, 1, 1" offset="24694192" size="4" />
			<output>
				<port id="0" precision="FP32">
					<dim>1</dim>
					<dim>1</dim>
					<dim>1</dim>
				</port>
			</output>
		</layer>
		<layer id="132" name="Constant_22020" type="Const" version="opset1">
			<data element_type="f32" shape="1, 1, 1" offset="24694196" size="4" />
			<output>
				<port id="0" precision="FP32">
					<dim>1</dim>
					<dim>1</dim>
					<dim>1</dim>
				</port>
			</output>
		</layer>
		<layer id="133" name="/nncf_module/bert/encoder/layer.0/attention/self/key/BertForQuestionAnswering/BertModel[bert]/BertEncoder[encoder]/ModuleList[layer]/BertLayer[0]/BertAttention[attention]/BertSelfAttention[self]/NNCFLinear[key]/linear_0|OUTPUT/FakeQuantize" type="FakeQuantize" version="opset1">
			<data levels="256" auto_broadcast="numpy" />
			<input>
				<port id="0" precision="FP32">
					<dim>1</dim>
					<dim>384</dim>
					<dim>448</dim>
				</port>
				<port id="1" precision="FP32">
					<dim>1</dim>
					<dim>1</dim>
					<dim>1</dim>
				</port>
				<port id="2" precision="FP32">
					<dim>1</dim>
					<dim>1</dim>
					<dim>1</dim>
				</port>
				<port id="3" precision="FP32">
					<dim>1</dim>
					<dim>1</dim>
					<dim>1</dim>
				</port>
				<port id="4" precision="FP32">
					<dim>1</dim>
					<dim>1</dim>
					<dim>1</dim>
				</port>
			</input>
			<output>
				<port id="5" precision="FP32" names="/nncf_module/bert/encoder/layer.0/attention/self/key/BertForQuestionAnswering/BertModel[bert]/BertEncoder[encoder]/ModuleList[layer]/BertLayer[0]/BertAttention[attention]/BertSelfAttention[self]/NNCFLinear[key]/linear_0|OUTPUT/FakeQuantize_output_0">
					<dim>1</dim>
					<dim>384</dim>
					<dim>448</dim>
				</port>
			</output>
		</layer>
		<layer id="134" name="/nncf_module/bert/encoder/layer.0/attention/self/Shape" type="ShapeOf" version="opset3">
			<data output_type="i64" />
			<input>
				<port id="0" precision="FP32">
					<dim>1</dim>
					<dim>384</dim>
					<dim>448</dim>
				</port>
			</input>
			<output>
				<port id="1" precision="I64" names="/nncf_module/bert/encoder/layer.0/attention/self/Shape_1_output_0,/nncf_module/bert/encoder/layer.0/attention/self/Shape_output_0">
					<dim>3</dim>
				</port>
			</output>
		</layer>
		<layer id="135" name="Constant_16690" type="Const" version="opset1">
			<data element_type="i64" shape="2" offset="24346440" size="16" />
			<output>
				<port id="0" precision="I64">
					<dim>2</dim>
				</port>
			</output>
		</layer>
		<layer id="136" name="Constant_16691" type="Const" version="opset1">
			<data element_type="i64" shape="" offset="23596560" size="8" />
			<output>
				<port id="0" precision="I64" />
			</output>
		</layer>
		<layer id="137" name="Gather_16692" type="Gather" version="opset8">
			<data batch_dims="0" />
			<input>
				<port id="0" precision="I64">
					<dim>3</dim>
				</port>
				<port id="1" precision="I64">
					<dim>2</dim>
				</port>
				<port id="2" precision="I64" />
			</input>
			<output>
				<port id="3" precision="I64">
					<dim>2</dim>
				</port>
			</output>
		</layer>
		<layer id="138" name="/nncf_module/bert/encoder/layer.0/attention/self/Constant_2" type="Const" version="opset1">
			<data element_type="i64" shape="1" offset="24346456" size="8" />
			<output>
				<port id="0" precision="I64" names="/nncf_module/bert/encoder/layer.0/attention/self/Constant_2_output_0">
					<dim>1</dim>
				</port>
			</output>
		</layer>
		<layer id="139" name="/nncf_module/bert/encoder/layer.0/attention/self/Constant_3" type="Const" version="opset1">
			<data element_type="i64" shape="1" offset="24346464" size="8" />
			<output>
				<port id="0" precision="I64" names="/nncf_module/bert/encoder/layer.0/attention/self/Constant_3_output_0">
					<dim>1</dim>
				</port>
			</output>
		</layer>
		<layer id="140" name="/nncf_module/bert/encoder/layer.0/attention/self/Concat" type="Concat" version="opset1">
			<data axis="0" />
			<input>
				<port id="0" precision="I64">
					<dim>2</dim>
				</port>
				<port id="1" precision="I64">
					<dim>1</dim>
				</port>
				<port id="2" precision="I64">
					<dim>1</dim>
				</port>
			</input>
			<output>
				<port id="3" precision="I64" names="/nncf_module/bert/encoder/layer.0/attention/self/Concat_output_0">
					<dim>4</dim>
				</port>
			</output>
		</layer>
		<layer id="141" name="Constant_38302" type="Const" version="opset1">
			<data element_type="i64" shape="4" offset="24346472" size="32" />
			<output>
				<port id="0" precision="I64">
					<dim>4</dim>
				</port>
			</output>
		</layer>
		<layer id="142" name="Subtract_38303" type="Subtract" version="opset1">
			<data auto_broadcast="numpy" />
			<input>
				<port id="0" precision="I64">
					<dim>4</dim>
				</port>
				<port id="1" precision="I64">
					<dim>4</dim>
				</port>
			</input>
			<output>
				<port id="2" precision="I64">
					<dim>4</dim>
				</port>
			</output>
		</layer>
		<layer id="143" name="/nncf_module/bert/encoder/layer.0/attention/self/Reshape" type="Reshape" version="opset1">
			<data special_zero="true" />
			<input>
				<port id="0" precision="FP32">
					<dim>1</dim>
					<dim>384</dim>
					<dim>448</dim>
				</port>
				<port id="1" precision="I64">
					<dim>4</dim>
				</port>
			</input>
			<output>
				<port id="2" precision="FP32" names="/nncf_module/bert/encoder/layer.0/attention/self/Reshape_output_0">
					<dim>1</dim>
					<dim>384</dim>
					<dim>7</dim>
					<dim>64</dim>
				</port>
			</output>
		</layer>
		<layer id="144" name="Constant_407" type="Const" version="opset1">
			<data element_type="i64" shape="4" offset="24694200" size="32" />
			<output>
				<port id="0" precision="I64">
					<dim>4</dim>
				</port>
			</output>
		</layer>
		<layer id="145" name="/nncf_module/bert/encoder/layer.0/attention/self/Transpose_2" type="Transpose" version="opset1">
			<input>
				<port id="0" precision="FP32">
					<dim>1</dim>
					<dim>384</dim>
					<dim>7</dim>
					<dim>64</dim>
				</port>
				<port id="1" precision="I64">
					<dim>4</dim>
				</port>
			</input>
			<output>
				<port id="2" precision="FP32" names="/nncf_module/bert/encoder/layer.0/attention/self/Transpose_2_output_0">
					<dim>1</dim>
					<dim>7</dim>
					<dim>64</dim>
					<dim>384</dim>
				</port>
			</output>
		</layer>
		<layer id="146" name="Constant_22021" type="Const" version="opset1">
			<data element_type="f32" shape="1, 1, 1, 1" offset="24694232" size="4" />
			<output>
				<port id="0" precision="FP32">
					<dim>1</dim>
					<dim>1</dim>
					<dim>1</dim>
					<dim>1</dim>
				</port>
			</output>
		</layer>
		<layer id="147" name="Multiply_21698" type="Multiply" version="opset1">
			<data auto_broadcast="numpy" />
			<input>
				<port id="0" precision="FP32">
					<dim>1</dim>
					<dim>7</dim>
					<dim>64</dim>
					<dim>384</dim>
				</port>
				<port id="1" precision="FP32">
					<dim>1</dim>
					<dim>1</dim>
					<dim>1</dim>
					<dim>1</dim>
				</port>
			</input>
			<output>
				<port id="2" precision="FP32">
					<dim>1</dim>
					<dim>7</dim>
					<dim>64</dim>
					<dim>384</dim>
				</port>
			</output>
		</layer>
		<layer id="148" name="/nncf_module/bert/encoder/layer.0/attention/self/Div" type="MatMul" version="opset1">
			<data transpose_a="false" transpose_b="false" />
			<input>
				<port id="0" precision="FP32">
					<dim>1</dim>
					<dim>7</dim>
					<dim>384</dim>
					<dim>64</dim>
				</port>
				<port id="1" precision="FP32">
					<dim>1</dim>
					<dim>7</dim>
					<dim>64</dim>
					<dim>384</dim>
				</port>
			</input>
			<output>
				<port id="2" precision="FP32" names="/nncf_module/bert/encoder/layer.0/attention/self/Div_output_0">
					<dim>1</dim>
					<dim>7</dim>
					<dim>384</dim>
					<dim>384</dim>
				</port>
			</output>
		</layer>
		<layer id="149" name="Constant_22022" type="Const" version="opset1">
			<data element_type="f32" shape="1, 1, 1, 1" offset="24694236" size="4" />
			<output>
				<port id="0" precision="FP32">
					<dim>1</dim>
					<dim>1</dim>
					<dim>1</dim>
					<dim>1</dim>
				</port>
			</output>
		</layer>
		<layer id="150" name="/nncf_module/bert/Constant" type="Const" version="opset1">
			<data element_type="i64" shape="1" offset="24694240" size="8" />
			<output>
				<port id="0" precision="I64" names="/nncf_module/bert/Constant_output_0">
					<dim>1</dim>
				</port>
			</output>
		</layer>
		<layer id="151" name="/nncf_module/bert/Unsqueeze" type="Unsqueeze" version="opset1">
			<input>
				<port id="0" precision="I64">
					<dim>1</dim>
					<dim>384</dim>
				</port>
				<port id="1" precision="I64">
					<dim>1</dim>
				</port>
			</input>
			<output>
				<port id="2" precision="I64" names="/nncf_module/bert/Unsqueeze_output_0">
					<dim>1</dim>
					<dim>1</dim>
					<dim>384</dim>
				</port>
			</output>
		</layer>
		<layer id="152" name="/nncf_module/bert/Constant_1" type="Const" version="opset1">
			<data element_type="i64" shape="1" offset="24694248" size="8" />
			<output>
				<port id="0" precision="I64" names="/nncf_module/bert/Constant_1_output_0">
					<dim>1</dim>
				</port>
			</output>
		</layer>
		<layer id="153" name="/nncf_module/bert/Unsqueeze_1" type="Unsqueeze" version="opset1">
			<input>
				<port id="0" precision="I64">
					<dim>1</dim>
					<dim>1</dim>
					<dim>384</dim>
				</port>
				<port id="1" precision="I64">
					<dim>1</dim>
				</port>
			</input>
			<output>
				<port id="2" precision="I64" names="/nncf_module/bert/Unsqueeze_1_output_0">
					<dim>1</dim>
					<dim>1</dim>
					<dim>1</dim>
					<dim>384</dim>
				</port>
			</output>
		</layer>
		<layer id="154" name="/nncf_module/bert/Cast" type="Convert" version="opset1">
			<data destination_type="f32" />
			<input>
				<port id="0" precision="I64">
					<dim>1</dim>
					<dim>1</dim>
					<dim>1</dim>
					<dim>384</dim>
				</port>
			</input>
			<output>
				<port id="1" precision="FP32" names="/nncf_module/bert/Cast_output_0">
					<dim>1</dim>
					<dim>1</dim>
					<dim>1</dim>
					<dim>384</dim>
				</port>
			</output>
		</layer>
		<layer id="155" name="/nncf_module/bert/Sub" type="Subtract" version="opset1">
			<data auto_broadcast="numpy" />
			<input>
				<port id="0" precision="FP32">
					<dim>1</dim>
					<dim>1</dim>
					<dim>1</dim>
					<dim>1</dim>
				</port>
				<port id="1" precision="FP32">
					<dim>1</dim>
					<dim>1</dim>
					<dim>1</dim>
					<dim>384</dim>
				</port>
			</input>
			<output>
				<port id="2" precision="FP32" names="/nncf_module/bert/Sub_output_0">
					<dim>1</dim>
					<dim>1</dim>
					<dim>1</dim>
					<dim>384</dim>
				</port>
			</output>
		</layer>
		<layer id="156" name="Constant_22023" type="Const" version="opset1">
			<data element_type="f32" shape="1, 1, 1, 1" offset="24694256" size="4" />
			<output>
				<port id="0" precision="FP32">
					<dim>1</dim>
					<dim>1</dim>
					<dim>1</dim>
					<dim>1</dim>
				</port>
			</output>
		</layer>
		<layer id="157" name="/nncf_module/bert/Mul" type="Multiply" version="opset1">
			<data auto_broadcast="numpy" />
			<input>
				<port id="0" precision="FP32">
					<dim>1</dim>
					<dim>1</dim>
					<dim>1</dim>
					<dim>384</dim>
				</port>
				<port id="1" precision="FP32">
					<dim>1</dim>
					<dim>1</dim>
					<dim>1</dim>
					<dim>1</dim>
				</port>
			</input>
			<output>
				<port id="2" precision="FP32" names="/nncf_module/bert/Mul_output_0">
					<dim>1</dim>
					<dim>1</dim>
					<dim>1</dim>
					<dim>384</dim>
				</port>
			</output>
		</layer>
		<layer id="158" name="/nncf_module/bert/encoder/layer.0/attention/self/Add" type="Add" version="opset1">
			<data auto_broadcast="numpy" />
			<input>
				<port id="0" precision="FP32">
					<dim>1</dim>
					<dim>7</dim>
					<dim>384</dim>
					<dim>384</dim>
				</port>
				<port id="1" precision="FP32">
					<dim>1</dim>
					<dim>1</dim>
					<dim>1</dim>
					<dim>384</dim>
				</port>
			</input>
			<output>
				<port id="2" precision="FP32" names="/nncf_module/bert/encoder/layer.0/attention/self/Add_output_0">
					<dim>1</dim>
					<dim>7</dim>
					<dim>384</dim>
					<dim>384</dim>
				</port>
			</output>
		</layer>
		<layer id="159" name="/nncf_module/bert/encoder/layer.0/attention/self/Softmax" type="SoftMax" version="opset8">
			<data axis="-1" />
			<input>
				<port id="0" precision="FP32">
					<dim>1</dim>
					<dim>7</dim>
					<dim>384</dim>
					<dim>384</dim>
				</port>
			</input>
			<output>
				<port id="1" precision="FP32" names="/nncf_module/bert/encoder/layer.0/attention/self/Softmax_output_0">
					<dim>1</dim>
					<dim>7</dim>
					<dim>384</dim>
					<dim>384</dim>
				</port>
			</output>
		</layer>
		<layer id="160" name="Constant_38339" type="Const" version="opset1">
			<data element_type="f32" shape="1, 1, 448" offset="24694260" size="1792" />
			<output>
				<port id="0" precision="FP32">
					<dim>1</dim>
					<dim>1</dim>
					<dim>448</dim>
				</port>
			</output>
		</layer>
		<layer id="161" name="Constant_22024" type="Const" version="opset1">
			<data element_type="f32" shape="1, 1, 1" offset="24696052" size="4" />
			<output>
				<port id="0" precision="FP32">
					<dim>1</dim>
					<dim>1</dim>
					<dim>1</dim>
				</port>
			</output>
		</layer>
		<layer id="162" name="Constant_22025" type="Const" version="opset1">
			<data element_type="f32" shape="1, 1, 1" offset="24696056" size="4" />
			<output>
				<port id="0" precision="FP32">
					<dim>1</dim>
					<dim>1</dim>
					<dim>1</dim>
				</port>
			</output>
		</layer>
		<layer id="163" name="Constant_22026" type="Const" version="opset1">
			<data element_type="f32" shape="1, 1, 1" offset="24696052" size="4" />
			<output>
				<port id="0" precision="FP32">
					<dim>1</dim>
					<dim>1</dim>
					<dim>1</dim>
				</port>
			</output>
		</layer>
		<layer id="164" name="Constant_22027" type="Const" version="opset1">
			<data element_type="f32" shape="1, 1, 1" offset="24696056" size="4" />
			<output>
				<port id="0" precision="FP32">
					<dim>1</dim>
					<dim>1</dim>
					<dim>1</dim>
				</port>
			</output>
		</layer>
		<layer id="165" name="/nncf_module/bert/encoder/layer.0/attention/self/value/BertForQuestionAnswering/BertModel[bert]/BertEncoder[encoder]/ModuleList[layer]/BertLayer[0]/BertAttention[attention]/BertSelfAttention[self]/NNCFLinear[value]/linear_0|INPUT0/FakeQuantize" type="FakeQuantize" version="opset1">
			<data levels="256" auto_broadcast="numpy" />
			<input>
				<port id="0" precision="FP32">
					<dim>1</dim>
					<dim>384</dim>
					<dim>768</dim>
				</port>
				<port id="1" precision="FP32">
					<dim>1</dim>
					<dim>1</dim>
					<dim>1</dim>
				</port>
				<port id="2" precision="FP32">
					<dim>1</dim>
					<dim>1</dim>
					<dim>1</dim>
				</port>
				<port id="3" precision="FP32">
					<dim>1</dim>
					<dim>1</dim>
					<dim>1</dim>
				</port>
				<port id="4" precision="FP32">
					<dim>1</dim>
					<dim>1</dim>
					<dim>1</dim>
				</port>
			</input>
			<output>
				<port id="5" precision="FP32" names="/nncf_module/bert/encoder/layer.0/attention/self/value/BertForQuestionAnswering/BertModel[bert]/BertEncoder[encoder]/ModuleList[layer]/BertLayer[0]/BertAttention[attention]/BertSelfAttention[self]/NNCFLinear[value]/linear_0|INPUT0/FakeQuantize_output_0">
					<dim>1</dim>
					<dim>384</dim>
					<dim>768</dim>
				</port>
			</output>
		</layer>
		<layer id="166" name="Constant_38346" type="Const" version="opset1">
			<data element_type="i8" shape="448, 768" offset="24696060" size="344064" />
			<output>
				<port id="0" precision="I8">
					<dim>448</dim>
					<dim>768</dim>
				</port>
			</output>
		</layer>
		<layer id="167" name="Convert_24137" type="Convert" version="opset1">
			<data destination_type="f32" />
			<input>
				<port id="0" precision="I8">
					<dim>448</dim>
					<dim>768</dim>
				</port>
			</input>
			<output>
				<port id="1" precision="FP32">
					<dim>448</dim>
					<dim>768</dim>
				</port>
			</output>
		</layer>
		<layer id="168" name="Constant_38353" type="Const" version="opset1">
			<data element_type="f32" shape="448, 1" offset="25040124" size="1792" />
			<output>
				<port id="0" precision="FP32">
					<dim>448</dim>
					<dim>1</dim>
				</port>
			</output>
		</layer>
		<layer id="169" name="/nncf_module/bert/encoder/layer.0/attention/self/value/pre_ops.1/op/FakeQuantize" type="Multiply" version="opset1">
			<data auto_broadcast="numpy" />
			<input>
				<port id="0" precision="FP32">
					<dim>448</dim>
					<dim>768</dim>
				</port>
				<port id="1" precision="FP32">
					<dim>448</dim>
					<dim>1</dim>
				</port>
			</input>
			<output>
				<port id="2" precision="FP32" names="/nncf_module/bert/encoder/layer.0/attention/self/value/pre_ops.1/op/FakeQuantize_output_0">
					<dim>448</dim>
					<dim>768</dim>
				</port>
			</output>
		</layer>
		<layer id="170" name="/nncf_module/bert/encoder/layer.0/attention/self/value/MatMul" type="MatMul" version="opset1">
			<data transpose_a="false" transpose_b="true" />
			<input>
				<port id="0" precision="FP32">
					<dim>1</dim>
					<dim>384</dim>
					<dim>768</dim>
				</port>
				<port id="1" precision="FP32">
					<dim>448</dim>
					<dim>768</dim>
				</port>
			</input>
			<output>
				<port id="2" precision="FP32" names="/nncf_module/bert/encoder/layer.0/attention/self/value/MatMul_output_0">
					<dim>1</dim>
					<dim>384</dim>
					<dim>448</dim>
				</port>
			</output>
		</layer>
		<layer id="171" name="/nncf_module/bert/encoder/layer.0/attention/self/value/Add" type="Add" version="opset1">
			<data auto_broadcast="numpy" />
			<input>
				<port id="0" precision="FP32">
					<dim>1</dim>
					<dim>1</dim>
					<dim>448</dim>
				</port>
				<port id="1" precision="FP32">
					<dim>1</dim>
					<dim>384</dim>
					<dim>448</dim>
				</port>
			</input>
			<output>
				<port id="2" precision="FP32" names="/nncf_module/bert/encoder/layer.0/attention/self/value/Add_output_0">
					<dim>1</dim>
					<dim>384</dim>
					<dim>448</dim>
				</port>
			</output>
		</layer>
		<layer id="172" name="/nncf_module/bert/encoder/layer.0/attention/self/Concat_1" type="Const" version="opset1">
			<data element_type="i64" shape="4" offset="25041916" size="32" />
			<output>
				<port id="0" precision="I64">
					<dim>4</dim>
				</port>
			</output>
		</layer>
		<layer id="173" name="/nncf_module/bert/encoder/layer.0/attention/self/Reshape_1" type="Reshape" version="opset1">
			<data special_zero="true" />
			<input>
				<port id="0" precision="FP32">
					<dim>1</dim>
					<dim>384</dim>
					<dim>448</dim>
				</port>
				<port id="1" precision="I64">
					<dim>4</dim>
				</port>
			</input>
			<output>
				<port id="2" precision="FP32" names="/nncf_module/bert/encoder/layer.0/attention/self/Reshape_1_output_0">
					<dim>1</dim>
					<dim>384</dim>
					<dim>7</dim>
					<dim>64</dim>
				</port>
			</output>
		</layer>
		<layer id="174" name="Constant_340" type="Const" version="opset1">
			<data element_type="i64" shape="4" offset="24346504" size="32" />
			<output>
				<port id="0" precision="I64">
					<dim>4</dim>
				</port>
			</output>
		</layer>
		<layer id="175" name="/nncf_module/bert/encoder/layer.0/attention/self/Transpose" type="Transpose" version="opset1">
			<input>
				<port id="0" precision="FP32">
					<dim>1</dim>
					<dim>384</dim>
					<dim>7</dim>
					<dim>64</dim>
				</port>
				<port id="1" precision="I64">
					<dim>4</dim>
				</port>
			</input>
			<output>
				<port id="2" precision="FP32" names="/nncf_module/bert/encoder/layer.0/attention/self/Transpose_output_0">
					<dim>1</dim>
					<dim>7</dim>
					<dim>384</dim>
					<dim>64</dim>
				</port>
			</output>
		</layer>
		<layer id="176" name="/nncf_module/bert/encoder/layer.0/attention/self/MatMul_1" type="MatMul" version="opset1">
			<data transpose_a="false" transpose_b="false" />
			<input>
				<port id="0" precision="FP32">
					<dim>1</dim>
					<dim>7</dim>
					<dim>384</dim>
					<dim>384</dim>
				</port>
				<port id="1" precision="FP32">
					<dim>1</dim>
					<dim>7</dim>
					<dim>384</dim>
					<dim>64</dim>
				</port>
			</input>
			<output>
				<port id="2" precision="FP32" names="/nncf_module/bert/encoder/layer.0/attention/self/MatMul_1_output_0">
					<dim>1</dim>
					<dim>7</dim>
					<dim>384</dim>
					<dim>64</dim>
				</port>
			</output>
		</layer>
		<layer id="177" name="Constant_22029" type="Const" version="opset1">
			<data element_type="f32" shape="1, 1, 1, 1" offset="25041948" size="4" />
			<output>
				<port id="0" precision="FP32">
					<dim>1</dim>
					<dim>1</dim>
					<dim>1</dim>
					<dim>1</dim>
				</port>
			</output>
		</layer>
		<layer id="178" name="Constant_22030" type="Const" version="opset1">
			<data element_type="f32" shape="1, 1, 1, 1" offset="25041952" size="4" />
			<output>
				<port id="0" precision="FP32">
					<dim>1</dim>
					<dim>1</dim>
					<dim>1</dim>
					<dim>1</dim>
				</port>
			</output>
		</layer>
		<layer id="179" name="Constant_22031" type="Const" version="opset1">
			<data element_type="f32" shape="1, 1, 1, 1" offset="25041948" size="4" />
			<output>
				<port id="0" precision="FP32">
					<dim>1</dim>
					<dim>1</dim>
					<dim>1</dim>
					<dim>1</dim>
				</port>
			</output>
		</layer>
		<layer id="180" name="Constant_22032" type="Const" version="opset1">
			<data element_type="f32" shape="1, 1, 1, 1" offset="25041952" size="4" />
			<output>
				<port id="0" precision="FP32">
					<dim>1</dim>
					<dim>1</dim>
					<dim>1</dim>
					<dim>1</dim>
				</port>
			</output>
		</layer>
		<layer id="181" name="/nncf_module/bert/encoder/layer.0/attention/self/BertForQuestionAnswering/BertModel[bert]/BertEncoder[encoder]/ModuleList[layer]/BertLayer[0]/BertAttention[attention]/BertSelfAttention[self]/matmul_1|OUTPUT/FakeQuantize" type="FakeQuantize" version="opset1">
			<data levels="256" auto_broadcast="numpy" />
			<input>
				<port id="0" precision="FP32">
					<dim>1</dim>
					<dim>7</dim>
					<dim>384</dim>
					<dim>64</dim>
				</port>
				<port id="1" precision="FP32">
					<dim>1</dim>
					<dim>1</dim>
					<dim>1</dim>
					<dim>1</dim>
				</port>
				<port id="2" precision="FP32">
					<dim>1</dim>
					<dim>1</dim>
					<dim>1</dim>
					<dim>1</dim>
				</port>
				<port id="3" precision="FP32">
					<dim>1</dim>
					<dim>1</dim>
					<dim>1</dim>
					<dim>1</dim>
				</port>
				<port id="4" precision="FP32">
					<dim>1</dim>
					<dim>1</dim>
					<dim>1</dim>
					<dim>1</dim>
				</port>
			</input>
			<output>
				<port id="5" precision="FP32" names="/nncf_module/bert/encoder/layer.0/attention/self/BertForQuestionAnswering/BertModel[bert]/BertEncoder[encoder]/ModuleList[layer]/BertLayer[0]/BertAttention[attention]/BertSelfAttention[self]/matmul_1|OUTPUT/FakeQuantize_output_0">
					<dim>1</dim>
					<dim>7</dim>
					<dim>384</dim>
					<dim>64</dim>
				</port>
			</output>
		</layer>
		<layer id="182" name="Constant_418" type="Const" version="opset1">
			<data element_type="i64" shape="4" offset="24346504" size="32" />
			<output>
				<port id="0" precision="I64">
					<dim>4</dim>
				</port>
			</output>
		</layer>
		<layer id="183" name="/nncf_module/bert/encoder/layer.0/attention/self/Transpose_3" type="Transpose" version="opset1">
			<input>
				<port id="0" precision="FP32">
					<dim>1</dim>
					<dim>7</dim>
					<dim>384</dim>
					<dim>64</dim>
				</port>
				<port id="1" precision="I64">
					<dim>4</dim>
				</port>
			</input>
			<output>
				<port id="2" precision="FP32" names="/nncf_module/bert/encoder/layer.0/attention/self/Transpose_3_output_0">
					<dim>1</dim>
					<dim>384</dim>
					<dim>7</dim>
					<dim>64</dim>
				</port>
			</output>
		</layer>
		<layer id="184" name="/nncf_module/bert/encoder/layer.0/attention/self/Concat_3" type="Const" version="opset1">
			<data element_type="i64" shape="3" offset="25041956" size="24" />
			<output>
				<port id="0" precision="I64">
					<dim>3</dim>
				</port>
			</output>
		</layer>
		<layer id="185" name="/nncf_module/bert/encoder/layer.0/attention/self/Reshape_3" type="Reshape" version="opset1">
			<data special_zero="true" />
			<input>
				<port id="0" precision="FP32">
					<dim>1</dim>
					<dim>384</dim>
					<dim>7</dim>
					<dim>64</dim>
				</port>
				<port id="1" precision="I64">
					<dim>3</dim>
				</port>
			</input>
			<output>
				<port id="2" precision="FP32" names="/nncf_module/bert/encoder/layer.0/attention/self/Reshape_3_output_0">
					<dim>1</dim>
					<dim>384</dim>
					<dim>448</dim>
				</port>
			</output>
		</layer>
		<layer id="186" name="Constant_38372" type="Const" version="opset1">
			<data element_type="i8" shape="768, 448" offset="25041980" size="344064" />
			<output>
				<port id="0" precision="I8">
					<dim>768</dim>
					<dim>448</dim>
				</port>
			</output>
		</layer>
		<layer id="187" name="Convert_24258" type="Convert" version="opset1">
			<data destination_type="f32" />
			<input>
				<port id="0" precision="I8">
					<dim>768</dim>
					<dim>448</dim>
				</port>
			</input>
			<output>
				<port id="1" precision="FP32">
					<dim>768</dim>
					<dim>448</dim>
				</port>
			</output>
		</layer>
		<layer id="188" name="Constant_24195" type="Const" version="opset1">
			<data element_type="f32" shape="768, 1" offset="25386044" size="3072" />
			<output>
				<port id="0" precision="FP32">
					<dim>768</dim>
					<dim>1</dim>
				</port>
			</output>
		</layer>
		<layer id="189" name="/nncf_module/bert/encoder/layer.0/attention/output/dense/pre_ops.1/op/FakeQuantize" type="Multiply" version="opset1">
			<data auto_broadcast="numpy" />
			<input>
				<port id="0" precision="FP32">
					<dim>768</dim>
					<dim>448</dim>
				</port>
				<port id="1" precision="FP32">
					<dim>768</dim>
					<dim>1</dim>
				</port>
			</input>
			<output>
				<port id="2" precision="FP32" names="/nncf_module/bert/encoder/layer.0/attention/output/dense/pre_ops.1/op/FakeQuantize_output_0">
					<dim>768</dim>
					<dim>448</dim>
				</port>
			</output>
		</layer>
		<layer id="190" name="/nncf_module/bert/encoder/layer.0/attention/output/dense/MatMul" type="MatMul" version="opset1">
			<data transpose_a="false" transpose_b="true" />
			<input>
				<port id="0" precision="FP32">
					<dim>1</dim>
					<dim>384</dim>
					<dim>448</dim>
				</port>
				<port id="1" precision="FP32">
					<dim>768</dim>
					<dim>448</dim>
				</port>
			</input>
			<output>
				<port id="2" precision="FP32" names="/nncf_module/bert/encoder/layer.0/attention/output/dense/MatMul_output_0">
					<dim>1</dim>
					<dim>384</dim>
					<dim>768</dim>
				</port>
			</output>
		</layer>
		<layer id="191" name="/nncf_module/bert/encoder/layer.0/attention/output/dense/Add" type="Add" version="opset1">
			<data auto_broadcast="numpy" />
			<input>
				<port id="0" precision="FP32">
					<dim>1</dim>
					<dim>1</dim>
					<dim>768</dim>
				</port>
				<port id="1" precision="FP32">
					<dim>1</dim>
					<dim>384</dim>
					<dim>768</dim>
				</port>
			</input>
			<output>
				<port id="2" precision="FP32" names="/nncf_module/bert/encoder/layer.0/attention/output/dense/Add_output_0">
					<dim>1</dim>
					<dim>384</dim>
					<dim>768</dim>
				</port>
			</output>
		</layer>
		<layer id="192" name="/nncf_module/bert/encoder/layer.0/attention/output/Add" type="Add" version="opset1">
			<data auto_broadcast="numpy" />
			<input>
				<port id="0" precision="FP32">
					<dim>1</dim>
					<dim>384</dim>
					<dim>768</dim>
				</port>
				<port id="1" precision="FP32">
					<dim>1</dim>
					<dim>384</dim>
					<dim>768</dim>
				</port>
			</input>
			<output>
				<port id="2" precision="FP32" names="/nncf_module/bert/encoder/layer.0/attention/output/Add_output_0">
					<dim>1</dim>
					<dim>384</dim>
					<dim>768</dim>
				</port>
			</output>
		</layer>
		<layer id="193" name="Constant_488" type="Const" version="opset1">
			<data element_type="i64" shape="1" offset="23994416" size="8" />
			<output>
				<port id="0" precision="I64">
					<dim>1</dim>
				</port>
			</output>
		</layer>
		<layer id="194" name="/nncf_module/bert/encoder/layer.0/attention/output/LayerNorm/Div" type="MVN" version="opset6">
			<data eps="9.999999960041972e-13" normalize_variance="true" eps_mode="INSIDE_SQRT" />
			<input>
				<port id="0" precision="FP32">
					<dim>1</dim>
					<dim>384</dim>
					<dim>768</dim>
				</port>
				<port id="1" precision="I64">
					<dim>1</dim>
				</port>
			</input>
			<output>
				<port id="2" precision="FP32" names="/nncf_module/bert/encoder/layer.0/attention/output/LayerNorm/Div_output_0">
					<dim>1</dim>
					<dim>384</dim>
					<dim>768</dim>
				</port>
			</output>
		</layer>
		<layer id="195" name="Constant_22034" type="Const" version="opset1">
			<data element_type="f32" shape="1, 1, 768" offset="25389116" size="3072" />
			<output>
				<port id="0" precision="FP32">
					<dim>1</dim>
					<dim>1</dim>
					<dim>768</dim>
				</port>
			</output>
		</layer>
		<layer id="196" name="/nncf_module/bert/encoder/layer.0/attention/output/LayerNorm/Mul" type="Multiply" version="opset1">
			<data auto_broadcast="numpy" />
			<input>
				<port id="0" precision="FP32">
					<dim>1</dim>
					<dim>384</dim>
					<dim>768</dim>
				</port>
				<port id="1" precision="FP32">
					<dim>1</dim>
					<dim>1</dim>
					<dim>768</dim>
				</port>
			</input>
			<output>
				<port id="2" precision="FP32" names="/nncf_module/bert/encoder/layer.0/attention/output/LayerNorm/Mul_output_0">
					<dim>1</dim>
					<dim>384</dim>
					<dim>768</dim>
				</port>
			</output>
		</layer>
		<layer id="197" name="Constant_22035" type="Const" version="opset1">
			<data element_type="f32" shape="1, 1, 768" offset="25392188" size="3072" />
			<output>
				<port id="0" precision="FP32">
					<dim>1</dim>
					<dim>1</dim>
					<dim>768</dim>
				</port>
			</output>
		</layer>
		<layer id="198" name="/nncf_module/bert/encoder/layer.0/attention/output/LayerNorm/Add_1" type="Add" version="opset1">
			<data auto_broadcast="numpy" />
			<input>
				<port id="0" precision="FP32">
					<dim>1</dim>
					<dim>384</dim>
					<dim>768</dim>
				</port>
				<port id="1" precision="FP32">
					<dim>1</dim>
					<dim>1</dim>
					<dim>768</dim>
				</port>
			</input>
			<output>
				<port id="2" precision="FP32" names="/nncf_module/bert/encoder/layer.0/attention/output/LayerNorm/Add_1_output_0">
					<dim>1</dim>
					<dim>384</dim>
					<dim>768</dim>
				</port>
			</output>
		</layer>
		<layer id="199" name="Constant_22036" type="Const" version="opset1">
			<data element_type="f32" shape="1, 1, 1" offset="25395260" size="4" />
			<output>
				<port id="0" precision="FP32">
					<dim>1</dim>
					<dim>1</dim>
					<dim>1</dim>
				</port>
			</output>
		</layer>
		<layer id="200" name="Constant_22037" type="Const" version="opset1">
			<data element_type="f32" shape="1, 1, 1" offset="25395264" size="4" />
			<output>
				<port id="0" precision="FP32">
					<dim>1</dim>
					<dim>1</dim>
					<dim>1</dim>
				</port>
			</output>
		</layer>
		<layer id="201" name="Constant_22038" type="Const" version="opset1">
			<data element_type="f32" shape="1, 1, 1" offset="25395260" size="4" />
			<output>
				<port id="0" precision="FP32">
					<dim>1</dim>
					<dim>1</dim>
					<dim>1</dim>
				</port>
			</output>
		</layer>
		<layer id="202" name="Constant_22039" type="Const" version="opset1">
			<data element_type="f32" shape="1, 1, 1" offset="25395264" size="4" />
			<output>
				<port id="0" precision="FP32">
					<dim>1</dim>
					<dim>1</dim>
					<dim>1</dim>
				</port>
			</output>
		</layer>
		<layer id="203" name="/nncf_module/bert/encoder/layer.0/intermediate/dense/BertForQuestionAnswering/BertModel[bert]/BertEncoder[encoder]/ModuleList[layer]/BertLayer[0]/BertIntermediate[intermediate]/NNCFLinear[dense]/linear_0|INPUT0/FakeQuantize" type="FakeQuantize" version="opset1">
			<data levels="256" auto_broadcast="numpy" />
			<input>
				<port id="0" precision="FP32">
					<dim>1</dim>
					<dim>384</dim>
					<dim>768</dim>
				</port>
				<port id="1" precision="FP32">
					<dim>1</dim>
					<dim>1</dim>
					<dim>1</dim>
				</port>
				<port id="2" precision="FP32">
					<dim>1</dim>
					<dim>1</dim>
					<dim>1</dim>
				</port>
				<port id="3" precision="FP32">
					<dim>1</dim>
					<dim>1</dim>
					<dim>1</dim>
				</port>
				<port id="4" precision="FP32">
					<dim>1</dim>
					<dim>1</dim>
					<dim>1</dim>
				</port>
			</input>
			<output>
				<port id="5" precision="FP32" names="/nncf_module/bert/encoder/layer.0/intermediate/dense/BertForQuestionAnswering/BertModel[bert]/BertEncoder[encoder]/ModuleList[layer]/BertLayer[0]/BertIntermediate[intermediate]/NNCFLinear[dense]/linear_0|INPUT0/FakeQuantize_output_0">
					<dim>1</dim>
					<dim>384</dim>
					<dim>768</dim>
				</port>
			</output>
		</layer>
		<layer id="204" name="Constant_38379" type="Const" version="opset1">
			<data element_type="i8" shape="1485, 768" offset="25395268" size="1140480" />
			<output>
				<port id="0" precision="I8">
					<dim>1485</dim>
					<dim>768</dim>
				</port>
			</output>
		</layer>
		<layer id="205" name="Convert_24379" type="Convert" version="opset1">
			<data destination_type="f32" />
			<input>
				<port id="0" precision="I8">
					<dim>1485</dim>
					<dim>768</dim>
				</port>
			</input>
			<output>
				<port id="1" precision="FP32">
					<dim>1485</dim>
					<dim>768</dim>
				</port>
			</output>
		</layer>
		<layer id="206" name="Constant_38386" type="Const" version="opset1">
			<data element_type="f32" shape="1485, 1" offset="26535748" size="5940" />
			<output>
				<port id="0" precision="FP32">
					<dim>1485</dim>
					<dim>1</dim>
				</port>
			</output>
		</layer>
		<layer id="207" name="/nncf_module/bert/encoder/layer.0/intermediate/dense/pre_ops.1/op/FakeQuantize" type="Multiply" version="opset1">
			<data auto_broadcast="numpy" />
			<input>
				<port id="0" precision="FP32">
					<dim>1485</dim>
					<dim>768</dim>
				</port>
				<port id="1" precision="FP32">
					<dim>1485</dim>
					<dim>1</dim>
				</port>
			</input>
			<output>
				<port id="2" precision="FP32" names="/nncf_module/bert/encoder/layer.0/intermediate/dense/pre_ops.1/op/FakeQuantize_output_0">
					<dim>1485</dim>
					<dim>768</dim>
				</port>
			</output>
		</layer>
		<layer id="208" name="/nncf_module/bert/encoder/layer.0/intermediate/dense/MatMul" type="MatMul" version="opset1">
			<data transpose_a="false" transpose_b="true" />
			<input>
				<port id="0" precision="FP32">
					<dim>1</dim>
					<dim>384</dim>
					<dim>768</dim>
				</port>
				<port id="1" precision="FP32">
					<dim>1485</dim>
					<dim>768</dim>
				</port>
			</input>
			<output>
				<port id="2" precision="FP32" names="/nncf_module/bert/encoder/layer.0/intermediate/dense/MatMul_output_0">
					<dim>1</dim>
					<dim>384</dim>
					<dim>1485</dim>
				</port>
			</output>
		</layer>
		<layer id="209" name="/nncf_module/bert/encoder/layer.0/intermediate/dense/Add" type="Add" version="opset1">
			<data auto_broadcast="numpy" />
			<input>
				<port id="0" precision="FP32">
					<dim>1</dim>
					<dim>1</dim>
					<dim>1485</dim>
				</port>
				<port id="1" precision="FP32">
					<dim>1</dim>
					<dim>384</dim>
					<dim>1485</dim>
				</port>
			</input>
			<output>
				<port id="2" precision="FP32" names="/nncf_module/bert/encoder/layer.0/intermediate/dense/Add_output_0">
					<dim>1</dim>
					<dim>384</dim>
					<dim>1485</dim>
				</port>
			</output>
		</layer>
		<layer id="210" name="/nncf_module/bert/encoder/layer.0/intermediate/intermediate_act_fn/Mul_1" type="Gelu" version="opset7">
			<data approximation_mode="ERF" />
			<input>
				<port id="0" precision="FP32">
					<dim>1</dim>
					<dim>384</dim>
					<dim>1485</dim>
				</port>
			</input>
			<output>
				<port id="1" precision="FP32" names="/nncf_module/bert/encoder/layer.0/intermediate/intermediate_act_fn/Mul_1_output_0">
					<dim>1</dim>
					<dim>384</dim>
					<dim>1485</dim>
				</port>
			</output>
		</layer>
		<layer id="211" name="Constant_22041" type="Const" version="opset1">
			<data element_type="f32" shape="1, 1, 1" offset="26541688" size="4" />
			<output>
				<port id="0" precision="FP32">
					<dim>1</dim>
					<dim>1</dim>
					<dim>1</dim>
				</port>
			</output>
		</layer>
		<layer id="212" name="Constant_22042" type="Const" version="opset1">
			<data element_type="f32" shape="1, 1, 1" offset="26541692" size="4" />
			<output>
				<port id="0" precision="FP32">
					<dim>1</dim>
					<dim>1</dim>
					<dim>1</dim>
				</port>
			</output>
		</layer>
		<layer id="213" name="Constant_22043" type="Const" version="opset1">
			<data element_type="f32" shape="1, 1, 1" offset="26541688" size="4" />
			<output>
				<port id="0" precision="FP32">
					<dim>1</dim>
					<dim>1</dim>
					<dim>1</dim>
				</port>
			</output>
		</layer>
		<layer id="214" name="Constant_22044" type="Const" version="opset1">
			<data element_type="f32" shape="1, 1, 1" offset="26541692" size="4" />
			<output>
				<port id="0" precision="FP32">
					<dim>1</dim>
					<dim>1</dim>
					<dim>1</dim>
				</port>
			</output>
		</layer>
		<layer id="215" name="/nncf_module/bert/encoder/layer.0/intermediate/intermediate_act_fn/BertForQuestionAnswering/BertModel[bert]/BertEncoder[encoder]/ModuleList[layer]/BertLayer[0]/BertIntermediate[intermediate]/GELUActivation[intermediate_act_fn]/gelu_0|OUTPUT/FakeQuantize" type="FakeQuantize" version="opset1">
			<data levels="256" auto_broadcast="numpy" />
			<input>
				<port id="0" precision="FP32">
					<dim>1</dim>
					<dim>384</dim>
					<dim>1485</dim>
				</port>
				<port id="1" precision="FP32">
					<dim>1</dim>
					<dim>1</dim>
					<dim>1</dim>
				</port>
				<port id="2" precision="FP32">
					<dim>1</dim>
					<dim>1</dim>
					<dim>1</dim>
				</port>
				<port id="3" precision="FP32">
					<dim>1</dim>
					<dim>1</dim>
					<dim>1</dim>
				</port>
				<port id="4" precision="FP32">
					<dim>1</dim>
					<dim>1</dim>
					<dim>1</dim>
				</port>
			</input>
			<output>
				<port id="5" precision="FP32" names="/nncf_module/bert/encoder/layer.0/intermediate/intermediate_act_fn/BertForQuestionAnswering/BertModel[bert]/BertEncoder[encoder]/ModuleList[layer]/BertLayer[0]/BertIntermediate[intermediate]/GELUActivation[intermediate_act_fn]/gelu_0|OUTPUT/FakeQuantize_output_0">
					<dim>1</dim>
					<dim>384</dim>
					<dim>1485</dim>
				</port>
			</output>
		</layer>
		<layer id="216" name="Constant_38393" type="Const" version="opset1">
			<data element_type="i8" shape="768, 1485" offset="26541696" size="1140480" />
			<output>
				<port id="0" precision="I8">
					<dim>768</dim>
					<dim>1485</dim>
				</port>
			</output>
		</layer>
		<layer id="217" name="Convert_24500" type="Convert" version="opset1">
			<data destination_type="f32" />
			<input>
				<port id="0" precision="I8">
					<dim>768</dim>
					<dim>1485</dim>
				</port>
			</input>
			<output>
				<port id="1" precision="FP32">
					<dim>768</dim>
					<dim>1485</dim>
				</port>
			</output>
		</layer>
		<layer id="218" name="Constant_24437" type="Const" version="opset1">
			<data element_type="f32" shape="768, 1" offset="27682176" size="3072" />
			<output>
				<port id="0" precision="FP32">
					<dim>768</dim>
					<dim>1</dim>
				</port>
			</output>
		</layer>
		<layer id="219" name="/nncf_module/bert/encoder/layer.0/output/dense/pre_ops.1/op/FakeQuantize" type="Multiply" version="opset1">
			<data auto_broadcast="numpy" />
			<input>
				<port id="0" precision="FP32">
					<dim>768</dim>
					<dim>1485</dim>
				</port>
				<port id="1" precision="FP32">
					<dim>768</dim>
					<dim>1</dim>
				</port>
			</input>
			<output>
				<port id="2" precision="FP32" names="/nncf_module/bert/encoder/layer.0/output/dense/pre_ops.1/op/FakeQuantize_output_0">
					<dim>768</dim>
					<dim>1485</dim>
				</port>
			</output>
		</layer>
		<layer id="220" name="/nncf_module/bert/encoder/layer.0/output/dense/MatMul" type="MatMul" version="opset1">
			<data transpose_a="false" transpose_b="true" />
			<input>
				<port id="0" precision="FP32">
					<dim>1</dim>
					<dim>384</dim>
					<dim>1485</dim>
				</port>
				<port id="1" precision="FP32">
					<dim>768</dim>
					<dim>1485</dim>
				</port>
			</input>
			<output>
				<port id="2" precision="FP32" names="/nncf_module/bert/encoder/layer.0/output/dense/MatMul_output_0">
					<dim>1</dim>
					<dim>384</dim>
					<dim>768</dim>
				</port>
			</output>
		</layer>
		<layer id="221" name="/nncf_module/bert/encoder/layer.0/output/dense/Add" type="Add" version="opset1">
			<data auto_broadcast="numpy" />
			<input>
				<port id="0" precision="FP32">
					<dim>1</dim>
					<dim>1</dim>
					<dim>768</dim>
				</port>
				<port id="1" precision="FP32">
					<dim>1</dim>
					<dim>384</dim>
					<dim>768</dim>
				</port>
			</input>
			<output>
				<port id="2" precision="FP32" names="/nncf_module/bert/encoder/layer.0/output/dense/Add_output_0">
					<dim>1</dim>
					<dim>384</dim>
					<dim>768</dim>
				</port>
			</output>
		</layer>
		<layer id="222" name="/nncf_module/bert/encoder/layer.0/output/Add" type="Add" version="opset1">
			<data auto_broadcast="numpy" />
			<input>
				<port id="0" precision="FP32">
					<dim>1</dim>
					<dim>384</dim>
					<dim>768</dim>
				</port>
				<port id="1" precision="FP32">
					<dim>1</dim>
					<dim>384</dim>
					<dim>768</dim>
				</port>
			</input>
			<output>
				<port id="2" precision="FP32" names="/nncf_module/bert/encoder/layer.0/output/Add_output_0">
					<dim>1</dim>
					<dim>384</dim>
					<dim>768</dim>
				</port>
			</output>
		</layer>
		<layer id="223" name="Constant_532" type="Const" version="opset1">
			<data element_type="i64" shape="1" offset="23994416" size="8" />
			<output>
				<port id="0" precision="I64">
					<dim>1</dim>
				</port>
			</output>
		</layer>
		<layer id="224" name="/nncf_module/bert/encoder/layer.0/output/LayerNorm/Div" type="MVN" version="opset6">
			<data eps="9.999999960041972e-13" normalize_variance="true" eps_mode="INSIDE_SQRT" />
			<input>
				<port id="0" precision="FP32">
					<dim>1</dim>
					<dim>384</dim>
					<dim>768</dim>
				</port>
				<port id="1" precision="I64">
					<dim>1</dim>
				</port>
			</input>
			<output>
				<port id="2" precision="FP32" names="/nncf_module/bert/encoder/layer.0/output/LayerNorm/Div_output_0">
					<dim>1</dim>
					<dim>384</dim>
					<dim>768</dim>
				</port>
			</output>
		</layer>
		<layer id="225" name="Constant_22046" type="Const" version="opset1">
			<data element_type="f32" shape="1, 1, 768" offset="27685248" size="3072" />
			<output>
				<port id="0" precision="FP32">
					<dim>1</dim>
					<dim>1</dim>
					<dim>768</dim>
				</port>
			</output>
		</layer>
		<layer id="226" name="/nncf_module/bert/encoder/layer.0/output/LayerNorm/Mul" type="Multiply" version="opset1">
			<data auto_broadcast="numpy" />
			<input>
				<port id="0" precision="FP32">
					<dim>1</dim>
					<dim>384</dim>
					<dim>768</dim>
				</port>
				<port id="1" precision="FP32">
					<dim>1</dim>
					<dim>1</dim>
					<dim>768</dim>
				</port>
			</input>
			<output>
				<port id="2" precision="FP32" names="/nncf_module/bert/encoder/layer.0/output/LayerNorm/Mul_output_0">
					<dim>1</dim>
					<dim>384</dim>
					<dim>768</dim>
				</port>
			</output>
		</layer>
		<layer id="227" name="Constant_22047" type="Const" version="opset1">
			<data element_type="f32" shape="1, 1, 768" offset="27688320" size="3072" />
			<output>
				<port id="0" precision="FP32">
					<dim>1</dim>
					<dim>1</dim>
					<dim>768</dim>
				</port>
			</output>
		</layer>
		<layer id="228" name="/nncf_module/bert/encoder/layer.0/output/LayerNorm/Add_1" type="Add" version="opset1">
			<data auto_broadcast="numpy" />
			<input>
				<port id="0" precision="FP32">
					<dim>1</dim>
					<dim>384</dim>
					<dim>768</dim>
				</port>
				<port id="1" precision="FP32">
					<dim>1</dim>
					<dim>1</dim>
					<dim>768</dim>
				</port>
			</input>
			<output>
				<port id="2" precision="FP32" names="/nncf_module/bert/encoder/layer.0/output/LayerNorm/Add_1_output_0">
					<dim>1</dim>
					<dim>384</dim>
					<dim>768</dim>
				</port>
			</output>
		</layer>
		<layer id="229" name="Constant_22048" type="Const" version="opset1">
			<data element_type="f32" shape="1, 1, 1" offset="27691392" size="4" />
			<output>
				<port id="0" precision="FP32">
					<dim>1</dim>
					<dim>1</dim>
					<dim>1</dim>
				</port>
			</output>
		</layer>
		<layer id="230" name="Constant_22049" type="Const" version="opset1">
			<data element_type="f32" shape="1, 1, 1" offset="27691396" size="4" />
			<output>
				<port id="0" precision="FP32">
					<dim>1</dim>
					<dim>1</dim>
					<dim>1</dim>
				</port>
			</output>
		</layer>
		<layer id="231" name="Constant_22050" type="Const" version="opset1">
			<data element_type="f32" shape="1, 1, 1" offset="27691392" size="4" />
			<output>
				<port id="0" precision="FP32">
					<dim>1</dim>
					<dim>1</dim>
					<dim>1</dim>
				</port>
			</output>
		</layer>
		<layer id="232" name="Constant_22051" type="Const" version="opset1">
			<data element_type="f32" shape="1, 1, 1" offset="27691396" size="4" />
			<output>
				<port id="0" precision="FP32">
					<dim>1</dim>
					<dim>1</dim>
					<dim>1</dim>
				</port>
			</output>
		</layer>
		<layer id="233" name="/nncf_module/bert/encoder/layer.1/attention/self/query/BertForQuestionAnswering/BertModel[bert]/BertEncoder[encoder]/ModuleList[layer]/BertLayer[1]/BertAttention[attention]/BertSelfAttention[self]/NNCFLinear[query]/linear_0|INPUT0/FakeQuantize" type="FakeQuantize" version="opset1">
			<data levels="256" auto_broadcast="numpy" />
			<input>
				<port id="0" precision="FP32">
					<dim>1</dim>
					<dim>384</dim>
					<dim>768</dim>
				</port>
				<port id="1" precision="FP32">
					<dim>1</dim>
					<dim>1</dim>
					<dim>1</dim>
				</port>
				<port id="2" precision="FP32">
					<dim>1</dim>
					<dim>1</dim>
					<dim>1</dim>
				</port>
				<port id="3" precision="FP32">
					<dim>1</dim>
					<dim>1</dim>
					<dim>1</dim>
				</port>
				<port id="4" precision="FP32">
					<dim>1</dim>
					<dim>1</dim>
					<dim>1</dim>
				</port>
			</input>
			<output>
				<port id="5" precision="FP32" names="/nncf_module/bert/encoder/layer.1/attention/self/query/BertForQuestionAnswering/BertModel[bert]/BertEncoder[encoder]/ModuleList[layer]/BertLayer[1]/BertAttention[attention]/BertSelfAttention[self]/NNCFLinear[query]/linear_0|INPUT0/FakeQuantize_output_0">
					<dim>1</dim>
					<dim>384</dim>
					<dim>768</dim>
				</port>
			</output>
		</layer>
		<layer id="234" name="Constant_38400" type="Const" version="opset1">
			<data element_type="i8" shape="512, 768" offset="27691400" size="393216" />
			<output>
				<port id="0" precision="I8">
					<dim>512</dim>
					<dim>768</dim>
				</port>
			</output>
		</layer>
		<layer id="235" name="Convert_24621" type="Convert" version="opset1">
			<data destination_type="f32" />
			<input>
				<port id="0" precision="I8">
					<dim>512</dim>
					<dim>768</dim>
				</port>
			</input>
			<output>
				<port id="1" precision="FP32">
					<dim>512</dim>
					<dim>768</dim>
				</port>
			</output>
		</layer>
		<layer id="236" name="Constant_38407" type="Const" version="opset1">
			<data element_type="f32" shape="512, 1" offset="28084616" size="2048" />
			<output>
				<port id="0" precision="FP32">
					<dim>512</dim>
					<dim>1</dim>
				</port>
			</output>
		</layer>
		<layer id="237" name="/nncf_module/bert/encoder/layer.1/attention/self/query/pre_ops.1/op/FakeQuantize" type="Multiply" version="opset1">
			<data auto_broadcast="numpy" />
			<input>
				<port id="0" precision="FP32">
					<dim>512</dim>
					<dim>768</dim>
				</port>
				<port id="1" precision="FP32">
					<dim>512</dim>
					<dim>1</dim>
				</port>
			</input>
			<output>
				<port id="2" precision="FP32" names="/nncf_module/bert/encoder/layer.1/attention/self/query/pre_ops.1/op/FakeQuantize_output_0">
					<dim>512</dim>
					<dim>768</dim>
				</port>
			</output>
		</layer>
		<layer id="238" name="/nncf_module/bert/encoder/layer.1/attention/self/query/MatMul" type="MatMul" version="opset1">
			<data transpose_a="false" transpose_b="true" />
			<input>
				<port id="0" precision="FP32">
					<dim>1</dim>
					<dim>384</dim>
					<dim>768</dim>
				</port>
				<port id="1" precision="FP32">
					<dim>512</dim>
					<dim>768</dim>
				</port>
			</input>
			<output>
				<port id="2" precision="FP32" names="/nncf_module/bert/encoder/layer.1/attention/self/query/MatMul_output_0">
					<dim>1</dim>
					<dim>384</dim>
					<dim>512</dim>
				</port>
			</output>
		</layer>
		<layer id="239" name="/nncf_module/bert/encoder/layer.1/attention/self/query/Add" type="Add" version="opset1">
			<data auto_broadcast="numpy" />
			<input>
				<port id="0" precision="FP32">
					<dim>1</dim>
					<dim>1</dim>
					<dim>512</dim>
				</port>
				<port id="1" precision="FP32">
					<dim>1</dim>
					<dim>384</dim>
					<dim>512</dim>
				</port>
			</input>
			<output>
				<port id="2" precision="FP32" names="/nncf_module/bert/encoder/layer.1/attention/self/query/Add_output_0">
					<dim>1</dim>
					<dim>384</dim>
					<dim>512</dim>
				</port>
			</output>
		</layer>
		<layer id="240" name="Constant_22053" type="Const" version="opset1">
			<data element_type="f32" shape="1, 1, 1" offset="28086664" size="4" />
			<output>
				<port id="0" precision="FP32">
					<dim>1</dim>
					<dim>1</dim>
					<dim>1</dim>
				</port>
			</output>
		</layer>
		<layer id="241" name="Constant_22054" type="Const" version="opset1">
			<data element_type="f32" shape="1, 1, 1" offset="28086668" size="4" />
			<output>
				<port id="0" precision="FP32">
					<dim>1</dim>
					<dim>1</dim>
					<dim>1</dim>
				</port>
			</output>
		</layer>
		<layer id="242" name="Constant_22055" type="Const" version="opset1">
			<data element_type="f32" shape="1, 1, 1" offset="28086664" size="4" />
			<output>
				<port id="0" precision="FP32">
					<dim>1</dim>
					<dim>1</dim>
					<dim>1</dim>
				</port>
			</output>
		</layer>
		<layer id="243" name="Constant_22056" type="Const" version="opset1">
			<data element_type="f32" shape="1, 1, 1" offset="28086668" size="4" />
			<output>
				<port id="0" precision="FP32">
					<dim>1</dim>
					<dim>1</dim>
					<dim>1</dim>
				</port>
			</output>
		</layer>
		<layer id="244" name="/nncf_module/bert/encoder/layer.1/attention/self/query/BertForQuestionAnswering/BertModel[bert]/BertEncoder[encoder]/ModuleList[layer]/BertLayer[1]/BertAttention[attention]/BertSelfAttention[self]/NNCFLinear[query]/linear_0|OUTPUT/FakeQuantize" type="FakeQuantize" version="opset1">
			<data levels="256" auto_broadcast="numpy" />
			<input>
				<port id="0" precision="FP32">
					<dim>1</dim>
					<dim>384</dim>
					<dim>512</dim>
				</port>
				<port id="1" precision="FP32">
					<dim>1</dim>
					<dim>1</dim>
					<dim>1</dim>
				</port>
				<port id="2" precision="FP32">
					<dim>1</dim>
					<dim>1</dim>
					<dim>1</dim>
				</port>
				<port id="3" precision="FP32">
					<dim>1</dim>
					<dim>1</dim>
					<dim>1</dim>
				</port>
				<port id="4" precision="FP32">
					<dim>1</dim>
					<dim>1</dim>
					<dim>1</dim>
				</port>
			</input>
			<output>
				<port id="5" precision="FP32" names="/nncf_module/bert/encoder/layer.1/attention/self/query/BertForQuestionAnswering/BertModel[bert]/BertEncoder[encoder]/ModuleList[layer]/BertLayer[1]/BertAttention[attention]/BertSelfAttention[self]/NNCFLinear[query]/linear_0|OUTPUT/FakeQuantize_output_0">
					<dim>1</dim>
					<dim>384</dim>
					<dim>512</dim>
				</port>
			</output>
		</layer>
		<layer id="245" name="/nncf_module/bert/encoder/layer.1/attention/self/Shape_4" type="ShapeOf" version="opset3">
			<data output_type="i64" />
			<input>
				<port id="0" precision="FP32">
					<dim>1</dim>
					<dim>384</dim>
					<dim>512</dim>
				</port>
			</input>
			<output>
				<port id="1" precision="I64" names="/nncf_module/bert/encoder/layer.1/attention/self/Shape_4_output_0,/nncf_module/bert/encoder/layer.1/attention/self/Shape_5_output_0">
					<dim>3</dim>
				</port>
			</output>
		</layer>
		<layer id="246" name="Constant_16705" type="Const" version="opset1">
			<data element_type="i64" shape="2" offset="24346440" size="16" />
			<output>
				<port id="0" precision="I64">
					<dim>2</dim>
				</port>
			</output>
		</layer>
		<layer id="247" name="Constant_16706" type="Const" version="opset1">
			<data element_type="i64" shape="" offset="23596560" size="8" />
			<output>
				<port id="0" precision="I64" />
			</output>
		</layer>
		<layer id="248" name="Gather_16707" type="Gather" version="opset8">
			<data batch_dims="0" />
			<input>
				<port id="0" precision="I64">
					<dim>3</dim>
				</port>
				<port id="1" precision="I64">
					<dim>2</dim>
				</port>
				<port id="2" precision="I64" />
			</input>
			<output>
				<port id="3" precision="I64">
					<dim>2</dim>
				</port>
			</output>
		</layer>
		<layer id="249" name="/nncf_module/bert/encoder/layer.1/attention/self/Constant_10" type="Const" version="opset1">
			<data element_type="i64" shape="1" offset="24346456" size="8" />
			<output>
				<port id="0" precision="I64" names="/nncf_module/bert/encoder/layer.1/attention/self/Constant_10_output_0">
					<dim>1</dim>
				</port>
			</output>
		</layer>
		<layer id="250" name="/nncf_module/bert/encoder/layer.1/attention/self/Constant_11" type="Const" version="opset1">
			<data element_type="i64" shape="1" offset="24346464" size="8" />
			<output>
				<port id="0" precision="I64" names="/nncf_module/bert/encoder/layer.1/attention/self/Constant_11_output_0">
					<dim>1</dim>
				</port>
			</output>
		</layer>
		<layer id="251" name="/nncf_module/bert/encoder/layer.1/attention/self/Concat_2" type="Concat" version="opset1">
			<data axis="0" />
			<input>
				<port id="0" precision="I64">
					<dim>2</dim>
				</port>
				<port id="1" precision="I64">
					<dim>1</dim>
				</port>
				<port id="2" precision="I64">
					<dim>1</dim>
				</port>
			</input>
			<output>
				<port id="3" precision="I64" names="/nncf_module/bert/encoder/layer.1/attention/self/Concat_2_output_0">
					<dim>4</dim>
				</port>
			</output>
		</layer>
		<layer id="252" name="Constant_38430" type="Const" version="opset1">
			<data element_type="i64" shape="4" offset="28086672" size="32" />
			<output>
				<port id="0" precision="I64">
					<dim>4</dim>
				</port>
			</output>
		</layer>
		<layer id="253" name="Subtract_38431" type="Subtract" version="opset1">
			<data auto_broadcast="numpy" />
			<input>
				<port id="0" precision="I64">
					<dim>4</dim>
				</port>
				<port id="1" precision="I64">
					<dim>4</dim>
				</port>
			</input>
			<output>
				<port id="2" precision="I64">
					<dim>4</dim>
				</port>
			</output>
		</layer>
		<layer id="254" name="/nncf_module/bert/encoder/layer.1/attention/self/Reshape_2" type="Reshape" version="opset1">
			<data special_zero="true" />
			<input>
				<port id="0" precision="FP32">
					<dim>1</dim>
					<dim>384</dim>
					<dim>512</dim>
				</port>
				<port id="1" precision="I64">
					<dim>4</dim>
				</port>
			</input>
			<output>
				<port id="2" precision="FP32" names="/nncf_module/bert/encoder/layer.1/attention/self/Reshape_2_output_0">
					<dim>1</dim>
					<dim>384</dim>
					<dim>8</dim>
					<dim>64</dim>
				</port>
			</output>
		</layer>
		<layer id="255" name="Constant_775" type="Const" version="opset1">
			<data element_type="i64" shape="4" offset="24346504" size="32" />
			<output>
				<port id="0" precision="I64">
					<dim>4</dim>
				</port>
			</output>
		</layer>
		<layer id="256" name="/nncf_module/bert/encoder/layer.1/attention/self/Transpose_1" type="Transpose" version="opset1">
			<input>
				<port id="0" precision="FP32">
					<dim>1</dim>
					<dim>384</dim>
					<dim>8</dim>
					<dim>64</dim>
				</port>
				<port id="1" precision="I64">
					<dim>4</dim>
				</port>
			</input>
			<output>
				<port id="2" precision="FP32" names="/nncf_module/bert/encoder/layer.1/attention/self/Transpose_1_output_0">
					<dim>1</dim>
					<dim>8</dim>
					<dim>384</dim>
					<dim>64</dim>
				</port>
			</output>
		</layer>
		<layer id="257" name="Constant_38467" type="Const" version="opset1">
			<data element_type="f32" shape="1, 1, 512" offset="28086704" size="2048" />
			<output>
				<port id="0" precision="FP32">
					<dim>1</dim>
					<dim>1</dim>
					<dim>512</dim>
				</port>
			</output>
		</layer>
		<layer id="258" name="Constant_22057" type="Const" version="opset1">
			<data element_type="f32" shape="1, 1, 1" offset="28088752" size="4" />
			<output>
				<port id="0" precision="FP32">
					<dim>1</dim>
					<dim>1</dim>
					<dim>1</dim>
				</port>
			</output>
		</layer>
		<layer id="259" name="Constant_22058" type="Const" version="opset1">
			<data element_type="f32" shape="1, 1, 1" offset="28088756" size="4" />
			<output>
				<port id="0" precision="FP32">
					<dim>1</dim>
					<dim>1</dim>
					<dim>1</dim>
				</port>
			</output>
		</layer>
		<layer id="260" name="Constant_22059" type="Const" version="opset1">
			<data element_type="f32" shape="1, 1, 1" offset="28088752" size="4" />
			<output>
				<port id="0" precision="FP32">
					<dim>1</dim>
					<dim>1</dim>
					<dim>1</dim>
				</port>
			</output>
		</layer>
		<layer id="261" name="Constant_22060" type="Const" version="opset1">
			<data element_type="f32" shape="1, 1, 1" offset="28088756" size="4" />
			<output>
				<port id="0" precision="FP32">
					<dim>1</dim>
					<dim>1</dim>
					<dim>1</dim>
				</port>
			</output>
		</layer>
		<layer id="262" name="/nncf_module/bert/encoder/layer.1/attention/self/key/BertForQuestionAnswering/BertModel[bert]/BertEncoder[encoder]/ModuleList[layer]/BertLayer[1]/BertAttention[attention]/BertSelfAttention[self]/NNCFLinear[key]/linear_0|INPUT0/FakeQuantize" type="FakeQuantize" version="opset1">
			<data levels="256" auto_broadcast="numpy" />
			<input>
				<port id="0" precision="FP32">
					<dim>1</dim>
					<dim>384</dim>
					<dim>768</dim>
				</port>
				<port id="1" precision="FP32">
					<dim>1</dim>
					<dim>1</dim>
					<dim>1</dim>
				</port>
				<port id="2" precision="FP32">
					<dim>1</dim>
					<dim>1</dim>
					<dim>1</dim>
				</port>
				<port id="3" precision="FP32">
					<dim>1</dim>
					<dim>1</dim>
					<dim>1</dim>
				</port>
				<port id="4" precision="FP32">
					<dim>1</dim>
					<dim>1</dim>
					<dim>1</dim>
				</port>
			</input>
			<output>
				<port id="5" precision="FP32" names="/nncf_module/bert/encoder/layer.1/attention/self/key/BertForQuestionAnswering/BertModel[bert]/BertEncoder[encoder]/ModuleList[layer]/BertLayer[1]/BertAttention[attention]/BertSelfAttention[self]/NNCFLinear[key]/linear_0|INPUT0/FakeQuantize_output_0">
					<dim>1</dim>
					<dim>384</dim>
					<dim>768</dim>
				</port>
			</output>
		</layer>
		<layer id="263" name="Constant_38474" type="Const" version="opset1">
			<data element_type="i8" shape="512, 768" offset="28088760" size="393216" />
			<output>
				<port id="0" precision="I8">
					<dim>512</dim>
					<dim>768</dim>
				</port>
			</output>
		</layer>
		<layer id="264" name="Convert_24742" type="Convert" version="opset1">
			<data destination_type="f32" />
			<input>
				<port id="0" precision="I8">
					<dim>512</dim>
					<dim>768</dim>
				</port>
			</input>
			<output>
				<port id="1" precision="FP32">
					<dim>512</dim>
					<dim>768</dim>
				</port>
			</output>
		</layer>
		<layer id="265" name="Constant_38481" type="Const" version="opset1">
			<data element_type="f32" shape="512, 1" offset="28481976" size="2048" />
			<output>
				<port id="0" precision="FP32">
					<dim>512</dim>
					<dim>1</dim>
				</port>
			</output>
		</layer>
		<layer id="266" name="/nncf_module/bert/encoder/layer.1/attention/self/key/pre_ops.1/op/FakeQuantize" type="Multiply" version="opset1">
			<data auto_broadcast="numpy" />
			<input>
				<port id="0" precision="FP32">
					<dim>512</dim>
					<dim>768</dim>
				</port>
				<port id="1" precision="FP32">
					<dim>512</dim>
					<dim>1</dim>
				</port>
			</input>
			<output>
				<port id="2" precision="FP32" names="/nncf_module/bert/encoder/layer.1/attention/self/key/pre_ops.1/op/FakeQuantize_output_0">
					<dim>512</dim>
					<dim>768</dim>
				</port>
			</output>
		</layer>
		<layer id="267" name="/nncf_module/bert/encoder/layer.1/attention/self/key/MatMul" type="MatMul" version="opset1">
			<data transpose_a="false" transpose_b="true" />
			<input>
				<port id="0" precision="FP32">
					<dim>1</dim>
					<dim>384</dim>
					<dim>768</dim>
				</port>
				<port id="1" precision="FP32">
					<dim>512</dim>
					<dim>768</dim>
				</port>
			</input>
			<output>
				<port id="2" precision="FP32" names="/nncf_module/bert/encoder/layer.1/attention/self/key/MatMul_output_0">
					<dim>1</dim>
					<dim>384</dim>
					<dim>512</dim>
				</port>
			</output>
		</layer>
		<layer id="268" name="/nncf_module/bert/encoder/layer.1/attention/self/key/Add" type="Add" version="opset1">
			<data auto_broadcast="numpy" />
			<input>
				<port id="0" precision="FP32">
					<dim>1</dim>
					<dim>1</dim>
					<dim>512</dim>
				</port>
				<port id="1" precision="FP32">
					<dim>1</dim>
					<dim>384</dim>
					<dim>512</dim>
				</port>
			</input>
			<output>
				<port id="2" precision="FP32" names="/nncf_module/bert/encoder/layer.1/attention/self/key/Add_output_0">
					<dim>1</dim>
					<dim>384</dim>
					<dim>512</dim>
				</port>
			</output>
		</layer>
		<layer id="269" name="Constant_22062" type="Const" version="opset1">
			<data element_type="f32" shape="1, 1, 1" offset="28484024" size="4" />
			<output>
				<port id="0" precision="FP32">
					<dim>1</dim>
					<dim>1</dim>
					<dim>1</dim>
				</port>
			</output>
		</layer>
		<layer id="270" name="Constant_22063" type="Const" version="opset1">
			<data element_type="f32" shape="1, 1, 1" offset="28484028" size="4" />
			<output>
				<port id="0" precision="FP32">
					<dim>1</dim>
					<dim>1</dim>
					<dim>1</dim>
				</port>
			</output>
		</layer>
		<layer id="271" name="Constant_22064" type="Const" version="opset1">
			<data element_type="f32" shape="1, 1, 1" offset="28484024" size="4" />
			<output>
				<port id="0" precision="FP32">
					<dim>1</dim>
					<dim>1</dim>
					<dim>1</dim>
				</port>
			</output>
		</layer>
		<layer id="272" name="Constant_22065" type="Const" version="opset1">
			<data element_type="f32" shape="1, 1, 1" offset="28484028" size="4" />
			<output>
				<port id="0" precision="FP32">
					<dim>1</dim>
					<dim>1</dim>
					<dim>1</dim>
				</port>
			</output>
		</layer>
		<layer id="273" name="/nncf_module/bert/encoder/layer.1/attention/self/key/BertForQuestionAnswering/BertModel[bert]/BertEncoder[encoder]/ModuleList[layer]/BertLayer[1]/BertAttention[attention]/BertSelfAttention[self]/NNCFLinear[key]/linear_0|OUTPUT/FakeQuantize" type="FakeQuantize" version="opset1">
			<data levels="256" auto_broadcast="numpy" />
			<input>
				<port id="0" precision="FP32">
					<dim>1</dim>
					<dim>384</dim>
					<dim>512</dim>
				</port>
				<port id="1" precision="FP32">
					<dim>1</dim>
					<dim>1</dim>
					<dim>1</dim>
				</port>
				<port id="2" precision="FP32">
					<dim>1</dim>
					<dim>1</dim>
					<dim>1</dim>
				</port>
				<port id="3" precision="FP32">
					<dim>1</dim>
					<dim>1</dim>
					<dim>1</dim>
				</port>
				<port id="4" precision="FP32">
					<dim>1</dim>
					<dim>1</dim>
					<dim>1</dim>
				</port>
			</input>
			<output>
				<port id="5" precision="FP32" names="/nncf_module/bert/encoder/layer.1/attention/self/key/BertForQuestionAnswering/BertModel[bert]/BertEncoder[encoder]/ModuleList[layer]/BertLayer[1]/BertAttention[attention]/BertSelfAttention[self]/NNCFLinear[key]/linear_0|OUTPUT/FakeQuantize_output_0">
					<dim>1</dim>
					<dim>384</dim>
					<dim>512</dim>
				</port>
			</output>
		</layer>
		<layer id="274" name="/nncf_module/bert/encoder/layer.1/attention/self/Shape" type="ShapeOf" version="opset3">
			<data output_type="i64" />
			<input>
				<port id="0" precision="FP32">
					<dim>1</dim>
					<dim>384</dim>
					<dim>512</dim>
				</port>
			</input>
			<output>
				<port id="1" precision="I64" names="/nncf_module/bert/encoder/layer.1/attention/self/Shape_1_output_0,/nncf_module/bert/encoder/layer.1/attention/self/Shape_output_0">
					<dim>3</dim>
				</port>
			</output>
		</layer>
		<layer id="275" name="Constant_16710" type="Const" version="opset1">
			<data element_type="i64" shape="2" offset="24346440" size="16" />
			<output>
				<port id="0" precision="I64">
					<dim>2</dim>
				</port>
			</output>
		</layer>
		<layer id="276" name="Constant_16711" type="Const" version="opset1">
			<data element_type="i64" shape="" offset="23596560" size="8" />
			<output>
				<port id="0" precision="I64" />
			</output>
		</layer>
		<layer id="277" name="Gather_16712" type="Gather" version="opset8">
			<data batch_dims="0" />
			<input>
				<port id="0" precision="I64">
					<dim>3</dim>
				</port>
				<port id="1" precision="I64">
					<dim>2</dim>
				</port>
				<port id="2" precision="I64" />
			</input>
			<output>
				<port id="3" precision="I64">
					<dim>2</dim>
				</port>
			</output>
		</layer>
		<layer id="278" name="/nncf_module/bert/encoder/layer.1/attention/self/Constant_2" type="Const" version="opset1">
			<data element_type="i64" shape="1" offset="24346456" size="8" />
			<output>
				<port id="0" precision="I64" names="/nncf_module/bert/encoder/layer.1/attention/self/Constant_2_output_0">
					<dim>1</dim>
				</port>
			</output>
		</layer>
		<layer id="279" name="/nncf_module/bert/encoder/layer.1/attention/self/Constant_3" type="Const" version="opset1">
			<data element_type="i64" shape="1" offset="24346464" size="8" />
			<output>
				<port id="0" precision="I64" names="/nncf_module/bert/encoder/layer.1/attention/self/Constant_3_output_0">
					<dim>1</dim>
				</port>
			</output>
		</layer>
		<layer id="280" name="/nncf_module/bert/encoder/layer.1/attention/self/Concat" type="Concat" version="opset1">
			<data axis="0" />
			<input>
				<port id="0" precision="I64">
					<dim>2</dim>
				</port>
				<port id="1" precision="I64">
					<dim>1</dim>
				</port>
				<port id="2" precision="I64">
					<dim>1</dim>
				</port>
			</input>
			<output>
				<port id="3" precision="I64" names="/nncf_module/bert/encoder/layer.1/attention/self/Concat_output_0">
					<dim>4</dim>
				</port>
			</output>
		</layer>
		<layer id="281" name="Constant_38504" type="Const" version="opset1">
			<data element_type="i64" shape="4" offset="28086672" size="32" />
			<output>
				<port id="0" precision="I64">
					<dim>4</dim>
				</port>
			</output>
		</layer>
		<layer id="282" name="Subtract_38505" type="Subtract" version="opset1">
			<data auto_broadcast="numpy" />
			<input>
				<port id="0" precision="I64">
					<dim>4</dim>
				</port>
				<port id="1" precision="I64">
					<dim>4</dim>
				</port>
			</input>
			<output>
				<port id="2" precision="I64">
					<dim>4</dim>
				</port>
			</output>
		</layer>
		<layer id="283" name="/nncf_module/bert/encoder/layer.1/attention/self/Reshape" type="Reshape" version="opset1">
			<data special_zero="true" />
			<input>
				<port id="0" precision="FP32">
					<dim>1</dim>
					<dim>384</dim>
					<dim>512</dim>
				</port>
				<port id="1" precision="I64">
					<dim>4</dim>
				</port>
			</input>
			<output>
				<port id="2" precision="FP32" names="/nncf_module/bert/encoder/layer.1/attention/self/Reshape_output_0">
					<dim>1</dim>
					<dim>384</dim>
					<dim>8</dim>
					<dim>64</dim>
				</port>
			</output>
		</layer>
		<layer id="284" name="Constant_777" type="Const" version="opset1">
			<data element_type="i64" shape="4" offset="24694200" size="32" />
			<output>
				<port id="0" precision="I64">
					<dim>4</dim>
				</port>
			</output>
		</layer>
		<layer id="285" name="/nncf_module/bert/encoder/layer.1/attention/self/Transpose_2" type="Transpose" version="opset1">
			<input>
				<port id="0" precision="FP32">
					<dim>1</dim>
					<dim>384</dim>
					<dim>8</dim>
					<dim>64</dim>
				</port>
				<port id="1" precision="I64">
					<dim>4</dim>
				</port>
			</input>
			<output>
				<port id="2" precision="FP32" names="/nncf_module/bert/encoder/layer.1/attention/self/Transpose_2_output_0">
					<dim>1</dim>
					<dim>8</dim>
					<dim>64</dim>
					<dim>384</dim>
				</port>
			</output>
		</layer>
		<layer id="286" name="Constant_22066" type="Const" version="opset1">
			<data element_type="f32" shape="1, 1, 1, 1" offset="24694232" size="4" />
			<output>
				<port id="0" precision="FP32">
					<dim>1</dim>
					<dim>1</dim>
					<dim>1</dim>
					<dim>1</dim>
				</port>
			</output>
		</layer>
		<layer id="287" name="Multiply_21700" type="Multiply" version="opset1">
			<data auto_broadcast="numpy" />
			<input>
				<port id="0" precision="FP32">
					<dim>1</dim>
					<dim>8</dim>
					<dim>64</dim>
					<dim>384</dim>
				</port>
				<port id="1" precision="FP32">
					<dim>1</dim>
					<dim>1</dim>
					<dim>1</dim>
					<dim>1</dim>
				</port>
			</input>
			<output>
				<port id="2" precision="FP32">
					<dim>1</dim>
					<dim>8</dim>
					<dim>64</dim>
					<dim>384</dim>
				</port>
			</output>
		</layer>
		<layer id="288" name="/nncf_module/bert/encoder/layer.1/attention/self/Div" type="MatMul" version="opset1">
			<data transpose_a="false" transpose_b="false" />
			<input>
				<port id="0" precision="FP32">
					<dim>1</dim>
					<dim>8</dim>
					<dim>384</dim>
					<dim>64</dim>
				</port>
				<port id="1" precision="FP32">
					<dim>1</dim>
					<dim>8</dim>
					<dim>64</dim>
					<dim>384</dim>
				</port>
			</input>
			<output>
				<port id="2" precision="FP32" names="/nncf_module/bert/encoder/layer.1/attention/self/Div_output_0">
					<dim>1</dim>
					<dim>8</dim>
					<dim>384</dim>
					<dim>384</dim>
				</port>
			</output>
		</layer>
		<layer id="289" name="/nncf_module/bert/encoder/layer.1/attention/self/Add" type="Add" version="opset1">
			<data auto_broadcast="numpy" />
			<input>
				<port id="0" precision="FP32">
					<dim>1</dim>
					<dim>8</dim>
					<dim>384</dim>
					<dim>384</dim>
				</port>
				<port id="1" precision="FP32">
					<dim>1</dim>
					<dim>1</dim>
					<dim>1</dim>
					<dim>384</dim>
				</port>
			</input>
			<output>
				<port id="2" precision="FP32" names="/nncf_module/bert/encoder/layer.1/attention/self/Add_output_0">
					<dim>1</dim>
					<dim>8</dim>
					<dim>384</dim>
					<dim>384</dim>
				</port>
			</output>
		</layer>
		<layer id="290" name="/nncf_module/bert/encoder/layer.1/attention/self/Softmax" type="SoftMax" version="opset8">
			<data axis="-1" />
			<input>
				<port id="0" precision="FP32">
					<dim>1</dim>
					<dim>8</dim>
					<dim>384</dim>
					<dim>384</dim>
				</port>
			</input>
			<output>
				<port id="1" precision="FP32" names="/nncf_module/bert/encoder/layer.1/attention/self/Softmax_output_0">
					<dim>1</dim>
					<dim>8</dim>
					<dim>384</dim>
					<dim>384</dim>
				</port>
			</output>
		</layer>
		<layer id="291" name="Constant_38541" type="Const" version="opset1">
			<data element_type="f32" shape="1, 1, 512" offset="28484032" size="2048" />
			<output>
				<port id="0" precision="FP32">
					<dim>1</dim>
					<dim>1</dim>
					<dim>512</dim>
				</port>
			</output>
		</layer>
		<layer id="292" name="Constant_22067" type="Const" version="opset1">
			<data element_type="f32" shape="1, 1, 1" offset="28486080" size="4" />
			<output>
				<port id="0" precision="FP32">
					<dim>1</dim>
					<dim>1</dim>
					<dim>1</dim>
				</port>
			</output>
		</layer>
		<layer id="293" name="Constant_22068" type="Const" version="opset1">
			<data element_type="f32" shape="1, 1, 1" offset="28486084" size="4" />
			<output>
				<port id="0" precision="FP32">
					<dim>1</dim>
					<dim>1</dim>
					<dim>1</dim>
				</port>
			</output>
		</layer>
		<layer id="294" name="Constant_22069" type="Const" version="opset1">
			<data element_type="f32" shape="1, 1, 1" offset="28486080" size="4" />
			<output>
				<port id="0" precision="FP32">
					<dim>1</dim>
					<dim>1</dim>
					<dim>1</dim>
				</port>
			</output>
		</layer>
		<layer id="295" name="Constant_22070" type="Const" version="opset1">
			<data element_type="f32" shape="1, 1, 1" offset="28486084" size="4" />
			<output>
				<port id="0" precision="FP32">
					<dim>1</dim>
					<dim>1</dim>
					<dim>1</dim>
				</port>
			</output>
		</layer>
		<layer id="296" name="/nncf_module/bert/encoder/layer.1/attention/self/value/BertForQuestionAnswering/BertModel[bert]/BertEncoder[encoder]/ModuleList[layer]/BertLayer[1]/BertAttention[attention]/BertSelfAttention[self]/NNCFLinear[value]/linear_0|INPUT0/FakeQuantize" type="FakeQuantize" version="opset1">
			<data levels="256" auto_broadcast="numpy" />
			<input>
				<port id="0" precision="FP32">
					<dim>1</dim>
					<dim>384</dim>
					<dim>768</dim>
				</port>
				<port id="1" precision="FP32">
					<dim>1</dim>
					<dim>1</dim>
					<dim>1</dim>
				</port>
				<port id="2" precision="FP32">
					<dim>1</dim>
					<dim>1</dim>
					<dim>1</dim>
				</port>
				<port id="3" precision="FP32">
					<dim>1</dim>
					<dim>1</dim>
					<dim>1</dim>
				</port>
				<port id="4" precision="FP32">
					<dim>1</dim>
					<dim>1</dim>
					<dim>1</dim>
				</port>
			</input>
			<output>
				<port id="5" precision="FP32" names="/nncf_module/bert/encoder/layer.1/attention/self/value/BertForQuestionAnswering/BertModel[bert]/BertEncoder[encoder]/ModuleList[layer]/BertLayer[1]/BertAttention[attention]/BertSelfAttention[self]/NNCFLinear[value]/linear_0|INPUT0/FakeQuantize_output_0">
					<dim>1</dim>
					<dim>384</dim>
					<dim>768</dim>
				</port>
			</output>
		</layer>
		<layer id="297" name="Constant_38548" type="Const" version="opset1">
			<data element_type="i8" shape="512, 768" offset="28486088" size="393216" />
			<output>
				<port id="0" precision="I8">
					<dim>512</dim>
					<dim>768</dim>
				</port>
			</output>
		</layer>
		<layer id="298" name="Convert_24863" type="Convert" version="opset1">
			<data destination_type="f32" />
			<input>
				<port id="0" precision="I8">
					<dim>512</dim>
					<dim>768</dim>
				</port>
			</input>
			<output>
				<port id="1" precision="FP32">
					<dim>512</dim>
					<dim>768</dim>
				</port>
			</output>
		</layer>
		<layer id="299" name="Constant_38555" type="Const" version="opset1">
			<data element_type="f32" shape="512, 1" offset="28879304" size="2048" />
			<output>
				<port id="0" precision="FP32">
					<dim>512</dim>
					<dim>1</dim>
				</port>
			</output>
		</layer>
		<layer id="300" name="/nncf_module/bert/encoder/layer.1/attention/self/value/pre_ops.1/op/FakeQuantize" type="Multiply" version="opset1">
			<data auto_broadcast="numpy" />
			<input>
				<port id="0" precision="FP32">
					<dim>512</dim>
					<dim>768</dim>
				</port>
				<port id="1" precision="FP32">
					<dim>512</dim>
					<dim>1</dim>
				</port>
			</input>
			<output>
				<port id="2" precision="FP32" names="/nncf_module/bert/encoder/layer.1/attention/self/value/pre_ops.1/op/FakeQuantize_output_0">
					<dim>512</dim>
					<dim>768</dim>
				</port>
			</output>
		</layer>
		<layer id="301" name="/nncf_module/bert/encoder/layer.1/attention/self/value/MatMul" type="MatMul" version="opset1">
			<data transpose_a="false" transpose_b="true" />
			<input>
				<port id="0" precision="FP32">
					<dim>1</dim>
					<dim>384</dim>
					<dim>768</dim>
				</port>
				<port id="1" precision="FP32">
					<dim>512</dim>
					<dim>768</dim>
				</port>
			</input>
			<output>
				<port id="2" precision="FP32" names="/nncf_module/bert/encoder/layer.1/attention/self/value/MatMul_output_0">
					<dim>1</dim>
					<dim>384</dim>
					<dim>512</dim>
				</port>
			</output>
		</layer>
		<layer id="302" name="/nncf_module/bert/encoder/layer.1/attention/self/value/Add" type="Add" version="opset1">
			<data auto_broadcast="numpy" />
			<input>
				<port id="0" precision="FP32">
					<dim>1</dim>
					<dim>1</dim>
					<dim>512</dim>
				</port>
				<port id="1" precision="FP32">
					<dim>1</dim>
					<dim>384</dim>
					<dim>512</dim>
				</port>
			</input>
			<output>
				<port id="2" precision="FP32" names="/nncf_module/bert/encoder/layer.1/attention/self/value/Add_output_0">
					<dim>1</dim>
					<dim>384</dim>
					<dim>512</dim>
				</port>
			</output>
		</layer>
		<layer id="303" name="/nncf_module/bert/encoder/layer.1/attention/self/Concat_1" type="Const" version="opset1">
			<data element_type="i64" shape="4" offset="28881352" size="32" />
			<output>
				<port id="0" precision="I64">
					<dim>4</dim>
				</port>
			</output>
		</layer>
		<layer id="304" name="/nncf_module/bert/encoder/layer.1/attention/self/Reshape_1" type="Reshape" version="opset1">
			<data special_zero="true" />
			<input>
				<port id="0" precision="FP32">
					<dim>1</dim>
					<dim>384</dim>
					<dim>512</dim>
				</port>
				<port id="1" precision="I64">
					<dim>4</dim>
				</port>
			</input>
			<output>
				<port id="2" precision="FP32" names="/nncf_module/bert/encoder/layer.1/attention/self/Reshape_1_output_0">
					<dim>1</dim>
					<dim>384</dim>
					<dim>8</dim>
					<dim>64</dim>
				</port>
			</output>
		</layer>
		<layer id="305" name="Constant_710" type="Const" version="opset1">
			<data element_type="i64" shape="4" offset="24346504" size="32" />
			<output>
				<port id="0" precision="I64">
					<dim>4</dim>
				</port>
			</output>
		</layer>
		<layer id="306" name="/nncf_module/bert/encoder/layer.1/attention/self/Transpose" type="Transpose" version="opset1">
			<input>
				<port id="0" precision="FP32">
					<dim>1</dim>
					<dim>384</dim>
					<dim>8</dim>
					<dim>64</dim>
				</port>
				<port id="1" precision="I64">
					<dim>4</dim>
				</port>
			</input>
			<output>
				<port id="2" precision="FP32" names="/nncf_module/bert/encoder/layer.1/attention/self/Transpose_output_0">
					<dim>1</dim>
					<dim>8</dim>
					<dim>384</dim>
					<dim>64</dim>
				</port>
			</output>
		</layer>
		<layer id="307" name="/nncf_module/bert/encoder/layer.1/attention/self/MatMul_1" type="MatMul" version="opset1">
			<data transpose_a="false" transpose_b="false" />
			<input>
				<port id="0" precision="FP32">
					<dim>1</dim>
					<dim>8</dim>
					<dim>384</dim>
					<dim>384</dim>
				</port>
				<port id="1" precision="FP32">
					<dim>1</dim>
					<dim>8</dim>
					<dim>384</dim>
					<dim>64</dim>
				</port>
			</input>
			<output>
				<port id="2" precision="FP32" names="/nncf_module/bert/encoder/layer.1/attention/self/MatMul_1_output_0">
					<dim>1</dim>
					<dim>8</dim>
					<dim>384</dim>
					<dim>64</dim>
				</port>
			</output>
		</layer>
		<layer id="308" name="Constant_22072" type="Const" version="opset1">
			<data element_type="f32" shape="1, 1, 1, 1" offset="28881384" size="4" />
			<output>
				<port id="0" precision="FP32">
					<dim>1</dim>
					<dim>1</dim>
					<dim>1</dim>
					<dim>1</dim>
				</port>
			</output>
		</layer>
		<layer id="309" name="Constant_22073" type="Const" version="opset1">
			<data element_type="f32" shape="1, 1, 1, 1" offset="28881388" size="4" />
			<output>
				<port id="0" precision="FP32">
					<dim>1</dim>
					<dim>1</dim>
					<dim>1</dim>
					<dim>1</dim>
				</port>
			</output>
		</layer>
		<layer id="310" name="Constant_22074" type="Const" version="opset1">
			<data element_type="f32" shape="1, 1, 1, 1" offset="28881384" size="4" />
			<output>
				<port id="0" precision="FP32">
					<dim>1</dim>
					<dim>1</dim>
					<dim>1</dim>
					<dim>1</dim>
				</port>
			</output>
		</layer>
		<layer id="311" name="Constant_22075" type="Const" version="opset1">
			<data element_type="f32" shape="1, 1, 1, 1" offset="28881388" size="4" />
			<output>
				<port id="0" precision="FP32">
					<dim>1</dim>
					<dim>1</dim>
					<dim>1</dim>
					<dim>1</dim>
				</port>
			</output>
		</layer>
		<layer id="312" name="/nncf_module/bert/encoder/layer.1/attention/self/BertForQuestionAnswering/BertModel[bert]/BertEncoder[encoder]/ModuleList[layer]/BertLayer[1]/BertAttention[attention]/BertSelfAttention[self]/matmul_1|OUTPUT/FakeQuantize" type="FakeQuantize" version="opset1">
			<data levels="256" auto_broadcast="numpy" />
			<input>
				<port id="0" precision="FP32">
					<dim>1</dim>
					<dim>8</dim>
					<dim>384</dim>
					<dim>64</dim>
				</port>
				<port id="1" precision="FP32">
					<dim>1</dim>
					<dim>1</dim>
					<dim>1</dim>
					<dim>1</dim>
				</port>
				<port id="2" precision="FP32">
					<dim>1</dim>
					<dim>1</dim>
					<dim>1</dim>
					<dim>1</dim>
				</port>
				<port id="3" precision="FP32">
					<dim>1</dim>
					<dim>1</dim>
					<dim>1</dim>
					<dim>1</dim>
				</port>
				<port id="4" precision="FP32">
					<dim>1</dim>
					<dim>1</dim>
					<dim>1</dim>
					<dim>1</dim>
				</port>
			</input>
			<output>
				<port id="5" precision="FP32" names="/nncf_module/bert/encoder/layer.1/attention/self/BertForQuestionAnswering/BertModel[bert]/BertEncoder[encoder]/ModuleList[layer]/BertLayer[1]/BertAttention[attention]/BertSelfAttention[self]/matmul_1|OUTPUT/FakeQuantize_output_0">
					<dim>1</dim>
					<dim>8</dim>
					<dim>384</dim>
					<dim>64</dim>
				</port>
			</output>
		</layer>
		<layer id="313" name="Constant_788" type="Const" version="opset1">
			<data element_type="i64" shape="4" offset="24346504" size="32" />
			<output>
				<port id="0" precision="I64">
					<dim>4</dim>
				</port>
			</output>
		</layer>
		<layer id="314" name="/nncf_module/bert/encoder/layer.1/attention/self/Transpose_3" type="Transpose" version="opset1">
			<input>
				<port id="0" precision="FP32">
					<dim>1</dim>
					<dim>8</dim>
					<dim>384</dim>
					<dim>64</dim>
				</port>
				<port id="1" precision="I64">
					<dim>4</dim>
				</port>
			</input>
			<output>
				<port id="2" precision="FP32" names="/nncf_module/bert/encoder/layer.1/attention/self/Transpose_3_output_0">
					<dim>1</dim>
					<dim>384</dim>
					<dim>8</dim>
					<dim>64</dim>
				</port>
			</output>
		</layer>
		<layer id="315" name="/nncf_module/bert/encoder/layer.1/attention/self/Concat_3" type="Const" version="opset1">
			<data element_type="i64" shape="3" offset="28881392" size="24" />
			<output>
				<port id="0" precision="I64">
					<dim>3</dim>
				</port>
			</output>
		</layer>
		<layer id="316" name="/nncf_module/bert/encoder/layer.1/attention/self/Reshape_3" type="Reshape" version="opset1">
			<data special_zero="true" />
			<input>
				<port id="0" precision="FP32">
					<dim>1</dim>
					<dim>384</dim>
					<dim>8</dim>
					<dim>64</dim>
				</port>
				<port id="1" precision="I64">
					<dim>3</dim>
				</port>
			</input>
			<output>
				<port id="2" precision="FP32" names="/nncf_module/bert/encoder/layer.1/attention/self/Reshape_3_output_0">
					<dim>1</dim>
					<dim>384</dim>
					<dim>512</dim>
				</port>
			</output>
		</layer>
		<layer id="317" name="Constant_38574" type="Const" version="opset1">
			<data element_type="i8" shape="768, 512" offset="28881416" size="393216" />
			<output>
				<port id="0" precision="I8">
					<dim>768</dim>
					<dim>512</dim>
				</port>
			</output>
		</layer>
		<layer id="318" name="Convert_24984" type="Convert" version="opset1">
			<data destination_type="f32" />
			<input>
				<port id="0" precision="I8">
					<dim>768</dim>
					<dim>512</dim>
				</port>
			</input>
			<output>
				<port id="1" precision="FP32">
					<dim>768</dim>
					<dim>512</dim>
				</port>
			</output>
		</layer>
		<layer id="319" name="Constant_24921" type="Const" version="opset1">
			<data element_type="f32" shape="768, 1" offset="29274632" size="3072" />
			<output>
				<port id="0" precision="FP32">
					<dim>768</dim>
					<dim>1</dim>
				</port>
			</output>
		</layer>
		<layer id="320" name="/nncf_module/bert/encoder/layer.1/attention/output/dense/pre_ops.1/op/FakeQuantize" type="Multiply" version="opset1">
			<data auto_broadcast="numpy" />
			<input>
				<port id="0" precision="FP32">
					<dim>768</dim>
					<dim>512</dim>
				</port>
				<port id="1" precision="FP32">
					<dim>768</dim>
					<dim>1</dim>
				</port>
			</input>
			<output>
				<port id="2" precision="FP32" names="/nncf_module/bert/encoder/layer.1/attention/output/dense/pre_ops.1/op/FakeQuantize_output_0">
					<dim>768</dim>
					<dim>512</dim>
				</port>
			</output>
		</layer>
		<layer id="321" name="/nncf_module/bert/encoder/layer.1/attention/output/dense/MatMul" type="MatMul" version="opset1">
			<data transpose_a="false" transpose_b="true" />
			<input>
				<port id="0" precision="FP32">
					<dim>1</dim>
					<dim>384</dim>
					<dim>512</dim>
				</port>
				<port id="1" precision="FP32">
					<dim>768</dim>
					<dim>512</dim>
				</port>
			</input>
			<output>
				<port id="2" precision="FP32" names="/nncf_module/bert/encoder/layer.1/attention/output/dense/MatMul_output_0">
					<dim>1</dim>
					<dim>384</dim>
					<dim>768</dim>
				</port>
			</output>
		</layer>
		<layer id="322" name="/nncf_module/bert/encoder/layer.1/attention/output/dense/Add" type="Add" version="opset1">
			<data auto_broadcast="numpy" />
			<input>
				<port id="0" precision="FP32">
					<dim>1</dim>
					<dim>1</dim>
					<dim>768</dim>
				</port>
				<port id="1" precision="FP32">
					<dim>1</dim>
					<dim>384</dim>
					<dim>768</dim>
				</port>
			</input>
			<output>
				<port id="2" precision="FP32" names="/nncf_module/bert/encoder/layer.1/attention/output/dense/Add_output_0">
					<dim>1</dim>
					<dim>384</dim>
					<dim>768</dim>
				</port>
			</output>
		</layer>
		<layer id="323" name="/nncf_module/bert/encoder/layer.1/attention/output/Add" type="Add" version="opset1">
			<data auto_broadcast="numpy" />
			<input>
				<port id="0" precision="FP32">
					<dim>1</dim>
					<dim>384</dim>
					<dim>768</dim>
				</port>
				<port id="1" precision="FP32">
					<dim>1</dim>
					<dim>384</dim>
					<dim>768</dim>
				</port>
			</input>
			<output>
				<port id="2" precision="FP32" names="/nncf_module/bert/encoder/layer.1/attention/output/Add_output_0">
					<dim>1</dim>
					<dim>384</dim>
					<dim>768</dim>
				</port>
			</output>
		</layer>
		<layer id="324" name="Constant_858" type="Const" version="opset1">
			<data element_type="i64" shape="1" offset="23994416" size="8" />
			<output>
				<port id="0" precision="I64">
					<dim>1</dim>
				</port>
			</output>
		</layer>
		<layer id="325" name="/nncf_module/bert/encoder/layer.1/attention/output/LayerNorm/Div" type="MVN" version="opset6">
			<data eps="9.999999960041972e-13" normalize_variance="true" eps_mode="INSIDE_SQRT" />
			<input>
				<port id="0" precision="FP32">
					<dim>1</dim>
					<dim>384</dim>
					<dim>768</dim>
				</port>
				<port id="1" precision="I64">
					<dim>1</dim>
				</port>
			</input>
			<output>
				<port id="2" precision="FP32" names="/nncf_module/bert/encoder/layer.1/attention/output/LayerNorm/Div_output_0">
					<dim>1</dim>
					<dim>384</dim>
					<dim>768</dim>
				</port>
			</output>
		</layer>
		<layer id="326" name="Constant_22077" type="Const" version="opset1">
			<data element_type="f32" shape="1, 1, 768" offset="29277704" size="3072" />
			<output>
				<port id="0" precision="FP32">
					<dim>1</dim>
					<dim>1</dim>
					<dim>768</dim>
				</port>
			</output>
		</layer>
		<layer id="327" name="/nncf_module/bert/encoder/layer.1/attention/output/LayerNorm/Mul" type="Multiply" version="opset1">
			<data auto_broadcast="numpy" />
			<input>
				<port id="0" precision="FP32">
					<dim>1</dim>
					<dim>384</dim>
					<dim>768</dim>
				</port>
				<port id="1" precision="FP32">
					<dim>1</dim>
					<dim>1</dim>
					<dim>768</dim>
				</port>
			</input>
			<output>
				<port id="2" precision="FP32" names="/nncf_module/bert/encoder/layer.1/attention/output/LayerNorm/Mul_output_0">
					<dim>1</dim>
					<dim>384</dim>
					<dim>768</dim>
				</port>
			</output>
		</layer>
		<layer id="328" name="Constant_22078" type="Const" version="opset1">
			<data element_type="f32" shape="1, 1, 768" offset="29280776" size="3072" />
			<output>
				<port id="0" precision="FP32">
					<dim>1</dim>
					<dim>1</dim>
					<dim>768</dim>
				</port>
			</output>
		</layer>
		<layer id="329" name="/nncf_module/bert/encoder/layer.1/attention/output/LayerNorm/Add_1" type="Add" version="opset1">
			<data auto_broadcast="numpy" />
			<input>
				<port id="0" precision="FP32">
					<dim>1</dim>
					<dim>384</dim>
					<dim>768</dim>
				</port>
				<port id="1" precision="FP32">
					<dim>1</dim>
					<dim>1</dim>
					<dim>768</dim>
				</port>
			</input>
			<output>
				<port id="2" precision="FP32" names="/nncf_module/bert/encoder/layer.1/attention/output/LayerNorm/Add_1_output_0">
					<dim>1</dim>
					<dim>384</dim>
					<dim>768</dim>
				</port>
			</output>
		</layer>
		<layer id="330" name="Constant_22079" type="Const" version="opset1">
			<data element_type="f32" shape="1, 1, 1" offset="29283848" size="4" />
			<output>
				<port id="0" precision="FP32">
					<dim>1</dim>
					<dim>1</dim>
					<dim>1</dim>
				</port>
			</output>
		</layer>
		<layer id="331" name="Constant_22080" type="Const" version="opset1">
			<data element_type="f32" shape="1, 1, 1" offset="29283852" size="4" />
			<output>
				<port id="0" precision="FP32">
					<dim>1</dim>
					<dim>1</dim>
					<dim>1</dim>
				</port>
			</output>
		</layer>
		<layer id="332" name="Constant_22081" type="Const" version="opset1">
			<data element_type="f32" shape="1, 1, 1" offset="29283848" size="4" />
			<output>
				<port id="0" precision="FP32">
					<dim>1</dim>
					<dim>1</dim>
					<dim>1</dim>
				</port>
			</output>
		</layer>
		<layer id="333" name="Constant_22082" type="Const" version="opset1">
			<data element_type="f32" shape="1, 1, 1" offset="29283852" size="4" />
			<output>
				<port id="0" precision="FP32">
					<dim>1</dim>
					<dim>1</dim>
					<dim>1</dim>
				</port>
			</output>
		</layer>
		<layer id="334" name="/nncf_module/bert/encoder/layer.1/intermediate/dense/BertForQuestionAnswering/BertModel[bert]/BertEncoder[encoder]/ModuleList[layer]/BertLayer[1]/BertIntermediate[intermediate]/NNCFLinear[dense]/linear_0|INPUT0/FakeQuantize" type="FakeQuantize" version="opset1">
			<data levels="256" auto_broadcast="numpy" />
			<input>
				<port id="0" precision="FP32">
					<dim>1</dim>
					<dim>384</dim>
					<dim>768</dim>
				</port>
				<port id="1" precision="FP32">
					<dim>1</dim>
					<dim>1</dim>
					<dim>1</dim>
				</port>
				<port id="2" precision="FP32">
					<dim>1</dim>
					<dim>1</dim>
					<dim>1</dim>
				</port>
				<port id="3" precision="FP32">
					<dim>1</dim>
					<dim>1</dim>
					<dim>1</dim>
				</port>
				<port id="4" precision="FP32">
					<dim>1</dim>
					<dim>1</dim>
					<dim>1</dim>
				</port>
			</input>
			<output>
				<port id="5" precision="FP32" names="/nncf_module/bert/encoder/layer.1/intermediate/dense/BertForQuestionAnswering/BertModel[bert]/BertEncoder[encoder]/ModuleList[layer]/BertLayer[1]/BertIntermediate[intermediate]/NNCFLinear[dense]/linear_0|INPUT0/FakeQuantize_output_0">
					<dim>1</dim>
					<dim>384</dim>
					<dim>768</dim>
				</port>
			</output>
		</layer>
		<layer id="335" name="Constant_38581" type="Const" version="opset1">
			<data element_type="i8" shape="1573, 768" offset="29283856" size="1208064" />
			<output>
				<port id="0" precision="I8">
					<dim>1573</dim>
					<dim>768</dim>
				</port>
			</output>
		</layer>
		<layer id="336" name="Convert_25105" type="Convert" version="opset1">
			<data destination_type="f32" />
			<input>
				<port id="0" precision="I8">
					<dim>1573</dim>
					<dim>768</dim>
				</port>
			</input>
			<output>
				<port id="1" precision="FP32">
					<dim>1573</dim>
					<dim>768</dim>
				</port>
			</output>
		</layer>
		<layer id="337" name="Constant_38588" type="Const" version="opset1">
			<data element_type="f32" shape="1573, 1" offset="30491920" size="6292" />
			<output>
				<port id="0" precision="FP32">
					<dim>1573</dim>
					<dim>1</dim>
				</port>
			</output>
		</layer>
		<layer id="338" name="/nncf_module/bert/encoder/layer.1/intermediate/dense/pre_ops.1/op/FakeQuantize" type="Multiply" version="opset1">
			<data auto_broadcast="numpy" />
			<input>
				<port id="0" precision="FP32">
					<dim>1573</dim>
					<dim>768</dim>
				</port>
				<port id="1" precision="FP32">
					<dim>1573</dim>
					<dim>1</dim>
				</port>
			</input>
			<output>
				<port id="2" precision="FP32" names="/nncf_module/bert/encoder/layer.1/intermediate/dense/pre_ops.1/op/FakeQuantize_output_0">
					<dim>1573</dim>
					<dim>768</dim>
				</port>
			</output>
		</layer>
		<layer id="339" name="/nncf_module/bert/encoder/layer.1/intermediate/dense/MatMul" type="MatMul" version="opset1">
			<data transpose_a="false" transpose_b="true" />
			<input>
				<port id="0" precision="FP32">
					<dim>1</dim>
					<dim>384</dim>
					<dim>768</dim>
				</port>
				<port id="1" precision="FP32">
					<dim>1573</dim>
					<dim>768</dim>
				</port>
			</input>
			<output>
				<port id="2" precision="FP32" names="/nncf_module/bert/encoder/layer.1/intermediate/dense/MatMul_output_0">
					<dim>1</dim>
					<dim>384</dim>
					<dim>1573</dim>
				</port>
			</output>
		</layer>
		<layer id="340" name="/nncf_module/bert/encoder/layer.1/intermediate/dense/Add" type="Add" version="opset1">
			<data auto_broadcast="numpy" />
			<input>
				<port id="0" precision="FP32">
					<dim>1</dim>
					<dim>1</dim>
					<dim>1573</dim>
				</port>
				<port id="1" precision="FP32">
					<dim>1</dim>
					<dim>384</dim>
					<dim>1573</dim>
				</port>
			</input>
			<output>
				<port id="2" precision="FP32" names="/nncf_module/bert/encoder/layer.1/intermediate/dense/Add_output_0">
					<dim>1</dim>
					<dim>384</dim>
					<dim>1573</dim>
				</port>
			</output>
		</layer>
		<layer id="341" name="/nncf_module/bert/encoder/layer.1/intermediate/intermediate_act_fn/Mul_1" type="Gelu" version="opset7">
			<data approximation_mode="ERF" />
			<input>
				<port id="0" precision="FP32">
					<dim>1</dim>
					<dim>384</dim>
					<dim>1573</dim>
				</port>
			</input>
			<output>
				<port id="1" precision="FP32" names="/nncf_module/bert/encoder/layer.1/intermediate/intermediate_act_fn/Mul_1_output_0">
					<dim>1</dim>
					<dim>384</dim>
					<dim>1573</dim>
				</port>
			</output>
		</layer>
		<layer id="342" name="Constant_22084" type="Const" version="opset1">
			<data element_type="f32" shape="1, 1, 1" offset="30498212" size="4" />
			<output>
				<port id="0" precision="FP32">
					<dim>1</dim>
					<dim>1</dim>
					<dim>1</dim>
				</port>
			</output>
		</layer>
		<layer id="343" name="Constant_22085" type="Const" version="opset1">
			<data element_type="f32" shape="1, 1, 1" offset="30498216" size="4" />
			<output>
				<port id="0" precision="FP32">
					<dim>1</dim>
					<dim>1</dim>
					<dim>1</dim>
				</port>
			</output>
		</layer>
		<layer id="344" name="Constant_22086" type="Const" version="opset1">
			<data element_type="f32" shape="1, 1, 1" offset="30498212" size="4" />
			<output>
				<port id="0" precision="FP32">
					<dim>1</dim>
					<dim>1</dim>
					<dim>1</dim>
				</port>
			</output>
		</layer>
		<layer id="345" name="Constant_22087" type="Const" version="opset1">
			<data element_type="f32" shape="1, 1, 1" offset="30498216" size="4" />
			<output>
				<port id="0" precision="FP32">
					<dim>1</dim>
					<dim>1</dim>
					<dim>1</dim>
				</port>
			</output>
		</layer>
		<layer id="346" name="/nncf_module/bert/encoder/layer.1/intermediate/intermediate_act_fn/BertForQuestionAnswering/BertModel[bert]/BertEncoder[encoder]/ModuleList[layer]/BertLayer[1]/BertIntermediate[intermediate]/GELUActivation[intermediate_act_fn]/gelu_0|OUTPUT/FakeQuantize" type="FakeQuantize" version="opset1">
			<data levels="256" auto_broadcast="numpy" />
			<input>
				<port id="0" precision="FP32">
					<dim>1</dim>
					<dim>384</dim>
					<dim>1573</dim>
				</port>
				<port id="1" precision="FP32">
					<dim>1</dim>
					<dim>1</dim>
					<dim>1</dim>
				</port>
				<port id="2" precision="FP32">
					<dim>1</dim>
					<dim>1</dim>
					<dim>1</dim>
				</port>
				<port id="3" precision="FP32">
					<dim>1</dim>
					<dim>1</dim>
					<dim>1</dim>
				</port>
				<port id="4" precision="FP32">
					<dim>1</dim>
					<dim>1</dim>
					<dim>1</dim>
				</port>
			</input>
			<output>
				<port id="5" precision="FP32" names="/nncf_module/bert/encoder/layer.1/intermediate/intermediate_act_fn/BertForQuestionAnswering/BertModel[bert]/BertEncoder[encoder]/ModuleList[layer]/BertLayer[1]/BertIntermediate[intermediate]/GELUActivation[intermediate_act_fn]/gelu_0|OUTPUT/FakeQuantize_output_0">
					<dim>1</dim>
					<dim>384</dim>
					<dim>1573</dim>
				</port>
			</output>
		</layer>
		<layer id="347" name="Constant_38595" type="Const" version="opset1">
			<data element_type="i8" shape="768, 1573" offset="30498220" size="1208064" />
			<output>
				<port id="0" precision="I8">
					<dim>768</dim>
					<dim>1573</dim>
				</port>
			</output>
		</layer>
		<layer id="348" name="Convert_25226" type="Convert" version="opset1">
			<data destination_type="f32" />
			<input>
				<port id="0" precision="I8">
					<dim>768</dim>
					<dim>1573</dim>
				</port>
			</input>
			<output>
				<port id="1" precision="FP32">
					<dim>768</dim>
					<dim>1573</dim>
				</port>
			</output>
		</layer>
		<layer id="349" name="Constant_25163" type="Const" version="opset1">
			<data element_type="f32" shape="768, 1" offset="31706284" size="3072" />
			<output>
				<port id="0" precision="FP32">
					<dim>768</dim>
					<dim>1</dim>
				</port>
			</output>
		</layer>
		<layer id="350" name="/nncf_module/bert/encoder/layer.1/output/dense/pre_ops.1/op/FakeQuantize" type="Multiply" version="opset1">
			<data auto_broadcast="numpy" />
			<input>
				<port id="0" precision="FP32">
					<dim>768</dim>
					<dim>1573</dim>
				</port>
				<port id="1" precision="FP32">
					<dim>768</dim>
					<dim>1</dim>
				</port>
			</input>
			<output>
				<port id="2" precision="FP32" names="/nncf_module/bert/encoder/layer.1/output/dense/pre_ops.1/op/FakeQuantize_output_0">
					<dim>768</dim>
					<dim>1573</dim>
				</port>
			</output>
		</layer>
		<layer id="351" name="/nncf_module/bert/encoder/layer.1/output/dense/MatMul" type="MatMul" version="opset1">
			<data transpose_a="false" transpose_b="true" />
			<input>
				<port id="0" precision="FP32">
					<dim>1</dim>
					<dim>384</dim>
					<dim>1573</dim>
				</port>
				<port id="1" precision="FP32">
					<dim>768</dim>
					<dim>1573</dim>
				</port>
			</input>
			<output>
				<port id="2" precision="FP32" names="/nncf_module/bert/encoder/layer.1/output/dense/MatMul_output_0">
					<dim>1</dim>
					<dim>384</dim>
					<dim>768</dim>
				</port>
			</output>
		</layer>
		<layer id="352" name="/nncf_module/bert/encoder/layer.1/output/dense/Add" type="Add" version="opset1">
			<data auto_broadcast="numpy" />
			<input>
				<port id="0" precision="FP32">
					<dim>1</dim>
					<dim>1</dim>
					<dim>768</dim>
				</port>
				<port id="1" precision="FP32">
					<dim>1</dim>
					<dim>384</dim>
					<dim>768</dim>
				</port>
			</input>
			<output>
				<port id="2" precision="FP32" names="/nncf_module/bert/encoder/layer.1/output/dense/Add_output_0">
					<dim>1</dim>
					<dim>384</dim>
					<dim>768</dim>
				</port>
			</output>
		</layer>
		<layer id="353" name="/nncf_module/bert/encoder/layer.1/output/Add" type="Add" version="opset1">
			<data auto_broadcast="numpy" />
			<input>
				<port id="0" precision="FP32">
					<dim>1</dim>
					<dim>384</dim>
					<dim>768</dim>
				</port>
				<port id="1" precision="FP32">
					<dim>1</dim>
					<dim>384</dim>
					<dim>768</dim>
				</port>
			</input>
			<output>
				<port id="2" precision="FP32" names="/nncf_module/bert/encoder/layer.1/output/Add_output_0">
					<dim>1</dim>
					<dim>384</dim>
					<dim>768</dim>
				</port>
			</output>
		</layer>
		<layer id="354" name="Constant_902" type="Const" version="opset1">
			<data element_type="i64" shape="1" offset="23994416" size="8" />
			<output>
				<port id="0" precision="I64">
					<dim>1</dim>
				</port>
			</output>
		</layer>
		<layer id="355" name="/nncf_module/bert/encoder/layer.1/output/LayerNorm/Div" type="MVN" version="opset6">
			<data eps="9.999999960041972e-13" normalize_variance="true" eps_mode="INSIDE_SQRT" />
			<input>
				<port id="0" precision="FP32">
					<dim>1</dim>
					<dim>384</dim>
					<dim>768</dim>
				</port>
				<port id="1" precision="I64">
					<dim>1</dim>
				</port>
			</input>
			<output>
				<port id="2" precision="FP32" names="/nncf_module/bert/encoder/layer.1/output/LayerNorm/Div_output_0">
					<dim>1</dim>
					<dim>384</dim>
					<dim>768</dim>
				</port>
			</output>
		</layer>
		<layer id="356" name="Constant_22089" type="Const" version="opset1">
			<data element_type="f32" shape="1, 1, 768" offset="31709356" size="3072" />
			<output>
				<port id="0" precision="FP32">
					<dim>1</dim>
					<dim>1</dim>
…
		<edge from-layer="1031" from-port="1" to-layer="1034" to-port="0" />
		<edge from-layer="1032" from-port="0" to-layer="1034" to-port="1" />
		<edge from-layer="1033" from-port="0" to-layer="1034" to-port="2" />
		<edge from-layer="1034" from-port="3" to-layer="1037" to-port="0" />
		<edge from-layer="1035" from-port="0" to-layer="1037" to-port="1" />
		<edge from-layer="1036" from-port="0" to-layer="1037" to-port="2" />
		<edge from-layer="1037" from-port="3" to-layer="1039" to-port="0" />
		<edge from-layer="1038" from-port="0" to-layer="1039" to-port="1" />
		<edge from-layer="1039" from-port="2" to-layer="1040" to-port="1" />
		<edge from-layer="1040" from-port="2" to-layer="1042" to-port="0" />
		<edge from-layer="1041" from-port="0" to-layer="1042" to-port="1" />
		<edge from-layer="1042" from-port="2" to-layer="1074" to-port="0" />
		<edge from-layer="1043" from-port="0" to-layer="1054" to-port="0" />
		<edge from-layer="1044" from-port="0" to-layer="1048" to-port="1" />
		<edge from-layer="1045" from-port="0" to-layer="1048" to-port="2" />
		<edge from-layer="1046" from-port="0" to-layer="1048" to-port="3" />
		<edge from-layer="1047" from-port="0" to-layer="1048" to-port="4" />
		<edge from-layer="1048" from-port="5" to-layer="1053" to-port="0" />
		<edge from-layer="1049" from-port="0" to-layer="1050" to-port="0" />
		<edge from-layer="1050" from-port="1" to-layer="1052" to-port="0" />
		<edge from-layer="1051" from-port="0" to-layer="1052" to-port="1" />
		<edge from-layer="1052" from-port="2" to-layer="1053" to-port="1" />
		<edge from-layer="1053" from-port="2" to-layer="1054" to-port="1" />
		<edge from-layer="1054" from-port="2" to-layer="1059" to-port="0" />
		<edge from-layer="1055" from-port="0" to-layer="1059" to-port="1" />
		<edge from-layer="1056" from-port="0" to-layer="1059" to-port="2" />
		<edge from-layer="1057" from-port="0" to-layer="1059" to-port="3" />
		<edge from-layer="1058" from-port="0" to-layer="1059" to-port="4" />
		<edge from-layer="1059" from-port="5" to-layer="1069" to-port="0" />
		<edge from-layer="1059" from-port="5" to-layer="1060" to-port="0" />
		<edge from-layer="1060" from-port="1" to-layer="1063" to-port="0" />
		<edge from-layer="1061" from-port="0" to-layer="1063" to-port="1" />
		<edge from-layer="1062" from-port="0" to-layer="1063" to-port="2" />
		<edge from-layer="1063" from-port="3" to-layer="1066" to-port="0" />
		<edge from-layer="1064" from-port="0" to-layer="1066" to-port="1" />
		<edge from-layer="1065" from-port="0" to-layer="1066" to-port="2" />
		<edge from-layer="1066" from-port="3" to-layer="1068" to-port="0" />
		<edge from-layer="1067" from-port="0" to-layer="1068" to-port="1" />
		<edge from-layer="1068" from-port="2" to-layer="1069" to-port="1" />
		<edge from-layer="1069" from-port="2" to-layer="1071" to-port="0" />
		<edge from-layer="1070" from-port="0" to-layer="1071" to-port="1" />
		<edge from-layer="1071" from-port="2" to-layer="1073" to-port="0" />
		<edge from-layer="1072" from-port="0" to-layer="1073" to-port="1" />
		<edge from-layer="1073" from-port="2" to-layer="1074" to-port="1" />
		<edge from-layer="1074" from-port="2" to-layer="1075" to-port="0" />
		<edge from-layer="1075" from-port="2" to-layer="1076" to-port="0" />
		<edge from-layer="1076" from-port="1" to-layer="1093" to-port="0" />
		<edge from-layer="1077" from-port="0" to-layer="1088" to-port="0" />
		<edge from-layer="1078" from-port="0" to-layer="1082" to-port="1" />
		<edge from-layer="1079" from-port="0" to-layer="1082" to-port="2" />
		<edge from-layer="1080" from-port="0" to-layer="1082" to-port="3" />
		<edge from-layer="1081" from-port="0" to-layer="1082" to-port="4" />
		<edge from-layer="1082" from-port="5" to-layer="1087" to-port="0" />
		<edge from-layer="1083" from-port="0" to-layer="1084" to-port="0" />
		<edge from-layer="1084" from-port="1" to-layer="1086" to-port="0" />
		<edge from-layer="1085" from-port="0" to-layer="1086" to-port="1" />
		<edge from-layer="1086" from-port="2" to-layer="1087" to-port="1" />
		<edge from-layer="1087" from-port="2" to-layer="1088" to-port="1" />
		<edge from-layer="1088" from-port="2" to-layer="1090" to-port="0" />
		<edge from-layer="1089" from-port="0" to-layer="1090" to-port="1" />
		<edge from-layer="1090" from-port="2" to-layer="1092" to-port="0" />
		<edge from-layer="1091" from-port="0" to-layer="1092" to-port="1" />
		<edge from-layer="1092" from-port="2" to-layer="1093" to-port="1" />
		<edge from-layer="1093" from-port="2" to-layer="1098" to-port="0" />
		<edge from-layer="1094" from-port="0" to-layer="1098" to-port="1" />
		<edge from-layer="1095" from-port="0" to-layer="1098" to-port="2" />
		<edge from-layer="1096" from-port="0" to-layer="1098" to-port="3" />
		<edge from-layer="1097" from-port="0" to-layer="1098" to-port="4" />
		<edge from-layer="1098" from-port="5" to-layer="1100" to-port="0" />
		<edge from-layer="1099" from-port="0" to-layer="1100" to-port="1" />
		<edge from-layer="1100" from-port="2" to-layer="1102" to-port="0" />
		<edge from-layer="1101" from-port="0" to-layer="1102" to-port="1" />
		<edge from-layer="1102" from-port="2" to-layer="1107" to-port="0" />
		<edge from-layer="1103" from-port="0" to-layer="1104" to-port="0" />
		<edge from-layer="1104" from-port="1" to-layer="1106" to-port="0" />
		<edge from-layer="1105" from-port="0" to-layer="1106" to-port="1" />
		<edge from-layer="1106" from-port="2" to-layer="1107" to-port="1" />
		<edge from-layer="1107" from-port="2" to-layer="1108" to-port="1" />
		<edge from-layer="1108" from-port="2" to-layer="1109" to-port="0" />
		<edge from-layer="1109" from-port="2" to-layer="1111" to-port="0" />
		<edge from-layer="1110" from-port="0" to-layer="1111" to-port="1" />
		<edge from-layer="1111" from-port="2" to-layer="1113" to-port="0" />
		<edge from-layer="1112" from-port="0" to-layer="1113" to-port="1" />
		<edge from-layer="1113" from-port="2" to-layer="1115" to-port="0" />
		<edge from-layer="1114" from-port="0" to-layer="1115" to-port="1" />
		<edge from-layer="1115" from-port="2" to-layer="1120" to-port="0" />
		<edge from-layer="1115" from-port="2" to-layer="1139" to-port="1" />
		<edge from-layer="1116" from-port="0" to-layer="1120" to-port="1" />
		<edge from-layer="1117" from-port="0" to-layer="1120" to-port="2" />
		<edge from-layer="1118" from-port="0" to-layer="1120" to-port="3" />
		<edge from-layer="1119" from-port="0" to-layer="1120" to-port="4" />
		<edge from-layer="1120" from-port="5" to-layer="1125" to-port="0" />
		<edge from-layer="1121" from-port="0" to-layer="1122" to-port="0" />
		<edge from-layer="1122" from-port="1" to-layer="1124" to-port="0" />
		<edge from-layer="1123" from-port="0" to-layer="1124" to-port="1" />
		<edge from-layer="1124" from-port="2" to-layer="1125" to-port="1" />
		<edge from-layer="1125" from-port="2" to-layer="1126" to-port="1" />
		<edge from-layer="1126" from-port="2" to-layer="1127" to-port="0" />
		<edge from-layer="1127" from-port="1" to-layer="1132" to-port="0" />
		<edge from-layer="1128" from-port="0" to-layer="1132" to-port="1" />
		<edge from-layer="1129" from-port="0" to-layer="1132" to-port="2" />
		<edge from-layer="1130" from-port="0" to-layer="1132" to-port="3" />
		<edge from-layer="1131" from-port="0" to-layer="1132" to-port="4" />
		<edge from-layer="1132" from-port="5" to-layer="1137" to-port="0" />
		<edge from-layer="1133" from-port="0" to-layer="1134" to-port="0" />
		<edge from-layer="1134" from-port="1" to-layer="1136" to-port="0" />
		<edge from-layer="1135" from-port="0" to-layer="1136" to-port="1" />
		<edge from-layer="1136" from-port="2" to-layer="1137" to-port="1" />
		<edge from-layer="1137" from-port="2" to-layer="1138" to-port="1" />
		<edge from-layer="1138" from-port="2" to-layer="1139" to-port="0" />
		<edge from-layer="1139" from-port="2" to-layer="1141" to-port="0" />
		<edge from-layer="1140" from-port="0" to-layer="1141" to-port="1" />
		<edge from-layer="1141" from-port="2" to-layer="1143" to-port="0" />
		<edge from-layer="1142" from-port="0" to-layer="1143" to-port="1" />
		<edge from-layer="1143" from-port="2" to-layer="1145" to-port="0" />
		<edge from-layer="1144" from-port="0" to-layer="1145" to-port="1" />
		<edge from-layer="1145" from-port="2" to-layer="1240" to-port="1" />
		<edge from-layer="1145" from-port="2" to-layer="1150" to-port="0" />
		<edge from-layer="1145" from-port="2" to-layer="1213" to-port="0" />
		<edge from-layer="1145" from-port="2" to-layer="1179" to-port="0" />
		<edge from-layer="1146" from-port="0" to-layer="1150" to-port="1" />
		<edge from-layer="1147" from-port="0" to-layer="1150" to-port="2" />
		<edge from-layer="1148" from-port="0" to-layer="1150" to-port="3" />
		<edge from-layer="1149" from-port="0" to-layer="1150" to-port="4" />
		<edge from-layer="1150" from-port="5" to-layer="1155" to-port="0" />
		<edge from-layer="1151" from-port="0" to-layer="1152" to-port="0" />
		<edge from-layer="1152" from-port="1" to-layer="1154" to-port="0" />
		<edge from-layer="1153" from-port="0" to-layer="1154" to-port="1" />
		<edge from-layer="1154" from-port="2" to-layer="1155" to-port="1" />
		<edge from-layer="1155" from-port="2" to-layer="1156" to-port="1" />
		<edge from-layer="1156" from-port="2" to-layer="1161" to-port="0" />
		<edge from-layer="1157" from-port="0" to-layer="1161" to-port="1" />
		<edge from-layer="1158" from-port="0" to-layer="1161" to-port="2" />
		<edge from-layer="1159" from-port="0" to-layer="1161" to-port="3" />
		<edge from-layer="1160" from-port="0" to-layer="1161" to-port="4" />
		<edge from-layer="1161" from-port="5" to-layer="1171" to-port="0" />
		<edge from-layer="1161" from-port="5" to-layer="1162" to-port="0" />
		<edge from-layer="1162" from-port="1" to-layer="1165" to-port="0" />
		<edge from-layer="1163" from-port="0" to-layer="1165" to-port="1" />
		<edge from-layer="1164" from-port="0" to-layer="1165" to-port="2" />
		<edge from-layer="1165" from-port="3" to-layer="1168" to-port="0" />
		<edge from-layer="1166" from-port="0" to-layer="1168" to-port="1" />
		<edge from-layer="1167" from-port="0" to-layer="1168" to-port="2" />
		<edge from-layer="1168" from-port="3" to-layer="1170" to-port="0" />
		<edge from-layer="1169" from-port="0" to-layer="1170" to-port="1" />
		<edge from-layer="1170" from-port="2" to-layer="1171" to-port="1" />
		<edge from-layer="1171" from-port="2" to-layer="1173" to-port="0" />
		<edge from-layer="1172" from-port="0" to-layer="1173" to-port="1" />
		<edge from-layer="1173" from-port="2" to-layer="1205" to-port="0" />
		<edge from-layer="1174" from-port="0" to-layer="1185" to-port="0" />
		<edge from-layer="1175" from-port="0" to-layer="1179" to-port="1" />
		<edge from-layer="1176" from-port="0" to-layer="1179" to-port="2" />
		<edge from-layer="1177" from-port="0" to-layer="1179" to-port="3" />
		<edge from-layer="1178" from-port="0" to-layer="1179" to-port="4" />
		<edge from-layer="1179" from-port="5" to-layer="1184" to-port="0" />
		<edge from-layer="1180" from-port="0" to-layer="1181" to-port="0" />
		<edge from-layer="1181" from-port="1" to-layer="1183" to-port="0" />
		<edge from-layer="1182" from-port="0" to-layer="1183" to-port="1" />
		<edge from-layer="1183" from-port="2" to-layer="1184" to-port="1" />
		<edge from-layer="1184" from-port="2" to-layer="1185" to-port="1" />
		<edge from-layer="1185" from-port="2" to-layer="1190" to-port="0" />
		<edge from-layer="1186" from-port="0" to-layer="1190" to-port="1" />
		<edge from-layer="1187" from-port="0" to-layer="1190" to-port="2" />
		<edge from-layer="1188" from-port="0" to-layer="1190" to-port="3" />
		<edge from-layer="1189" from-port="0" to-layer="1190" to-port="4" />
		<edge from-layer="1190" from-port="5" to-layer="1200" to-port="0" />
		<edge from-layer="1190" from-port="5" to-layer="1191" to-port="0" />
		<edge from-layer="1191" from-port="1" to-layer="1194" to-port="0" />
		<edge from-layer="1192" from-port="0" to-layer="1194" to-port="1" />
		<edge from-layer="1193" from-port="0" to-layer="1194" to-port="2" />
		<edge from-layer="1194" from-port="3" to-layer="1197" to-port="0" />
		<edge from-layer="1195" from-port="0" to-layer="1197" to-port="1" />
		<edge from-layer="1196" from-port="0" to-layer="1197" to-port="2" />
		<edge from-layer="1197" from-port="3" to-layer="1199" to-port="0" />
		<edge from-layer="1198" from-port="0" to-layer="1199" to-port="1" />
		<edge from-layer="1199" from-port="2" to-layer="1200" to-port="1" />
		<edge from-layer="1200" from-port="2" to-layer="1202" to-port="0" />
		<edge from-layer="1201" from-port="0" to-layer="1202" to-port="1" />
		<edge from-layer="1202" from-port="2" to-layer="1204" to-port="0" />
		<edge from-layer="1203" from-port="0" to-layer="1204" to-port="1" />
		<edge from-layer="1204" from-port="2" to-layer="1205" to-port="1" />
		<edge from-layer="1205" from-port="2" to-layer="1206" to-port="0" />
		<edge from-layer="1206" from-port="2" to-layer="1207" to-port="0" />
		<edge from-layer="1207" from-port="1" to-layer="1224" to-port="0" />
		<edge from-layer="1208" from-port="0" to-layer="1219" to-port="0" />
		<edge from-layer="1209" from-port="0" to-layer="1213" to-port="1" />
		<edge from-layer="1210" from-port="0" to-layer="1213" to-port="2" />
		<edge from-layer="1211" from-port="0" to-layer="1213" to-port="3" />
		<edge from-layer="1212" from-port="0" to-layer="1213" to-port="4" />
		<edge from-layer="1213" from-port="5" to-layer="1218" to-port="0" />
		<edge from-layer="1214" from-port="0" to-layer="1215" to-port="0" />
		<edge from-layer="1215" from-port="1" to-layer="1217" to-port="0" />
		<edge from-layer="1216" from-port="0" to-layer="1217" to-port="1" />
		<edge from-layer="1217" from-port="2" to-layer="1218" to-port="1" />
		<edge from-layer="1218" from-port="2" to-layer="1219" to-port="1" />
		<edge from-layer="1219" from-port="2" to-layer="1221" to-port="0" />
		<edge from-layer="1220" from-port="0" to-layer="1221" to-port="1" />
		<edge from-layer="1221" from-port="2" to-layer="1223" to-port="0" />
		<edge from-layer="1222" from-port="0" to-layer="1223" to-port="1" />
		<edge from-layer="1223" from-port="2" to-layer="1224" to-port="1" />
		<edge from-layer="1224" from-port="2" to-layer="1229" to-port="0" />
		<edge from-layer="1225" from-port="0" to-layer="1229" to-port="1" />
		<edge from-layer="1226" from-port="0" to-layer="1229" to-port="2" />
		<edge from-layer="1227" from-port="0" to-layer="1229" to-port="3" />
		<edge from-layer="1228" from-port="0" to-layer="1229" to-port="4" />
		<edge from-layer="1229" from-port="5" to-layer="1231" to-port="0" />
		<edge from-layer="1230" from-port="0" to-layer="1231" to-port="1" />
		<edge from-layer="1231" from-port="2" to-layer="1233" to-port="0" />
		<edge from-layer="1232" from-port="0" to-layer="1233" to-port="1" />
		<edge from-layer="1233" from-port="2" to-layer="1238" to-port="0" />
		<edge from-layer="1234" from-port="0" to-layer="1235" to-port="0" />
		<edge from-layer="1235" from-port="1" to-layer="1237" to-port="0" />
		<edge from-layer="1236" from-port="0" to-layer="1237" to-port="1" />
		<edge from-layer="1237" from-port="2" to-layer="1238" to-port="1" />
		<edge from-layer="1238" from-port="2" to-layer="1239" to-port="1" />
		<edge from-layer="1239" from-port="2" to-layer="1240" to-port="0" />
		<edge from-layer="1240" from-port="2" to-layer="1242" to-port="0" />
		<edge from-layer="1241" from-port="0" to-layer="1242" to-port="1" />
		<edge from-layer="1242" from-port="2" to-layer="1244" to-port="0" />
		<edge from-layer="1243" from-port="0" to-layer="1244" to-port="1" />
		<edge from-layer="1244" from-port="2" to-layer="1246" to-port="0" />
		<edge from-layer="1245" from-port="0" to-layer="1246" to-port="1" />
		<edge from-layer="1246" from-port="2" to-layer="1270" to-port="1" />
		<edge from-layer="1246" from-port="2" to-layer="1251" to-port="0" />
		<edge from-layer="1247" from-port="0" to-layer="1251" to-port="1" />
		<edge from-layer="1248" from-port="0" to-layer="1251" to-port="2" />
		<edge from-layer="1249" from-port="0" to-layer="1251" to-port="3" />
		<edge from-layer="1250" from-port="0" to-layer="1251" to-port="4" />
		<edge from-layer="1251" from-port="5" to-layer="1256" to-port="0" />
		<edge from-layer="1252" from-port="0" to-layer="1253" to-port="0" />
		<edge from-layer="1253" from-port="1" to-layer="1255" to-port="0" />
		<edge from-layer="1254" from-port="0" to-layer="1255" to-port="1" />
		<edge from-layer="1255" from-port="2" to-layer="1256" to-port="1" />
		<edge from-layer="1256" from-port="2" to-layer="1257" to-port="1" />
		<edge from-layer="1257" from-port="2" to-layer="1258" to-port="0" />
		<edge from-layer="1258" from-port="1" to-layer="1263" to-port="0" />
		<edge from-layer="1259" from-port="0" to-layer="1263" to-port="1" />
		<edge from-layer="1260" from-port="0" to-layer="1263" to-port="2" />
		<edge from-layer="1261" from-port="0" to-layer="1263" to-port="3" />
		<edge from-layer="1262" from-port="0" to-layer="1263" to-port="4" />
		<edge from-layer="1263" from-port="5" to-layer="1268" to-port="0" />
		<edge from-layer="1264" from-port="0" to-layer="1265" to-port="0" />
		<edge from-layer="1265" from-port="1" to-layer="1267" to-port="0" />
		<edge from-layer="1266" from-port="0" to-layer="1267" to-port="1" />
		<edge from-layer="1267" from-port="2" to-layer="1268" to-port="1" />
		<edge from-layer="1268" from-port="2" to-layer="1269" to-port="1" />
		<edge from-layer="1269" from-port="2" to-layer="1270" to-port="0" />
		<edge from-layer="1270" from-port="2" to-layer="1272" to-port="0" />
		<edge from-layer="1271" from-port="0" to-layer="1272" to-port="1" />
		<edge from-layer="1272" from-port="2" to-layer="1274" to-port="0" />
		<edge from-layer="1273" from-port="0" to-layer="1274" to-port="1" />
		<edge from-layer="1274" from-port="2" to-layer="1276" to-port="0" />
		<edge from-layer="1275" from-port="0" to-layer="1276" to-port="1" />
		<edge from-layer="1276" from-port="2" to-layer="1371" to-port="1" />
		<edge from-layer="1276" from-port="2" to-layer="1344" to-port="0" />
		<edge from-layer="1276" from-port="2" to-layer="1310" to-port="0" />
		<edge from-layer="1276" from-port="2" to-layer="1281" to-port="0" />
		<edge from-layer="1277" from-port="0" to-layer="1281" to-port="1" />
		<edge from-layer="1278" from-port="0" to-layer="1281" to-port="2" />
		<edge from-layer="1279" from-port="0" to-layer="1281" to-port="3" />
		<edge from-layer="1280" from-port="0" to-layer="1281" to-port="4" />
		<edge from-layer="1281" from-port="5" to-layer="1286" to-port="0" />
		<edge from-layer="1282" from-port="0" to-layer="1283" to-port="0" />
		<edge from-layer="1283" from-port="1" to-layer="1285" to-port="0" />
		<edge from-layer="1284" from-port="0" to-layer="1285" to-port="1" />
		<edge from-layer="1285" from-port="2" to-layer="1286" to-port="1" />
		<edge from-layer="1286" from-port="2" to-layer="1287" to-port="1" />
		<edge from-layer="1287" from-port="2" to-layer="1292" to-port="0" />
		<edge from-layer="1288" from-port="0" to-layer="1292" to-port="1" />
		<edge from-layer="1289" from-port="0" to-layer="1292" to-port="2" />
		<edge from-layer="1290" from-port="0" to-layer="1292" to-port="3" />
		<edge from-layer="1291" from-port="0" to-layer="1292" to-port="4" />
		<edge from-layer="1292" from-port="5" to-layer="1302" to-port="0" />
		<edge from-layer="1292" from-port="5" to-layer="1293" to-port="0" />
		<edge from-layer="1293" from-port="1" to-layer="1296" to-port="0" />
		<edge from-layer="1294" from-port="0" to-layer="1296" to-port="1" />
		<edge from-layer="1295" from-port="0" to-layer="1296" to-port="2" />
		<edge from-layer="1296" from-port="3" to-layer="1299" to-port="0" />
		<edge from-layer="1297" from-port="0" to-layer="1299" to-port="1" />
		<edge from-layer="1298" from-port="0" to-layer="1299" to-port="2" />
		<edge from-layer="1299" from-port="3" to-layer="1301" to-port="0" />
		<edge from-layer="1300" from-port="0" to-layer="1301" to-port="1" />
		<edge from-layer="1301" from-port="2" to-layer="1302" to-port="1" />
		<edge from-layer="1302" from-port="2" to-layer="1304" to-port="0" />
		<edge from-layer="1303" from-port="0" to-layer="1304" to-port="1" />
		<edge from-layer="1304" from-port="2" to-layer="1336" to-port="0" />
		<edge from-layer="1305" from-port="0" to-layer="1316" to-port="0" />
		<edge from-layer="1306" from-port="0" to-layer="1310" to-port="1" />
		<edge from-layer="1307" from-port="0" to-layer="1310" to-port="2" />
		<edge from-layer="1308" from-port="0" to-layer="1310" to-port="3" />
		<edge from-layer="1309" from-port="0" to-layer="1310" to-port="4" />
		<edge from-layer="1310" from-port="5" to-layer="1315" to-port="0" />
		<edge from-layer="1311" from-port="0" to-layer="1312" to-port="0" />
		<edge from-layer="1312" from-port="1" to-layer="1314" to-port="0" />
		<edge from-layer="1313" from-port="0" to-layer="1314" to-port="1" />
		<edge from-layer="1314" from-port="2" to-layer="1315" to-port="1" />
		<edge from-layer="1315" from-port="2" to-layer="1316" to-port="1" />
		<edge from-layer="1316" from-port="2" to-layer="1321" to-port="0" />
		<edge from-layer="1317" from-port="0" to-layer="1321" to-port="1" />
		<edge from-layer="1318" from-port="0" to-layer="1321" to-port="2" />
		<edge from-layer="1319" from-port="0" to-layer="1321" to-port="3" />
		<edge from-layer="1320" from-port="0" to-layer="1321" to-port="4" />
		<edge from-layer="1321" from-port="5" to-layer="1331" to-port="0" />
		<edge from-layer="1321" from-port="5" to-layer="1322" to-port="0" />
		<edge from-layer="1322" from-port="1" to-layer="1325" to-port="0" />
		<edge from-layer="1323" from-port="0" to-layer="1325" to-port="1" />
		<edge from-layer="1324" from-port="0" to-layer="1325" to-port="2" />
		<edge from-layer="1325" from-port="3" to-layer="1328" to-port="0" />
		<edge from-layer="1326" from-port="0" to-layer="1328" to-port="1" />
		<edge from-layer="1327" from-port="0" to-layer="1328" to-port="2" />
		<edge from-layer="1328" from-port="3" to-layer="1330" to-port="0" />
		<edge from-layer="1329" from-port="0" to-layer="1330" to-port="1" />
		<edge from-layer="1330" from-port="2" to-layer="1331" to-port="1" />
		<edge from-layer="1331" from-port="2" to-layer="1333" to-port="0" />
		<edge from-layer="1332" from-port="0" to-layer="1333" to-port="1" />
		<edge from-layer="1333" from-port="2" to-layer="1335" to-port="0" />
		<edge from-layer="1334" from-port="0" to-layer="1335" to-port="1" />
		<edge from-layer="1335" from-port="2" to-layer="1336" to-port="1" />
		<edge from-layer="1336" from-port="2" to-layer="1337" to-port="0" />
		<edge from-layer="1337" from-port="2" to-layer="1338" to-port="0" />
		<edge from-layer="1338" from-port="1" to-layer="1355" to-port="0" />
		<edge from-layer="1339" from-port="0" to-layer="1350" to-port="0" />
		<edge from-layer="1340" from-port="0" to-layer="1344" to-port="1" />
		<edge from-layer="1341" from-port="0" to-layer="1344" to-port="2" />
		<edge from-layer="1342" from-port="0" to-layer="1344" to-port="3" />
		<edge from-layer="1343" from-port="0" to-layer="1344" to-port="4" />
		<edge from-layer="1344" from-port="5" to-layer="1349" to-port="0" />
		<edge from-layer="1345" from-port="0" to-layer="1346" to-port="0" />
		<edge from-layer="1346" from-port="1" to-layer="1348" to-port="0" />
		<edge from-layer="1347" from-port="0" to-layer="1348" to-port="1" />
		<edge from-layer="1348" from-port="2" to-layer="1349" to-port="1" />
		<edge from-layer="1349" from-port="2" to-layer="1350" to-port="1" />
		<edge from-layer="1350" from-port="2" to-layer="1352" to-port="0" />
		<edge from-layer="1351" from-port="0" to-layer="1352" to-port="1" />
		<edge from-layer="1352" from-port="2" to-layer="1354" to-port="0" />
		<edge from-layer="1353" from-port="0" to-layer="1354" to-port="1" />
		<edge from-layer="1354" from-port="2" to-layer="1355" to-port="1" />
		<edge from-layer="1355" from-port="2" to-layer="1360" to-port="0" />
		<edge from-layer="1356" from-port="0" to-layer="1360" to-port="1" />
		<edge from-layer="1357" from-port="0" to-layer="1360" to-port="2" />
		<edge from-layer="1358" from-port="0" to-layer="1360" to-port="3" />
		<edge from-layer="1359" from-port="0" to-layer="1360" to-port="4" />
		<edge from-layer="1360" from-port="5" to-layer="1362" to-port="0" />
		<edge from-layer="1361" from-port="0" to-layer="1362" to-port="1" />
		<edge from-layer="1362" from-port="2" to-layer="1364" to-port="0" />
		<edge from-layer="1363" from-port="0" to-layer="1364" to-port="1" />
		<edge from-layer="1364" from-port="2" to-layer="1369" to-port="0" />
		<edge from-layer="1365" from-port="0" to-layer="1366" to-port="0" />
		<edge from-layer="1366" from-port="1" to-layer="1368" to-port="0" />
		<edge from-layer="1367" from-port="0" to-layer="1368" to-port="1" />
		<edge from-layer="1368" from-port="2" to-layer="1369" to-port="1" />
		<edge from-layer="1369" from-port="2" to-layer="1370" to-port="1" />
		<edge from-layer="1370" from-port="2" to-layer="1371" to-port="0" />
		<edge from-layer="1371" from-port="2" to-layer="1373" to-port="0" />
		<edge from-layer="1372" from-port="0" to-layer="1373" to-port="1" />
		<edge from-layer="1373" from-port="2" to-layer="1375" to-port="0" />
		<edge from-layer="1374" from-port="0" to-layer="1375" to-port="1" />
		<edge from-layer="1375" from-port="2" to-layer="1377" to-port="0" />
		<edge from-layer="1376" from-port="0" to-layer="1377" to-port="1" />
		<edge from-layer="1377" from-port="2" to-layer="1382" to-port="0" />
		<edge from-layer="1377" from-port="2" to-layer="1401" to-port="1" />
		<edge from-layer="1378" from-port="0" to-layer="1382" to-port="1" />
		<edge from-layer="1379" from-port="0" to-layer="1382" to-port="2" />
		<edge from-layer="1380" from-port="0" to-layer="1382" to-port="3" />
		<edge from-layer="1381" from-port="0" to-layer="1382" to-port="4" />
		<edge from-layer="1382" from-port="5" to-layer="1387" to-port="0" />
		<edge from-layer="1383" from-port="0" to-layer="1384" to-port="0" />
		<edge from-layer="1384" from-port="1" to-layer="1386" to-port="0" />
		<edge from-layer="1385" from-port="0" to-layer="1386" to-port="1" />
		<edge from-layer="1386" from-port="2" to-layer="1387" to-port="1" />
		<edge from-layer="1387" from-port="2" to-layer="1388" to-port="1" />
		<edge from-layer="1388" from-port="2" to-layer="1389" to-port="0" />
		<edge from-layer="1389" from-port="1" to-layer="1394" to-port="0" />
		<edge from-layer="1390" from-port="0" to-layer="1394" to-port="1" />
		<edge from-layer="1391" from-port="0" to-layer="1394" to-port="2" />
		<edge from-layer="1392" from-port="0" to-layer="1394" to-port="3" />
		<edge from-layer="1393" from-port="0" to-layer="1394" to-port="4" />
		<edge from-layer="1394" from-port="5" to-layer="1399" to-port="0" />
		<edge from-layer="1395" from-port="0" to-layer="1396" to-port="0" />
		<edge from-layer="1396" from-port="1" to-layer="1398" to-port="0" />
		<edge from-layer="1397" from-port="0" to-layer="1398" to-port="1" />
		<edge from-layer="1398" from-port="2" to-layer="1399" to-port="1" />
		<edge from-layer="1399" from-port="2" to-layer="1400" to-port="1" />
		<edge from-layer="1400" from-port="2" to-layer="1401" to-port="0" />
		<edge from-layer="1401" from-port="2" to-layer="1403" to-port="0" />
		<edge from-layer="1402" from-port="0" to-layer="1403" to-port="1" />
		<edge from-layer="1403" from-port="2" to-layer="1405" to-port="0" />
		<edge from-layer="1404" from-port="0" to-layer="1405" to-port="1" />
		<edge from-layer="1405" from-port="2" to-layer="1407" to-port="0" />
		<edge from-layer="1406" from-port="0" to-layer="1407" to-port="1" />
		<edge from-layer="1407" from-port="2" to-layer="1502" to-port="1" />
		<edge from-layer="1407" from-port="2" to-layer="1412" to-port="0" />
		<edge from-layer="1407" from-port="2" to-layer="1475" to-port="0" />
		<edge from-layer="1407" from-port="2" to-layer="1441" to-port="0" />
		<edge from-layer="1408" from-port="0" to-layer="1412" to-port="1" />
		<edge from-layer="1409" from-port="0" to-layer="1412" to-port="2" />
		<edge from-layer="1410" from-port="0" to-layer="1412" to-port="3" />
		<edge from-layer="1411" from-port="0" to-layer="1412" to-port="4" />
		<edge from-layer="1412" from-port="5" to-layer="1417" to-port="0" />
		<edge from-layer="1413" from-port="0" to-layer="1414" to-port="0" />
		<edge from-layer="1414" from-port="1" to-layer="1416" to-port="0" />
		<edge from-layer="1415" from-port="0" to-layer="1416" to-port="1" />
		<edge from-layer="1416" from-port="2" to-layer="1417" to-port="1" />
		<edge from-layer="1417" from-port="2" to-layer="1418" to-port="1" />
		<edge from-layer="1418" from-port="2" to-layer="1423" to-port="0" />
		<edge from-layer="1419" from-port="0" to-layer="1423" to-port="1" />
		<edge from-layer="1420" from-port="0" to-layer="1423" to-port="2" />
		<edge from-layer="1421" from-port="0" to-layer="1423" to-port="3" />
		<edge from-layer="1422" from-port="0" to-layer="1423" to-port="4" />
		<edge from-layer="1423" from-port="5" to-layer="1433" to-port="0" />
		<edge from-layer="1423" from-port="5" to-layer="1424" to-port="0" />
		<edge from-layer="1424" from-port="1" to-layer="1427" to-port="0" />
		<edge from-layer="1425" from-port="0" to-layer="1427" to-port="1" />
		<edge from-layer="1426" from-port="0" to-layer="1427" to-port="2" />
		<edge from-layer="1427" from-port="3" to-layer="1430" to-port="0" />
		<edge from-layer="1428" from-port="0" to-layer="1430" to-port="1" />
		<edge from-layer="1429" from-port="0" to-layer="1430" to-port="2" />
		<edge from-layer="1430" from-port="3" to-layer="1432" to-port="0" />
		<edge from-layer="1431" from-port="0" to-layer="1432" to-port="1" />
		<edge from-layer="1432" from-port="2" to-layer="1433" to-port="1" />
		<edge from-layer="1433" from-port="2" to-layer="1435" to-port="0" />
		<edge from-layer="1434" from-port="0" to-layer="1435" to-port="1" />
		<edge from-layer="1435" from-port="2" to-layer="1467" to-port="0" />
		<edge from-layer="1436" from-port="0" to-layer="1447" to-port="0" />
		<edge from-layer="1437" from-port="0" to-layer="1441" to-port="1" />
		<edge from-layer="1438" from-port="0" to-layer="1441" to-port="2" />
		<edge from-layer="1439" from-port="0" to-layer="1441" to-port="3" />
		<edge from-layer="1440" from-port="0" to-layer="1441" to-port="4" />
		<edge from-layer="1441" from-port="5" to-layer="1446" to-port="0" />
		<edge from-layer="1442" from-port="0" to-layer="1443" to-port="0" />
		<edge from-layer="1443" from-port="1" to-layer="1445" to-port="0" />
		<edge from-layer="1444" from-port="0" to-layer="1445" to-port="1" />
		<edge from-layer="1445" from-port="2" to-layer="1446" to-port="1" />
		<edge from-layer="1446" from-port="2" to-layer="1447" to-port="1" />
		<edge from-layer="1447" from-port="2" to-layer="1452" to-port="0" />
		<edge from-layer="1448" from-port="0" to-layer="1452" to-port="1" />
		<edge from-layer="1449" from-port="0" to-layer="1452" to-port="2" />
		<edge from-layer="1450" from-port="0" to-layer="1452" to-port="3" />
		<edge from-layer="1451" from-port="0" to-layer="1452" to-port="4" />
		<edge from-layer="1452" from-port="5" to-layer="1462" to-port="0" />
		<edge from-layer="1452" from-port="5" to-layer="1453" to-port="0" />
		<edge from-layer="1453" from-port="1" to-layer="1456" to-port="0" />
		<edge from-layer="1454" from-port="0" to-layer="1456" to-port="1" />
		<edge from-layer="1455" from-port="0" to-layer="1456" to-port="2" />
		<edge from-layer="1456" from-port="3" to-layer="1459" to-port="0" />
		<edge from-layer="1457" from-port="0" to-layer="1459" to-port="1" />
		<edge from-layer="1458" from-port="0" to-layer="1459" to-port="2" />
		<edge from-layer="1459" from-port="3" to-layer="1461" to-port="0" />
		<edge from-layer="1460" from-port="0" to-layer="1461" to-port="1" />
		<edge from-layer="1461" from-port="2" to-layer="1462" to-port="1" />
		<edge from-layer="1462" from-port="2" to-layer="1464" to-port="0" />
		<edge from-layer="1463" from-port="0" to-layer="1464" to-port="1" />
		<edge from-layer="1464" from-port="2" to-layer="1466" to-port="0" />
		<edge from-layer="1465" from-port="0" to-layer="1466" to-port="1" />
		<edge from-layer="1466" from-port="2" to-layer="1467" to-port="1" />
		<edge from-layer="1467" from-port="2" to-layer="1468" to-port="0" />
		<edge from-layer="1468" from-port="2" to-layer="1469" to-port="0" />
		<edge from-layer="1469" from-port="1" to-layer="1486" to-port="0" />
		<edge from-layer="1470" from-port="0" to-layer="1481" to-port="0" />
		<edge from-layer="1471" from-port="0" to-layer="1475" to-port="1" />
		<edge from-layer="1472" from-port="0" to-layer="1475" to-port="2" />
		<edge from-layer="1473" from-port="0" to-layer="1475" to-port="3" />
		<edge from-layer="1474" from-port="0" to-layer="1475" to-port="4" />
		<edge from-layer="1475" from-port="5" to-layer="1480" to-port="0" />
		<edge from-layer="1476" from-port="0" to-layer="1477" to-port="0" />
		<edge from-layer="1477" from-port="1" to-layer="1479" to-port="0" />
		<edge from-layer="1478" from-port="0" to-layer="1479" to-port="1" />
		<edge from-layer="1479" from-port="2" to-layer="1480" to-port="1" />
		<edge from-layer="1480" from-port="2" to-layer="1481" to-port="1" />
		<edge from-layer="1481" from-port="2" to-layer="1483" to-port="0" />
		<edge from-layer="1482" from-port="0" to-layer="1483" to-port="1" />
		<edge from-layer="1483" from-port="2" to-layer="1485" to-port="0" />
		<edge from-layer="1484" from-port="0" to-layer="1485" to-port="1" />
		<edge from-layer="1485" from-port="2" to-layer="1486" to-port="1" />
		<edge from-layer="1486" from-port="2" to-layer="1491" to-port="0" />
		<edge from-layer="1487" from-port="0" to-layer="1491" to-port="1" />
		<edge from-layer="1488" from-port="0" to-layer="1491" to-port="2" />
		<edge from-layer="1489" from-port="0" to-layer="1491" to-port="3" />
		<edge from-layer="1490" from-port="0" to-layer="1491" to-port="4" />
		<edge from-layer="1491" from-port="5" to-layer="1493" to-port="0" />
		<edge from-layer="1492" from-port="0" to-layer="1493" to-port="1" />
		<edge from-layer="1493" from-port="2" to-layer="1495" to-port="0" />
		<edge from-layer="1494" from-port="0" to-layer="1495" to-port="1" />
		<edge from-layer="1495" from-port="2" to-layer="1500" to-port="0" />
		<edge from-layer="1496" from-port="0" to-layer="1497" to-port="0" />
		<edge from-layer="1497" from-port="1" to-layer="1499" to-port="0" />
		<edge from-layer="1498" from-port="0" to-layer="1499" to-port="1" />
		<edge from-layer="1499" from-port="2" to-layer="1500" to-port="1" />
		<edge from-layer="1500" from-port="2" to-layer="1501" to-port="1" />
		<edge from-layer="1501" from-port="2" to-layer="1502" to-port="0" />
		<edge from-layer="1502" from-port="2" to-layer="1504" to-port="0" />
		<edge from-layer="1503" from-port="0" to-layer="1504" to-port="1" />
		<edge from-layer="1504" from-port="2" to-layer="1506" to-port="0" />
		<edge from-layer="1505" from-port="0" to-layer="1506" to-port="1" />
		<edge from-layer="1506" from-port="2" to-layer="1508" to-port="0" />
		<edge from-layer="1507" from-port="0" to-layer="1508" to-port="1" />
		<edge from-layer="1508" from-port="2" to-layer="1513" to-port="0" />
		<edge from-layer="1508" from-port="2" to-layer="1532" to-port="1" />
		<edge from-layer="1509" from-port="0" to-layer="1513" to-port="1" />
		<edge from-layer="1510" from-port="0" to-layer="1513" to-port="2" />
		<edge from-layer="1511" from-port="0" to-layer="1513" to-port="3" />
		<edge from-layer="1512" from-port="0" to-layer="1513" to-port="4" />
		<edge from-layer="1513" from-port="5" to-layer="1518" to-port="0" />
		<edge from-layer="1514" from-port="0" to-layer="1515" to-port="0" />
		<edge from-layer="1515" from-port="1" to-layer="1517" to-port="0" />
		<edge from-layer="1516" from-port="0" to-layer="1517" to-port="1" />
		<edge from-layer="1517" from-port="2" to-layer="1518" to-port="1" />
		<edge from-layer="1518" from-port="2" to-layer="1519" to-port="1" />
		<edge from-layer="1519" from-port="2" to-layer="1520" to-port="0" />
		<edge from-layer="1520" from-port="1" to-layer="1525" to-port="0" />
		<edge from-layer="1521" from-port="0" to-layer="1525" to-port="1" />
		<edge from-layer="1522" from-port="0" to-layer="1525" to-port="2" />
		<edge from-layer="1523" from-port="0" to-layer="1525" to-port="3" />
		<edge from-layer="1524" from-port="0" to-layer="1525" to-port="4" />
		<edge from-layer="1525" from-port="5" to-layer="1530" to-port="0" />
		<edge from-layer="1526" from-port="0" to-layer="1527" to-port="0" />
		<edge from-layer="1527" from-port="1" to-layer="1529" to-port="0" />
		<edge from-layer="1528" from-port="0" to-layer="1529" to-port="1" />
		<edge from-layer="1529" from-port="2" to-layer="1530" to-port="1" />
		<edge from-layer="1530" from-port="2" to-layer="1531" to-port="1" />
		<edge from-layer="1531" from-port="2" to-layer="1532" to-port="0" />
		<edge from-layer="1532" from-port="2" to-layer="1534" to-port="0" />
		<edge from-layer="1533" from-port="0" to-layer="1534" to-port="1" />
		<edge from-layer="1534" from-port="2" to-layer="1536" to-port="0" />
		<edge from-layer="1535" from-port="0" to-layer="1536" to-port="1" />
		<edge from-layer="1536" from-port="2" to-layer="1538" to-port="0" />
		<edge from-layer="1537" from-port="0" to-layer="1538" to-port="1" />
		<edge from-layer="1538" from-port="2" to-layer="1572" to-port="0" />
		<edge from-layer="1538" from-port="2" to-layer="1606" to-port="0" />
		<edge from-layer="1538" from-port="2" to-layer="1633" to-port="1" />
		<edge from-layer="1538" from-port="2" to-layer="1543" to-port="0" />
		<edge from-layer="1539" from-port="0" to-layer="1543" to-port="1" />
		<edge from-layer="1540" from-port="0" to-layer="1543" to-port="2" />
		<edge from-layer="1541" from-port="0" to-layer="1543" to-port="3" />
		<edge from-layer="1542" from-port="0" to-layer="1543" to-port="4" />
		<edge from-layer="1543" from-port="5" to-layer="1548" to-port="0" />
		<edge from-layer="1544" from-port="0" to-layer="1545" to-port="0" />
		<edge from-layer="1545" from-port="1" to-layer="1547" to-port="0" />
		<edge from-layer="1546" from-port="0" to-layer="1547" to-port="1" />
		<edge from-layer="1547" from-port="2" to-layer="1548" to-port="1" />
		<edge from-layer="1548" from-port="2" to-layer="1549" to-port="1" />
		<edge from-layer="1549" from-port="2" to-layer="1554" to-port="0" />
		<edge from-layer="1550" from-port="0" to-layer="1554" to-port="1" />
		<edge from-layer="1551" from-port="0" to-layer="1554" to-port="2" />
		<edge from-layer="1552" from-port="0" to-layer="1554" to-port="3" />
		<edge from-layer="1553" from-port="0" to-layer="1554" to-port="4" />
		<edge from-layer="1554" from-port="5" to-layer="1555" to-port="0" />
		<edge from-layer="1554" from-port="5" to-layer="1564" to-port="0" />
		<edge from-layer="1555" from-port="1" to-layer="1558" to-port="0" />
		<edge from-layer="1556" from-port="0" to-layer="1558" to-port="1" />
		<edge from-layer="1557" from-port="0" to-layer="1558" to-port="2" />
		<edge from-layer="1558" from-port="3" to-layer="1561" to-port="0" />
		<edge from-layer="1559" from-port="0" to-layer="1561" to-port="1" />
		<edge from-layer="1560" from-port="0" to-layer="1561" to-port="2" />
		<edge from-layer="1561" from-port="3" to-layer="1563" to-port="0" />
		<edge from-layer="1562" from-port="0" to-layer="1563" to-port="1" />
		<edge from-layer="1563" from-port="2" to-layer="1564" to-port="1" />
		<edge from-layer="1564" from-port="2" to-layer="1566" to-port="0" />
		<edge from-layer="1565" from-port="0" to-layer="1566" to-port="1" />
		<edge from-layer="1566" from-port="2" to-layer="1598" to-port="0" />
		<edge from-layer="1567" from-port="0" to-layer="1578" to-port="0" />
		<edge from-layer="1568" from-port="0" to-layer="1572" to-port="1" />
		<edge from-layer="1569" from-port="0" to-layer="1572" to-port="2" />
		<edge from-layer="1570" from-port="0" to-layer="1572" to-port="3" />
		<edge from-layer="1571" from-port="0" to-layer="1572" to-port="4" />
		<edge from-layer="1572" from-port="5" to-layer="1577" to-port="0" />
		<edge from-layer="1573" from-port="0" to-layer="1574" to-port="0" />
		<edge from-layer="1574" from-port="1" to-layer="1576" to-port="0" />
		<edge from-layer="1575" from-port="0" to-layer="1576" to-port="1" />
		<edge from-layer="1576" from-port="2" to-layer="1577" to-port="1" />
		<edge from-layer="1577" from-port="2" to-layer="1578" to-port="1" />
		<edge from-layer="1578" from-port="2" to-layer="1583" to-port="0" />
		<edge from-layer="1579" from-port="0" to-layer="1583" to-port="1" />
		<edge from-layer="1580" from-port="0" to-layer="1583" to-port="2" />
		<edge from-layer="1581" from-port="0" to-layer="1583" to-port="3" />
		<edge from-layer="1582" from-port="0" to-layer="1583" to-port="4" />
		<edge from-layer="1583" from-port="5" to-layer="1584" to-port="0" />
		<edge from-layer="1583" from-port="5" to-layer="1593" to-port="0" />
		<edge from-layer="1584" from-port="1" to-layer="1587" to-port="0" />
		<edge from-layer="1585" from-port="0" to-layer="1587" to-port="1" />
		<edge from-layer="1586" from-port="0" to-layer="1587" to-port="2" />
		<edge from-layer="1587" from-port="3" to-layer="1590" to-port="0" />
		<edge from-layer="1588" from-port="0" to-layer="1590" to-port="1" />
		<edge from-layer="1589" from-port="0" to-layer="1590" to-port="2" />
		<edge from-layer="1590" from-port="3" to-layer="1592" to-port="0" />
		<edge from-layer="1591" from-port="0" to-layer="1592" to-port="1" />
		<edge from-layer="1592" from-port="2" to-layer="1593" to-port="1" />
		<edge from-layer="1593" from-port="2" to-layer="1595" to-port="0" />
		<edge from-layer="1594" from-port="0" to-layer="1595" to-port="1" />
		<edge from-layer="1595" from-port="2" to-layer="1597" to-port="0" />
		<edge from-layer="1596" from-port="0" to-layer="1597" to-port="1" />
		<edge from-layer="1597" from-port="2" to-layer="1598" to-port="1" />
		<edge from-layer="1598" from-port="2" to-layer="1599" to-port="0" />
		<edge from-layer="1599" from-port="2" to-layer="1600" to-port="0" />
		<edge from-layer="1600" from-port="1" to-layer="1617" to-port="0" />
		<edge from-layer="1601" from-port="0" to-layer="1612" to-port="0" />
		<edge from-layer="1602" from-port="0" to-layer="1606" to-port="1" />
		<edge from-layer="1603" from-port="0" to-layer="1606" to-port="2" />
		<edge from-layer="1604" from-port="0" to-layer="1606" to-port="3" />
		<edge from-layer="1605" from-port="0" to-layer="1606" to-port="4" />
		<edge from-layer="1606" from-port="5" to-layer="1611" to-port="0" />
		<edge from-layer="1607" from-port="0" to-layer="1608" to-port="0" />
		<edge from-layer="1608" from-port="1" to-layer="1610" to-port="0" />
		<edge from-layer="1609" from-port="0" to-layer="1610" to-port="1" />
		<edge from-layer="1610" from-port="2" to-layer="1611" to-port="1" />
		<edge from-layer="1611" from-port="2" to-layer="1612" to-port="1" />
		<edge from-layer="1612" from-port="2" to-layer="1614" to-port="0" />
		<edge from-layer="1613" from-port="0" to-layer="1614" to-port="1" />
		<edge from-layer="1614" from-port="2" to-layer="1616" to-port="0" />
		<edge from-layer="1615" from-port="0" to-layer="1616" to-port="1" />
		<edge from-layer="1616" from-port="2" to-layer="1617" to-port="1" />
		<edge from-layer="1617" from-port="2" to-layer="1622" to-port="0" />
		<edge from-layer="1618" from-port="0" to-layer="1622" to-port="1" />
		<edge from-layer="1619" from-port="0" to-layer="1622" to-port="2" />
		<edge from-layer="1620" from-port="0" to-layer="1622" to-port="3" />
		<edge from-layer="1621" from-port="0" to-layer="1622" to-port="4" />
		<edge from-layer="1622" from-port="5" to-layer="1624" to-port="0" />
		<edge from-layer="1623" from-port="0" to-layer="1624" to-port="1" />
		<edge from-layer="1624" from-port="2" to-layer="1626" to-port="0" />
		<edge from-layer="1625" from-port="0" to-layer="1626" to-port="1" />
		<edge from-layer="1626" from-port="2" to-layer="1631" to-port="0" />
		<edge from-layer="1627" from-port="0" to-layer="1628" to-port="0" />
		<edge from-layer="1628" from-port="1" to-layer="1630" to-port="0" />
		<edge from-layer="1629" from-port="0" to-layer="1630" to-port="1" />
		<edge from-layer="1630" from-port="2" to-layer="1631" to-port="1" />
		<edge from-layer="1631" from-port="2" to-layer="1632" to-port="1" />
		<edge from-layer="1632" from-port="2" to-layer="1633" to-port="0" />
		<edge from-layer="1633" from-port="2" to-layer="1635" to-port="0" />
		<edge from-layer="1634" from-port="0" to-layer="1635" to-port="1" />
		<edge from-layer="1635" from-port="2" to-layer="1637" to-port="0" />
		<edge from-layer="1636" from-port="0" to-layer="1637" to-port="1" />
		<edge from-layer="1637" from-port="2" to-layer="1639" to-port="0" />
		<edge from-layer="1638" from-port="0" to-layer="1639" to-port="1" />
		<edge from-layer="1639" from-port="2" to-layer="1663" to-port="1" />
		<edge from-layer="1639" from-port="2" to-layer="1644" to-port="0" />
		<edge from-layer="1640" from-port="0" to-layer="1644" to-port="1" />
		<edge from-layer="1641" from-port="0" to-layer="1644" to-port="2" />
		<edge from-layer="1642" from-port="0" to-layer="1644" to-port="3" />
		<edge from-layer="1643" from-port="0" to-layer="1644" to-port="4" />
		<edge from-layer="1644" from-port="5" to-layer="1649" to-port="0" />
		<edge from-layer="1645" from-port="0" to-layer="1646" to-port="0" />
		<edge from-layer="1646" from-port="1" to-layer="1648" to-port="0" />
		<edge from-layer="1647" from-port="0" to-layer="1648" to-port="1" />
		<edge from-layer="1648" from-port="2" to-layer="1649" to-port="1" />
		<edge from-layer="1649" from-port="2" to-layer="1650" to-port="1" />
		<edge from-layer="1650" from-port="2" to-layer="1651" to-port="0" />
		<edge from-layer="1651" from-port="1" to-layer="1656" to-port="0" />
		<edge from-layer="1652" from-port="0" to-layer="1656" to-port="1" />
		<edge from-layer="1653" from-port="0" to-layer="1656" to-port="2" />
		<edge from-layer="1654" from-port="0" to-layer="1656" to-port="3" />
		<edge from-layer="1655" from-port="0" to-layer="1656" to-port="4" />
		<edge from-layer="1656" from-port="5" to-layer="1661" to-port="0" />
		<edge from-layer="1657" from-port="0" to-layer="1658" to-port="0" />
		<edge from-layer="1658" from-port="1" to-layer="1660" to-port="0" />
		<edge from-layer="1659" from-port="0" to-layer="1660" to-port="1" />
		<edge from-layer="1660" from-port="2" to-layer="1661" to-port="1" />
		<edge from-layer="1661" from-port="2" to-layer="1662" to-port="1" />
		<edge from-layer="1662" from-port="2" to-layer="1663" to-port="0" />
		<edge from-layer="1663" from-port="2" to-layer="1665" to-port="0" />
		<edge from-layer="1664" from-port="0" to-layer="1665" to-port="1" />
		<edge from-layer="1665" from-port="2" to-layer="1667" to-port="0" />
		<edge from-layer="1666" from-port="0" to-layer="1667" to-port="1" />
		<edge from-layer="1667" from-port="2" to-layer="1669" to-port="0" />
		<edge from-layer="1668" from-port="0" to-layer="1669" to-port="1" />
		<edge from-layer="1669" from-port="2" to-layer="1674" to-port="0" />
		<edge from-layer="1670" from-port="0" to-layer="1674" to-port="1" />
		<edge from-layer="1671" from-port="0" to-layer="1674" to-port="2" />
		<edge from-layer="1672" from-port="0" to-layer="1674" to-port="3" />
		<edge from-layer="1673" from-port="0" to-layer="1674" to-port="4" />
		<edge from-layer="1674" from-port="5" to-layer="1679" to-port="0" />
		<edge from-layer="1675" from-port="0" to-layer="1676" to-port="0" />
		<edge from-layer="1676" from-port="1" to-layer="1678" to-port="0" />
		<edge from-layer="1677" from-port="0" to-layer="1678" to-port="1" />
		<edge from-layer="1678" from-port="2" to-layer="1679" to-port="1" />
		<edge from-layer="1679" from-port="2" to-layer="1680" to-port="1" />
		<edge from-layer="1680" from-port="2" to-layer="1683" to-port="0" />
		<edge from-layer="1681" from-port="0" to-layer="1683" to-port="1" />
		<edge from-layer="1682" from-port="0" to-layer="1683" to-port="2" />
		<edge from-layer="1683" from-port="4" to-layer="1684" to-port="0" />
		<edge from-layer="1683" from-port="4" to-layer="1690" to-port="1" />
		<edge from-layer="1683" from-port="4" to-layer="1690" to-port="2" />
		<edge from-layer="1683" from-port="3" to-layer="1692" to-port="0" />
		<edge from-layer="1683" from-port="3" to-layer="1698" to-port="2" />
		<edge from-layer="1683" from-port="3" to-layer="1698" to-port="1" />
		<edge from-layer="1684" from-port="1" to-layer="1687" to-port="0" />
		<edge from-layer="1685" from-port="0" to-layer="1687" to-port="1" />
		<edge from-layer="1686" from-port="0" to-layer="1687" to-port="2" />
		<edge from-layer="1687" from-port="3" to-layer="1689" to-port="0" />
		<edge from-layer="1688" from-port="0" to-layer="1689" to-port="1" />
		<edge from-layer="1689" from-port="2" to-layer="1690" to-port="0" />
		<edge from-layer="1690" from-port="3" to-layer="1691" to-port="0" />
		<edge from-layer="1692" from-port="1" to-layer="1695" to-port="0" />
		<edge from-layer="1693" from-port="0" to-layer="1695" to-port="1" />
		<edge from-layer="1694" from-port="0" to-layer="1695" to-port="2" />
		<edge from-layer="1695" from-port="3" to-layer="1697" to-port="0" />
		<edge from-layer="1696" from-port="0" to-layer="1697" to-port="1" />
		<edge from-layer="1697" from-port="2" to-layer="1698" to-port="0" />
		<edge from-layer="1698" from-port="3" to-layer="1699" to-port="0" />
	</edges>
	<rt_info>
		<MO_version value="2022.3.0-9052-9752fafe8eb-releases/2022/3" />
		<Runtime_version value="2022.3.0-9052-9752fafe8eb-releases/2022/3" />
		<conversion_parameters>
			<framework value="onnx" />
			<input_model value="DIR/model.onnx" />
			<model_name value="openvino_model" />
			<output_dir value="DIR" />
			<transform value="Pruning" />
		</conversion_parameters>
		<legacy_frontend value="False" />
	</rt_info>
</net>
