<?xml version="1.0"?>
<net name="torch_jit" version="11">
	<layers>
		<layer id="2" name="input_ids" type="Parameter" version="opset1">
			<data shape="1,384" element_type="i64" />
			<rt_info>
				<attribute name="old_api_map_element_type" version="0" value="i32" />
			</rt_info>
			<output>
				<port id="0" precision="I64" names="input_ids">
					<dim>1</dim>
					<dim>384</dim>
				</port>
			</output>
		</layer>
		<layer id="1" name="attention_mask" type="Parameter" version="opset1">
			<data shape="1,384" element_type="i64" />
			<rt_info>
				<attribute name="old_api_map_element_type" version="0" value="i32" />
			</rt_info>
			<output>
				<port id="0" precision="I64" names="attention_mask">
					<dim>1</dim>
					<dim>384</dim>
				</port>
			</output>
		</layer>
		<layer id="0" name="token_type_ids" type="Parameter" version="opset1">
			<data shape="1,384" element_type="i64" />
			<rt_info>
				<attribute name="old_api_map_element_type" version="0" value="i32" />
			</rt_info>
			<output>
				<port id="0" precision="I64" names="token_type_ids">
					<dim>1</dim>
					<dim>384</dim>
				</port>
			</output>
		</layer>
		<layer id="3" name="Constant_43465" type="Const" version="opset1">
			<data element_type="f32" shape="1, 1, 2" offset="0" size="8" />
			<output>
				<port id="0" precision="FP32">
					<dim>1</dim>
					<dim>1</dim>
					<dim>2</dim>
				</port>
			</output>
		</layer>
		<layer id="4" name="Constant_43458" type="Const" version="opset1">
			<data element_type="f32" shape="1, 1, 1024" offset="8" size="4096" />
			<output>
				<port id="0" precision="FP32">
					<dim>1</dim>
					<dim>1</dim>
					<dim>1024</dim>
				</port>
			</output>
		</layer>
		<layer id="5" name="Constant_73178" type="Const" version="opset1">
			<data element_type="f32" shape="1, 1, 167" offset="4104" size="668" />
			<output>
				<port id="0" precision="FP32">
					<dim>1</dim>
					<dim>1</dim>
					<dim>167</dim>
				</port>
			</output>
		</layer>
		<layer id="6" name="Constant_43446" type="Const" version="opset1">
			<data element_type="f32" shape="1, 1, 1024" offset="4772" size="4096" />
			<output>
				<port id="0" precision="FP32">
					<dim>1</dim>
					<dim>1</dim>
					<dim>1024</dim>
				</port>
			</output>
		</layer>
		<layer id="7" name="Constant_73185" type="Const" version="opset1">
			<data element_type="f32" shape="1, 1, 128" offset="8868" size="512" />
			<output>
				<port id="0" precision="FP32">
					<dim>1</dim>
					<dim>1</dim>
					<dim>128</dim>
				</port>
			</output>
		</layer>
		<layer id="8" name="Constant_43415" type="Const" version="opset1">
			<data element_type="f32" shape="1, 1, 1024" offset="9380" size="4096" />
			<output>
				<port id="0" precision="FP32">
					<dim>1</dim>
					<dim>1</dim>
					<dim>1024</dim>
				</port>
			</output>
		</layer>
		<layer id="9" name="Constant_73192" type="Const" version="opset1">
			<data element_type="f32" shape="1, 1, 132" offset="13476" size="528" />
			<output>
				<port id="0" precision="FP32">
					<dim>1</dim>
					<dim>1</dim>
					<dim>132</dim>
				</port>
			</output>
		</layer>
		<layer id="10" name="Constant_43403" type="Const" version="opset1">
			<data element_type="f32" shape="1, 1, 1024" offset="14004" size="4096" />
			<output>
				<port id="0" precision="FP32">
					<dim>1</dim>
					<dim>1</dim>
					<dim>1024</dim>
				</port>
			</output>
		</layer>
		<layer id="11" name="Constant_73199" type="Const" version="opset1">
			<data element_type="f32" shape="1, 1, 128" offset="18100" size="512" />
			<output>
				<port id="0" precision="FP32">
					<dim>1</dim>
					<dim>1</dim>
					<dim>128</dim>
				</port>
			</output>
		</layer>
		<layer id="12" name="Constant_43372" type="Const" version="opset1">
			<data element_type="f32" shape="1, 1, 1024" offset="18612" size="4096" />
			<output>
				<port id="0" precision="FP32">
					<dim>1</dim>
					<dim>1</dim>
					<dim>1024</dim>
				</port>
			</output>
		</layer>
		<layer id="13" name="Constant_73206" type="Const" version="opset1">
			<data element_type="f32" shape="1, 1, 142" offset="22708" size="568" />
			<output>
				<port id="0" precision="FP32">
					<dim>1</dim>
					<dim>1</dim>
					<dim>142</dim>
				</port>
			</output>
		</layer>
		<layer id="14" name="Constant_43360" type="Const" version="opset1">
			<data element_type="f32" shape="1, 1, 1024" offset="23276" size="4096" />
			<output>
				<port id="0" precision="FP32">
					<dim>1</dim>
					<dim>1</dim>
					<dim>1024</dim>
				</port>
			</output>
		</layer>
		<layer id="15" name="Constant_73213" type="Const" version="opset1">
			<data element_type="f32" shape="1, 1, 320" offset="27372" size="1280" />
			<output>
				<port id="0" precision="FP32">
					<dim>1</dim>
					<dim>1</dim>
					<dim>320</dim>
				</port>
			</output>
		</layer>
		<layer id="16" name="Constant_43329" type="Const" version="opset1">
			<data element_type="f32" shape="1, 1, 1024" offset="28652" size="4096" />
			<output>
				<port id="0" precision="FP32">
					<dim>1</dim>
					<dim>1</dim>
					<dim>1024</dim>
				</port>
			</output>
		</layer>
		<layer id="17" name="Constant_73220" type="Const" version="opset1">
			<data element_type="f32" shape="1, 1, 152" offset="32748" size="608" />
			<output>
				<port id="0" precision="FP32">
					<dim>1</dim>
					<dim>1</dim>
					<dim>152</dim>
				</port>
			</output>
		</layer>
		<layer id="18" name="Constant_43317" type="Const" version="opset1">
			<data element_type="f32" shape="1, 1, 1024" offset="33356" size="4096" />
			<output>
				<port id="0" precision="FP32">
					<dim>1</dim>
					<dim>1</dim>
					<dim>1024</dim>
				</port>
			</output>
		</layer>
		<layer id="19" name="Constant_73227" type="Const" version="opset1">
			<data element_type="f32" shape="1, 1, 256" offset="37452" size="1024" />
			<output>
				<port id="0" precision="FP32">
					<dim>1</dim>
					<dim>1</dim>
					<dim>256</dim>
				</port>
			</output>
		</layer>
		<layer id="20" name="Constant_43286" type="Const" version="opset1">
			<data element_type="f32" shape="1, 1, 1024" offset="38476" size="4096" />
			<output>
				<port id="0" precision="FP32">
					<dim>1</dim>
					<dim>1</dim>
					<dim>1024</dim>
				</port>
			</output>
		</layer>
		<layer id="21" name="Constant_73234" type="Const" version="opset1">
			<data element_type="f32" shape="1, 1, 273" offset="42572" size="1092" />
			<output>
				<port id="0" precision="FP32">
					<dim>1</dim>
					<dim>1</dim>
					<dim>273</dim>
				</port>
			</output>
		</layer>
		<layer id="22" name="Constant_43274" type="Const" version="opset1">
			<data element_type="f32" shape="1, 1, 1024" offset="43664" size="4096" />
			<output>
				<port id="0" precision="FP32">
					<dim>1</dim>
					<dim>1</dim>
					<dim>1024</dim>
				</port>
			</output>
		</layer>
		<layer id="23" name="Constant_73241" type="Const" version="opset1">
			<data element_type="f32" shape="1, 1, 256" offset="47760" size="1024" />
			<output>
				<port id="0" precision="FP32">
					<dim>1</dim>
					<dim>1</dim>
					<dim>256</dim>
				</port>
			</output>
		</layer>
		<layer id="24" name="Constant_43243" type="Const" version="opset1">
			<data element_type="f32" shape="1, 1, 1024" offset="48784" size="4096" />
			<output>
				<port id="0" precision="FP32">
					<dim>1</dim>
					<dim>1</dim>
					<dim>1024</dim>
				</port>
			</output>
		</layer>
		<layer id="25" name="Constant_73248" type="Const" version="opset1">
			<data element_type="f32" shape="1, 1, 393" offset="52880" size="1572" />
			<output>
				<port id="0" precision="FP32">
					<dim>1</dim>
					<dim>1</dim>
					<dim>393</dim>
				</port>
			</output>
		</layer>
		<layer id="26" name="Constant_43231" type="Const" version="opset1">
			<data element_type="f32" shape="1, 1, 1024" offset="54452" size="4096" />
			<output>
				<port id="0" precision="FP32">
					<dim>1</dim>
					<dim>1</dim>
					<dim>1024</dim>
				</port>
			</output>
		</layer>
		<layer id="27" name="Constant_73255" type="Const" version="opset1">
			<data element_type="f32" shape="1, 1, 256" offset="58548" size="1024" />
			<output>
				<port id="0" precision="FP32">
					<dim>1</dim>
					<dim>1</dim>
					<dim>256</dim>
				</port>
			</output>
		</layer>
		<layer id="28" name="Constant_43200" type="Const" version="opset1">
			<data element_type="f32" shape="1, 1, 1024" offset="59572" size="4096" />
			<output>
				<port id="0" precision="FP32">
					<dim>1</dim>
					<dim>1</dim>
					<dim>1024</dim>
				</port>
			</output>
		</layer>
		<layer id="29" name="Constant_73262" type="Const" version="opset1">
			<data element_type="f32" shape="1, 1, 540" offset="63668" size="2160" />
			<output>
				<port id="0" precision="FP32">
					<dim>1</dim>
					<dim>1</dim>
					<dim>540</dim>
				</port>
			</output>
		</layer>
		<layer id="30" name="Constant_43188" type="Const" version="opset1">
			<data element_type="f32" shape="1, 1, 1024" offset="65828" size="4096" />
			<output>
				<port id="0" precision="FP32">
					<dim>1</dim>
					<dim>1</dim>
					<dim>1024</dim>
				</port>
			</output>
		</layer>
		<layer id="31" name="Constant_73269" type="Const" version="opset1">
			<data element_type="f32" shape="1, 1, 384" offset="69924" size="1536" />
			<output>
				<port id="0" precision="FP32">
					<dim>1</dim>
					<dim>1</dim>
					<dim>384</dim>
				</port>
			</output>
		</layer>
		<layer id="32" name="Constant_43157" type="Const" version="opset1">
			<data element_type="f32" shape="1, 1, 1024" offset="71460" size="4096" />
			<output>
				<port id="0" precision="FP32">
					<dim>1</dim>
					<dim>1</dim>
					<dim>1024</dim>
				</port>
			</output>
		</layer>
		<layer id="33" name="Constant_73276" type="Const" version="opset1">
			<data element_type="f32" shape="1, 1, 531" offset="75556" size="2124" />
			<output>
				<port id="0" precision="FP32">
					<dim>1</dim>
					<dim>1</dim>
					<dim>531</dim>
				</port>
			</output>
		</layer>
		<layer id="34" name="Constant_43145" type="Const" version="opset1">
			<data element_type="f32" shape="1, 1, 1024" offset="77680" size="4096" />
			<output>
				<port id="0" precision="FP32">
					<dim>1</dim>
					<dim>1</dim>
					<dim>1024</dim>
				</port>
			</output>
		</layer>
		<layer id="35" name="Constant_73283" type="Const" version="opset1">
			<data element_type="f32" shape="1, 1, 320" offset="81776" size="1280" />
			<output>
				<port id="0" precision="FP32">
					<dim>1</dim>
					<dim>1</dim>
					<dim>320</dim>
				</port>
			</output>
		</layer>
		<layer id="36" name="Constant_43114" type="Const" version="opset1">
			<data element_type="f32" shape="1, 1, 1024" offset="83056" size="4096" />
			<output>
				<port id="0" precision="FP32">
					<dim>1</dim>
					<dim>1</dim>
					<dim>1024</dim>
				</port>
			</output>
		</layer>
		<layer id="37" name="Constant_73290" type="Const" version="opset1">
			<data element_type="f32" shape="1, 1, 542" offset="87152" size="2168" />
			<output>
				<port id="0" precision="FP32">
					<dim>1</dim>
					<dim>1</dim>
					<dim>542</dim>
				</port>
			</output>
		</layer>
		<layer id="38" name="Constant_43102" type="Const" version="opset1">
			<data element_type="f32" shape="1, 1, 1024" offset="89320" size="4096" />
			<output>
				<port id="0" precision="FP32">
					<dim>1</dim>
					<dim>1</dim>
					<dim>1024</dim>
				</port>
			</output>
		</layer>
		<layer id="39" name="Constant_73297" type="Const" version="opset1">
			<data element_type="f32" shape="1, 1, 384" offset="93416" size="1536" />
			<output>
				<port id="0" precision="FP32">
					<dim>1</dim>
					<dim>1</dim>
					<dim>384</dim>
				</port>
			</output>
		</layer>
		<layer id="40" name="Constant_43071" type="Const" version="opset1">
			<data element_type="f32" shape="1, 1, 1024" offset="94952" size="4096" />
			<output>
				<port id="0" precision="FP32">
					<dim>1</dim>
					<dim>1</dim>
					<dim>1024</dim>
				</port>
			</output>
		</layer>
		<layer id="41" name="Constant_73304" type="Const" version="opset1">
			<data element_type="f32" shape="1, 1, 520" offset="99048" size="2080" />
			<output>
				<port id="0" precision="FP32">
					<dim>1</dim>
					<dim>1</dim>
					<dim>520</dim>
				</port>
			</output>
		</layer>
		<layer id="42" name="Constant_43059" type="Const" version="opset1">
			<data element_type="f32" shape="1, 1, 1024" offset="101128" size="4096" />
			<output>
				<port id="0" precision="FP32">
					<dim>1</dim>
					<dim>1</dim>
					<dim>1024</dim>
				</port>
			</output>
		</layer>
		<layer id="43" name="Constant_73311" type="Const" version="opset1">
			<data element_type="f32" shape="1, 1, 448" offset="105224" size="1792" />
			<output>
				<port id="0" precision="FP32">
					<dim>1</dim>
					<dim>1</dim>
					<dim>448</dim>
				</port>
			</output>
		</layer>
		<layer id="44" name="Constant_43028" type="Const" version="opset1">
			<data element_type="f32" shape="1, 1, 1024" offset="107016" size="4096" />
			<output>
				<port id="0" precision="FP32">
					<dim>1</dim>
					<dim>1</dim>
					<dim>1024</dim>
				</port>
			</output>
		</layer>
		<layer id="45" name="Constant_73318" type="Const" version="opset1">
			<data element_type="f32" shape="1, 1, 705" offset="111112" size="2820" />
			<output>
				<port id="0" precision="FP32">
					<dim>1</dim>
					<dim>1</dim>
					<dim>705</dim>
				</port>
			</output>
		</layer>
		<layer id="46" name="Constant_43016" type="Const" version="opset1">
			<data element_type="f32" shape="1, 1, 1024" offset="113932" size="4096" />
			<output>
				<port id="0" precision="FP32">
					<dim>1</dim>
					<dim>1</dim>
					<dim>1024</dim>
				</port>
			</output>
		</layer>
		<layer id="47" name="Constant_73325" type="Const" version="opset1">
			<data element_type="f32" shape="1, 1, 384" offset="118028" size="1536" />
			<output>
				<port id="0" precision="FP32">
					<dim>1</dim>
					<dim>1</dim>
					<dim>384</dim>
				</port>
			</output>
		</layer>
		<layer id="48" name="Constant_42985" type="Const" version="opset1">
			<data element_type="f32" shape="1, 1, 1024" offset="119564" size="4096" />
			<output>
				<port id="0" precision="FP32">
					<dim>1</dim>
					<dim>1</dim>
					<dim>1024</dim>
				</port>
			</output>
		</layer>
		<layer id="49" name="Constant_73332" type="Const" version="opset1">
			<data element_type="f32" shape="1, 1, 746" offset="123660" size="2984" />
			<output>
				<port id="0" precision="FP32">
					<dim>1</dim>
					<dim>1</dim>
					<dim>746</dim>
				</port>
			</output>
		</layer>
		<layer id="50" name="Constant_42973" type="Const" version="opset1">
			<data element_type="f32" shape="1, 1, 1024" offset="126644" size="4096" />
			<output>
				<port id="0" precision="FP32">
					<dim>1</dim>
					<dim>1</dim>
					<dim>1024</dim>
				</port>
			</output>
		</layer>
		<layer id="51" name="Constant_73339" type="Const" version="opset1">
			<data element_type="f32" shape="1, 1, 384" offset="130740" size="1536" />
			<output>
				<port id="0" precision="FP32">
					<dim>1</dim>
					<dim>1</dim>
					<dim>384</dim>
				</port>
			</output>
		</layer>
		<layer id="52" name="Constant_42942" type="Const" version="opset1">
			<data element_type="f32" shape="1, 1, 1024" offset="132276" size="4096" />
			<output>
				<port id="0" precision="FP32">
					<dim>1</dim>
					<dim>1</dim>
					<dim>1024</dim>
				</port>
			</output>
		</layer>
		<layer id="53" name="Constant_73346" type="Const" version="opset1">
			<data element_type="f32" shape="1, 1, 803" offset="136372" size="3212" />
			<output>
				<port id="0" precision="FP32">
					<dim>1</dim>
					<dim>1</dim>
					<dim>803</dim>
				</port>
			</output>
		</layer>
		<layer id="54" name="Constant_42930" type="Const" version="opset1">
			<data element_type="f32" shape="1, 1, 1024" offset="139584" size="4096" />
			<output>
				<port id="0" precision="FP32">
					<dim>1</dim>
					<dim>1</dim>
					<dim>1024</dim>
				</port>
			</output>
		</layer>
		<layer id="55" name="Constant_73353" type="Const" version="opset1">
			<data element_type="f32" shape="1, 1, 256" offset="143680" size="1024" />
			<output>
				<port id="0" precision="FP32">
					<dim>1</dim>
					<dim>1</dim>
					<dim>256</dim>
				</port>
			</output>
		</layer>
		<layer id="56" name="Constant_42899" type="Const" version="opset1">
			<data element_type="f32" shape="1, 1, 1024" offset="144704" size="4096" />
			<output>
				<port id="0" precision="FP32">
					<dim>1</dim>
					<dim>1</dim>
					<dim>1024</dim>
				</port>
			</output>
		</layer>
		<layer id="57" name="Constant_73360" type="Const" version="opset1">
			<data element_type="f32" shape="1, 1, 853" offset="148800" size="3412" />
			<output>
				<port id="0" precision="FP32">
					<dim>1</dim>
					<dim>1</dim>
					<dim>853</dim>
				</port>
			</output>
		</layer>
		<layer id="58" name="Constant_42887" type="Const" version="opset1">
			<data element_type="f32" shape="1, 1, 1024" offset="152212" size="4096" />
			<output>
				<port id="0" precision="FP32">
					<dim>1</dim>
					<dim>1</dim>
					<dim>1024</dim>
				</port>
			</output>
		</layer>
		<layer id="59" name="Constant_73367" type="Const" version="opset1">
			<data element_type="f32" shape="1, 1, 192" offset="156308" size="768" />
			<output>
				<port id="0" precision="FP32">
					<dim>1</dim>
					<dim>1</dim>
					<dim>192</dim>
				</port>
			</output>
		</layer>
		<layer id="60" name="Constant_42856" type="Const" version="opset1">
			<data element_type="f32" shape="1, 1, 1024" offset="157076" size="4096" />
			<output>
				<port id="0" precision="FP32">
					<dim>1</dim>
					<dim>1</dim>
					<dim>1024</dim>
				</port>
			</output>
		</layer>
		<layer id="61" name="Constant_73374" type="Const" version="opset1">
			<data element_type="f32" shape="1, 1, 914" offset="161172" size="3656" />
			<output>
				<port id="0" precision="FP32">
					<dim>1</dim>
					<dim>1</dim>
					<dim>914</dim>
				</port>
			</output>
		</layer>
		<layer id="62" name="Constant_42844" type="Const" version="opset1">
			<data element_type="f32" shape="1, 1, 1024" offset="164828" size="4096" />
			<output>
				<port id="0" precision="FP32">
					<dim>1</dim>
					<dim>1</dim>
					<dim>1024</dim>
				</port>
			</output>
		</layer>
		<layer id="63" name="Constant_73381" type="Const" version="opset1">
			<data element_type="f32" shape="1, 1, 64" offset="168924" size="256" />
			<output>
				<port id="0" precision="FP32">
					<dim>1</dim>
					<dim>1</dim>
					<dim>64</dim>
				</port>
			</output>
		</layer>
		<layer id="64" name="Constant_42813" type="Const" version="opset1">
			<data element_type="f32" shape="1, 1, 1024" offset="169180" size="4096" />
			<output>
				<port id="0" precision="FP32">
					<dim>1</dim>
					<dim>1</dim>
					<dim>1024</dim>
				</port>
			</output>
		</layer>
		<layer id="65" name="Constant_73388" type="Const" version="opset1">
			<data element_type="f32" shape="1, 1, 877" offset="173276" size="3508" />
			<output>
				<port id="0" precision="FP32">
					<dim>1</dim>
					<dim>1</dim>
					<dim>877</dim>
				</port>
			</output>
		</layer>
		<layer id="66" name="Constant_42801" type="Const" version="opset1">
			<data element_type="f32" shape="1, 1, 1024" offset="176784" size="4096" />
			<output>
				<port id="0" precision="FP32">
					<dim>1</dim>
					<dim>1</dim>
					<dim>1024</dim>
				</port>
			</output>
		</layer>
		<layer id="67" name="Constant_73395" type="Const" version="opset1">
			<data element_type="f32" shape="1, 1, 192" offset="180880" size="768" />
			<output>
				<port id="0" precision="FP32">
					<dim>1</dim>
					<dim>1</dim>
					<dim>192</dim>
				</port>
			</output>
		</layer>
		<layer id="68" name="Constant_42770" type="Const" version="opset1">
			<data element_type="f32" shape="1, 1, 1024" offset="181648" size="4096" />
			<output>
				<port id="0" precision="FP32">
					<dim>1</dim>
					<dim>1</dim>
					<dim>1024</dim>
				</port>
			</output>
		</layer>
		<layer id="69" name="Constant_73402" type="Const" version="opset1">
			<data element_type="f32" shape="1, 1, 974" offset="185744" size="3896" />
			<output>
				<port id="0" precision="FP32">
					<dim>1</dim>
					<dim>1</dim>
					<dim>974</dim>
				</port>
			</output>
		</layer>
		<layer id="70" name="Constant_42758" type="Const" version="opset1">
			<data element_type="f32" shape="1, 1, 1024" offset="189640" size="4096" />
			<output>
				<port id="0" precision="FP32">
					<dim>1</dim>
					<dim>1</dim>
					<dim>1024</dim>
				</port>
			</output>
		</layer>
		<layer id="71" name="Constant_73409" type="Const" version="opset1">
			<data element_type="f32" shape="1, 1, 320" offset="193736" size="1280" />
			<output>
				<port id="0" precision="FP32">
					<dim>1</dim>
					<dim>1</dim>
					<dim>320</dim>
				</port>
			</output>
		</layer>
		<layer id="72" name="Constant_42727" type="Const" version="opset1">
			<data element_type="f32" shape="1, 1, 1024" offset="195016" size="4096" />
			<output>
				<port id="0" precision="FP32">
					<dim>1</dim>
					<dim>1</dim>
					<dim>1024</dim>
				</port>
			</output>
		</layer>
		<layer id="73" name="Constant_73416" type="Const" version="opset1">
			<data element_type="f32" shape="1, 1, 982" offset="199112" size="3928" />
			<output>
				<port id="0" precision="FP32">
					<dim>1</dim>
					<dim>1</dim>
					<dim>982</dim>
				</port>
			</output>
		</layer>
		<layer id="74" name="Constant_42715" type="Const" version="opset1">
			<data element_type="f32" shape="1, 1, 1024" offset="203040" size="4096" />
			<output>
				<port id="0" precision="FP32">
					<dim>1</dim>
					<dim>1</dim>
					<dim>1024</dim>
				</port>
			</output>
		</layer>
		<layer id="75" name="Constant_73423" type="Const" version="opset1">
			<data element_type="f32" shape="1, 1, 320" offset="207136" size="1280" />
			<output>
				<port id="0" precision="FP32">
					<dim>1</dim>
					<dim>1</dim>
					<dim>320</dim>
				</port>
			</output>
		</layer>
		<layer id="76" name="Constant_42684" type="Const" version="opset1">
			<data element_type="f32" shape="1, 1, 1024" offset="208416" size="4096" />
			<output>
				<port id="0" precision="FP32">
					<dim>1</dim>
					<dim>1</dim>
					<dim>1024</dim>
				</port>
			</output>
		</layer>
		<layer id="77" name="Constant_73430" type="Const" version="opset1">
			<data element_type="f32" shape="1, 1, 955" offset="212512" size="3820" />
			<output>
				<port id="0" precision="FP32">
					<dim>1</dim>
					<dim>1</dim>
					<dim>955</dim>
				</port>
			</output>
		</layer>
		<layer id="78" name="Constant_42672" type="Const" version="opset1">
			<data element_type="f32" shape="1, 1, 1024" offset="216332" size="4096" />
			<output>
				<port id="0" precision="FP32">
					<dim>1</dim>
					<dim>1</dim>
					<dim>1024</dim>
				</port>
			</output>
		</layer>
		<layer id="79" name="Constant_73437" type="Const" version="opset1">
			<data element_type="f32" shape="1, 1, 64" offset="220428" size="256" />
			<output>
				<port id="0" precision="FP32">
					<dim>1</dim>
					<dim>1</dim>
					<dim>64</dim>
				</port>
			</output>
		</layer>
		<layer id="80" name="Constant_42641" type="Const" version="opset1">
			<data element_type="f32" shape="1, 1, 1024" offset="220684" size="4096" />
			<output>
				<port id="0" precision="FP32">
					<dim>1</dim>
					<dim>1</dim>
					<dim>1024</dim>
				</port>
			</output>
		</layer>
		<layer id="81" name="Constant_73444" type="Const" version="opset1">
			<data element_type="f32" shape="1, 1, 748" offset="224780" size="2992" />
			<output>
				<port id="0" precision="FP32">
					<dim>1</dim>
					<dim>1</dim>
					<dim>748</dim>
				</port>
			</output>
		</layer>
		<layer id="82" name="Constant_42629" type="Const" version="opset1">
			<data element_type="f32" shape="1, 1, 1024" offset="227772" size="4096" />
			<output>
				<port id="0" precision="FP32">
					<dim>1</dim>
					<dim>1</dim>
					<dim>1024</dim>
				</port>
			</output>
		</layer>
		<layer id="83" name="Constant_73451" type="Const" version="opset1">
			<data element_type="f32" shape="1, 1, 192" offset="231868" size="768" />
			<output>
				<port id="0" precision="FP32">
					<dim>1</dim>
					<dim>1</dim>
					<dim>192</dim>
				</port>
			</output>
		</layer>
		<layer id="84" name="Constant_42598" type="Const" version="opset1">
			<data element_type="f32" shape="1, 1, 1024" offset="232636" size="4096" />
			<output>
				<port id="0" precision="FP32">
					<dim>1</dim>
					<dim>1</dim>
					<dim>1024</dim>
				</port>
			</output>
		</layer>
		<layer id="85" name="Constant_73458" type="Const" version="opset1">
			<data element_type="f32" shape="1, 1, 660" offset="236732" size="2640" />
			<output>
				<port id="0" precision="FP32">
					<dim>1</dim>
					<dim>1</dim>
					<dim>660</dim>
				</port>
			</output>
		</layer>
		<layer id="86" name="Constant_42586" type="Const" version="opset1">
			<data element_type="f32" shape="1, 1, 1024" offset="239372" size="4096" />
			<output>
				<port id="0" precision="FP32">
					<dim>1</dim>
					<dim>1</dim>
					<dim>1024</dim>
				</port>
			</output>
		</layer>
		<layer id="87" name="Constant_73465" type="Const" version="opset1">
			<data element_type="f32" shape="1, 1, 128" offset="243468" size="512" />
			<output>
				<port id="0" precision="FP32">
					<dim>1</dim>
					<dim>1</dim>
					<dim>128</dim>
				</port>
			</output>
		</layer>
		<layer id="88" name="Constant_42555" type="Const" version="opset1">
			<data element_type="f32" shape="1, 1, 1024" offset="243980" size="4096" />
			<output>
				<port id="0" precision="FP32">
					<dim>1</dim>
					<dim>1</dim>
					<dim>1024</dim>
				</port>
			</output>
		</layer>
		<layer id="89" name="Constant_73472" type="Const" version="opset1">
			<data element_type="f32" shape="1, 1, 636" offset="248076" size="2544" />
			<output>
				<port id="0" precision="FP32">
					<dim>1</dim>
					<dim>1</dim>
					<dim>636</dim>
				</port>
			</output>
		</layer>
		<layer id="90" name="Constant_42543" type="Const" version="opset1">
			<data element_type="f32" shape="1, 1, 1024" offset="250620" size="4096" />
			<output>
				<port id="0" precision="FP32">
					<dim>1</dim>
					<dim>1</dim>
					<dim>1024</dim>
				</port>
			</output>
		</layer>
		<layer id="91" name="Constant_73479" type="Const" version="opset1">
			<data element_type="f32" shape="1, 1, 192" offset="254716" size="768" />
			<output>
				<port id="0" precision="FP32">
					<dim>1</dim>
					<dim>1</dim>
					<dim>192</dim>
				</port>
			</output>
		</layer>
		<layer id="92" name="Constant_42512" type="Const" version="opset1">
			<data element_type="f32" shape="1, 1, 1024" offset="255484" size="4096" />
			<output>
				<port id="0" precision="FP32">
					<dim>1</dim>
					<dim>1</dim>
					<dim>1024</dim>
				</port>
			</output>
		</layer>
		<layer id="93" name="Constant_73486" type="Const" version="opset1">
			<data element_type="f32" shape="1, 1, 521" offset="259580" size="2084" />
			<output>
				<port id="0" precision="FP32">
					<dim>1</dim>
					<dim>1</dim>
					<dim>521</dim>
				</port>
			</output>
		</layer>
		<layer id="94" name="Constant_42500" type="Const" version="opset1">
			<data element_type="f32" shape="1, 1, 1024" offset="261664" size="4096" />
			<output>
				<port id="0" precision="FP32">
					<dim>1</dim>
					<dim>1</dim>
					<dim>1024</dim>
				</port>
			</output>
		</layer>
		<layer id="95" name="Constant_73493" type="Const" version="opset1">
			<data element_type="f32" shape="1, 1, 192" offset="265760" size="768" />
			<output>
				<port id="0" precision="FP32">
					<dim>1</dim>
					<dim>1</dim>
					<dim>192</dim>
				</port>
			</output>
		</layer>
		<layer id="96" name="Constant_42469" type="Const" version="opset1">
			<data element_type="f32" shape="1, 1, 1024" offset="266528" size="4096" />
			<output>
				<port id="0" precision="FP32">
					<dim>1</dim>
					<dim>1</dim>
					<dim>1024</dim>
				</port>
			</output>
		</layer>
		<layer id="97" name="Constant_73500" type="Const" version="opset1">
			<data element_type="f32" shape="1, 1, 642" offset="270624" size="2568" />
			<output>
				<port id="0" precision="FP32">
					<dim>1</dim>
					<dim>1</dim>
					<dim>642</dim>
				</port>
			</output>
		</layer>
		<layer id="98" name="Constant_42457" type="Const" version="opset1">
			<data element_type="f32" shape="1, 1, 1024" offset="273192" size="4096" />
			<output>
				<port id="0" precision="FP32">
					<dim>1</dim>
					<dim>1</dim>
					<dim>1024</dim>
				</port>
			</output>
		</layer>
		<layer id="99" name="Constant_73507" type="Const" version="opset1">
			<data element_type="f32" shape="1, 1, 320" offset="277288" size="1280" />
			<output>
				<port id="0" precision="FP32">
					<dim>1</dim>
					<dim>1</dim>
					<dim>320</dim>
				</port>
			</output>
		</layer>
		<layer id="100" name="/nncf_module/bert/embeddings/word_embeddings/pre_ops.0/op/Constant" type="Const" version="opset1">
			<data element_type="i8" shape="30522, 1024" offset="278568" size="31254528" />
			<output>
				<port id="0" precision="I8">
					<dim>30522</dim>
					<dim>1024</dim>
				</port>
			</output>
		</layer>
		<layer id="101" name="Convert_45072" type="Convert" version="opset1">
			<data destination_type="f32" />
			<input>
				<port id="0" precision="I8">
					<dim>30522</dim>
					<dim>1024</dim>
				</port>
			</input>
			<output>
				<port id="1" precision="FP32">
					<dim>30522</dim>
					<dim>1024</dim>
				</port>
			</output>
		</layer>
		<layer id="102" name="Constant_44979" type="Const" version="opset1">
			<data element_type="f32" shape="1, 1" offset="31533096" size="4" />
			<output>
				<port id="0" precision="FP32">
					<dim>1</dim>
					<dim>1</dim>
				</port>
			</output>
		</layer>
		<layer id="103" name="/nncf_module/bert/embeddings/word_embeddings/pre_ops.0/op/FakeQuantize" type="Multiply" version="opset1">
			<data auto_broadcast="numpy" />
			<input>
				<port id="0" precision="FP32">
					<dim>30522</dim>
					<dim>1024</dim>
				</port>
				<port id="1" precision="FP32">
					<dim>1</dim>
					<dim>1</dim>
				</port>
			</input>
			<output>
				<port id="2" precision="FP32" names="/nncf_module/bert/embeddings/word_embeddings/pre_ops.0/op/FakeQuantize_output_0">
					<dim>30522</dim>
					<dim>1024</dim>
				</port>
			</output>
		</layer>
		<layer id="104" name="Constant_260" type="Const" version="opset1">
			<data element_type="i64" shape="" offset="31533100" size="8" />
			<output>
				<port id="0" precision="I64" />
			</output>
		</layer>
		<layer id="105" name="/nncf_module/bert/embeddings/word_embeddings/Gather" type="Gather" version="opset8">
			<data batch_dims="0" />
			<input>
				<port id="0" precision="FP32">
					<dim>30522</dim>
					<dim>1024</dim>
				</port>
				<port id="1" precision="I64">
					<dim>1</dim>
					<dim>384</dim>
				</port>
				<port id="2" precision="I64" />
			</input>
			<output>
				<port id="3" precision="FP32" names="/nncf_module/bert/embeddings/word_embeddings/Gather_output_0">
					<dim>1</dim>
					<dim>384</dim>
					<dim>1024</dim>
				</port>
			</output>
		</layer>
		<layer id="106" name="/nncf_module/bert/embeddings/token_type_embeddings/pre_ops.0/op/Constant" type="Const" version="opset1">
			<data element_type="i8" shape="2, 1024" offset="31533108" size="2048" />
			<output>
				<port id="0" precision="I8">
					<dim>2</dim>
					<dim>1024</dim>
				</port>
			</output>
		</layer>
		<layer id="107" name="Convert_45241" type="Convert" version="opset1">
			<data destination_type="f32" />
			<input>
				<port id="0" precision="I8">
					<dim>2</dim>
					<dim>1024</dim>
				</port>
			</input>
			<output>
				<port id="1" precision="FP32">
					<dim>2</dim>
					<dim>1024</dim>
				</port>
			</output>
		</layer>
		<layer id="108" name="Constant_45148" type="Const" version="opset1">
			<data element_type="f32" shape="1, 1" offset="31535156" size="4" />
			<output>
				<port id="0" precision="FP32">
					<dim>1</dim>
					<dim>1</dim>
				</port>
			</output>
		</layer>
		<layer id="109" name="/nncf_module/bert/embeddings/token_type_embeddings/pre_ops.0/op/FakeQuantize" type="Multiply" version="opset1">
			<data auto_broadcast="numpy" />
			<input>
				<port id="0" precision="FP32">
					<dim>2</dim>
					<dim>1024</dim>
				</port>
				<port id="1" precision="FP32">
					<dim>1</dim>
					<dim>1</dim>
				</port>
			</input>
			<output>
				<port id="2" precision="FP32" names="/nncf_module/bert/embeddings/token_type_embeddings/pre_ops.0/op/FakeQuantize_output_0">
					<dim>2</dim>
					<dim>1024</dim>
				</port>
			</output>
		</layer>
		<layer id="110" name="Constant_266" type="Const" version="opset1">
			<data element_type="i64" shape="" offset="31533100" size="8" />
			<output>
				<port id="0" precision="I64" />
			</output>
		</layer>
		<layer id="111" name="/nncf_module/bert/embeddings/token_type_embeddings/Gather" type="Gather" version="opset8">
			<data batch_dims="0" />
			<input>
				<port id="0" precision="FP32">
					<dim>2</dim>
					<dim>1024</dim>
				</port>
				<port id="1" precision="I64">
					<dim>1</dim>
					<dim>384</dim>
				</port>
				<port id="2" precision="I64" />
			</input>
			<output>
				<port id="3" precision="FP32" names="/nncf_module/bert/embeddings/token_type_embeddings/Gather_output_0">
					<dim>1</dim>
					<dim>384</dim>
					<dim>1024</dim>
				</port>
			</output>
		</layer>
		<layer id="112" name="/nncf_module/bert/embeddings/Add" type="Add" version="opset1">
			<data auto_broadcast="numpy" />
			<input>
				<port id="0" precision="FP32">
					<dim>1</dim>
					<dim>384</dim>
					<dim>1024</dim>
				</port>
				<port id="1" precision="FP32">
					<dim>1</dim>
					<dim>384</dim>
					<dim>1024</dim>
				</port>
			</input>
			<output>
				<port id="2" precision="FP32" names="/nncf_module/bert/embeddings/Add_output_0">
					<dim>1</dim>
					<dim>384</dim>
					<dim>1024</dim>
				</port>
			</output>
		</layer>
		<layer id="113" name="Constant_42413" type="Const" version="opset1">
			<data element_type="f32" shape="1, 1, 1" offset="31535160" size="4" />
			<output>
				<port id="0" precision="FP32">
					<dim>1</dim>
					<dim>1</dim>
					<dim>1</dim>
				</port>
			</output>
		</layer>
		<layer id="114" name="Constant_42414" type="Const" version="opset1">
			<data element_type="f32" shape="1, 1, 1" offset="31535164" size="4" />
			<output>
				<port id="0" precision="FP32">
					<dim>1</dim>
					<dim>1</dim>
					<dim>1</dim>
				</port>
			</output>
		</layer>
		<layer id="115" name="Constant_42415" type="Const" version="opset1">
			<data element_type="f32" shape="1, 1, 1" offset="31535160" size="4" />
			<output>
				<port id="0" precision="FP32">
					<dim>1</dim>
					<dim>1</dim>
					<dim>1</dim>
				</port>
			</output>
		</layer>
		<layer id="116" name="Constant_42416" type="Const" version="opset1">
			<data element_type="f32" shape="1, 1, 1" offset="31535164" size="4" />
			<output>
				<port id="0" precision="FP32">
					<dim>1</dim>
					<dim>1</dim>
					<dim>1</dim>
				</port>
			</output>
		</layer>
		<layer id="117" name="/nncf_module/bert/embeddings/BertForQuestionAnswering/BertModel[bert]/BertEmbeddings[embeddings]/__add___0|OUTPUT/FakeQuantize" type="FakeQuantize" version="opset1">
			<data levels="256" auto_broadcast="numpy" />
			<input>
				<port id="0" precision="FP32">
					<dim>1</dim>
					<dim>384</dim>
					<dim>1024</dim>
				</port>
				<port id="1" precision="FP32">
					<dim>1</dim>
					<dim>1</dim>
					<dim>1</dim>
				</port>
				<port id="2" precision="FP32">
					<dim>1</dim>
					<dim>1</dim>
					<dim>1</dim>
				</port>
				<port id="3" precision="FP32">
					<dim>1</dim>
					<dim>1</dim>
					<dim>1</dim>
				</port>
				<port id="4" precision="FP32">
					<dim>1</dim>
					<dim>1</dim>
					<dim>1</dim>
				</port>
			</input>
			<output>
				<port id="5" precision="FP32" names="/nncf_module/bert/embeddings/BertForQuestionAnswering/BertModel[bert]/BertEmbeddings[embeddings]/__add___0|OUTPUT/FakeQuantize_output_0">
					<dim>1</dim>
					<dim>384</dim>
					<dim>1024</dim>
				</port>
			</output>
		</layer>
		<layer id="118" name="/nncf_module/bert/embeddings/position_embeddings/pre_ops.0/op/Constant" type="Const" version="opset1">
			<data element_type="i8" shape="512, 1024" offset="31535168" size="524288" />
			<output>
				<port id="0" precision="I8">
					<dim>512</dim>
					<dim>1024</dim>
				</port>
			</output>
		</layer>
		<layer id="119" name="Convert_45410" type="Convert" version="opset1">
			<data destination_type="f32" />
			<input>
				<port id="0" precision="I8">
					<dim>512</dim>
					<dim>1024</dim>
				</port>
			</input>
			<output>
				<port id="1" precision="FP32">
					<dim>512</dim>
					<dim>1024</dim>
				</port>
			</output>
		</layer>
		<layer id="120" name="Constant_45317" type="Const" version="opset1">
			<data element_type="f32" shape="1, 1" offset="32059456" size="4" />
			<output>
				<port id="0" precision="FP32">
					<dim>1</dim>
					<dim>1</dim>
				</port>
			</output>
		</layer>
		<layer id="121" name="/nncf_module/bert/embeddings/position_embeddings/pre_ops.0/op/FakeQuantize" type="Multiply" version="opset1">
			<data auto_broadcast="numpy" />
			<input>
				<port id="0" precision="FP32">
					<dim>512</dim>
					<dim>1024</dim>
				</port>
				<port id="1" precision="FP32">
					<dim>1</dim>
					<dim>1</dim>
				</port>
			</input>
			<output>
				<port id="2" precision="FP32" names="/nncf_module/bert/embeddings/position_embeddings/pre_ops.0/op/FakeQuantize_output_0">
					<dim>512</dim>
					<dim>1024</dim>
				</port>
			</output>
		</layer>
		<layer id="122" name="onnx::Gather_6649" type="Const" version="opset1">
			<data element_type="i64" shape="1, 384" offset="32059460" size="3072" />
			<output>
				<port id="0" precision="I64" names="onnx::Gather_6649">
					<dim>1</dim>
					<dim>384</dim>
				</port>
			</output>
		</layer>
		<layer id="123" name="Constant_276" type="Const" version="opset1">
			<data element_type="i64" shape="" offset="31533100" size="8" />
			<output>
				<port id="0" precision="I64" />
			</output>
		</layer>
		<layer id="124" name="/nncf_module/bert/embeddings/position_embeddings/Gather" type="Gather" version="opset8">
			<data batch_dims="0" />
			<input>
				<port id="0" precision="FP32">
					<dim>512</dim>
					<dim>1024</dim>
				</port>
				<port id="1" precision="I64">
					<dim>1</dim>
					<dim>384</dim>
				</port>
				<port id="2" precision="I64" />
			</input>
			<output>
				<port id="3" precision="FP32" names="/nncf_module/bert/embeddings/position_embeddings/Gather_output_0">
					<dim>1</dim>
					<dim>384</dim>
					<dim>1024</dim>
				</port>
			</output>
		</layer>
		<layer id="125" name="Constant_42421" type="Const" version="opset1">
			<data element_type="f32" shape="1, 1, 1" offset="32062532" size="4" />
			<output>
				<port id="0" precision="FP32">
					<dim>1</dim>
					<dim>1</dim>
					<dim>1</dim>
				</port>
			</output>
		</layer>
		<layer id="126" name="Constant_42422" type="Const" version="opset1">
			<data element_type="f32" shape="1, 1, 1" offset="32062536" size="4" />
			<output>
				<port id="0" precision="FP32">
					<dim>1</dim>
					<dim>1</dim>
					<dim>1</dim>
				</port>
			</output>
		</layer>
		<layer id="127" name="Constant_42423" type="Const" version="opset1">
			<data element_type="f32" shape="1, 1, 1" offset="32062532" size="4" />
			<output>
				<port id="0" precision="FP32">
					<dim>1</dim>
					<dim>1</dim>
					<dim>1</dim>
				</port>
			</output>
		</layer>
		<layer id="128" name="Constant_42424" type="Const" version="opset1">
			<data element_type="f32" shape="1, 1, 1" offset="32062536" size="4" />
			<output>
				<port id="0" precision="FP32">
					<dim>1</dim>
					<dim>1</dim>
					<dim>1</dim>
				</port>
			</output>
		</layer>
		<layer id="129" name="/nncf_module/bert/embeddings/position_embeddings/BertForQuestionAnswering/BertModel[bert]/BertEmbeddings[embeddings]/NNCFEmbedding[position_embeddings]/embedding_0|OUTPUT/FakeQuantize" type="FakeQuantize" version="opset1">
			<data levels="256" auto_broadcast="numpy" />
			<input>
				<port id="0" precision="FP32">
					<dim>1</dim>
					<dim>384</dim>
					<dim>1024</dim>
				</port>
				<port id="1" precision="FP32">
					<dim>1</dim>
					<dim>1</dim>
					<dim>1</dim>
				</port>
				<port id="2" precision="FP32">
					<dim>1</dim>
					<dim>1</dim>
					<dim>1</dim>
				</port>
				<port id="3" precision="FP32">
					<dim>1</dim>
					<dim>1</dim>
					<dim>1</dim>
				</port>
				<port id="4" precision="FP32">
					<dim>1</dim>
					<dim>1</dim>
					<dim>1</dim>
				</port>
			</input>
			<output>
				<port id="5" precision="FP32" names="/nncf_module/bert/embeddings/position_embeddings/BertForQuestionAnswering/BertModel[bert]/BertEmbeddings[embeddings]/NNCFEmbedding[position_embeddings]/embedding_0|OUTPUT/FakeQuantize_output_0">
					<dim>1</dim>
					<dim>384</dim>
					<dim>1024</dim>
				</port>
			</output>
		</layer>
		<layer id="130" name="/nncf_module/bert/embeddings/Add_1" type="Add" version="opset1">
			<data auto_broadcast="numpy" />
			<input>
				<port id="0" precision="FP32">
					<dim>1</dim>
					<dim>384</dim>
					<dim>1024</dim>
				</port>
				<port id="1" precision="FP32">
					<dim>1</dim>
					<dim>384</dim>
					<dim>1024</dim>
				</port>
			</input>
			<output>
				<port id="2" precision="FP32" names="/nncf_module/bert/embeddings/Add_1_output_0">
					<dim>1</dim>
					<dim>384</dim>
					<dim>1024</dim>
				</port>
			</output>
		</layer>
		<layer id="131" name="Constant_282" type="Const" version="opset1">
			<data element_type="i64" shape="1" offset="32062540" size="8" />
			<output>
				<port id="0" precision="I64">
					<dim>1</dim>
				</port>
			</output>
		</layer>
		<layer id="132" name="/nncf_module/bert/embeddings/LayerNorm/Div" type="MVN" version="opset6">
			<data eps="9.999999960041972e-13" normalize_variance="true" eps_mode="INSIDE_SQRT" />
			<input>
				<port id="0" precision="FP32">
					<dim>1</dim>
					<dim>384</dim>
					<dim>1024</dim>
				</port>
				<port id="1" precision="I64">
					<dim>1</dim>
				</port>
			</input>
			<output>
				<port id="2" precision="FP32" names="/nncf_module/bert/embeddings/LayerNorm/Div_output_0">
					<dim>1</dim>
					<dim>384</dim>
					<dim>1024</dim>
				</port>
			</output>
		</layer>
		<layer id="133" name="Constant_42425" type="Const" version="opset1">
			<data element_type="f32" shape="1, 1, 1024" offset="32062548" size="4096" />
			<output>
				<port id="0" precision="FP32">
					<dim>1</dim>
					<dim>1</dim>
					<dim>1024</dim>
				</port>
			</output>
		</layer>
		<layer id="134" name="/nncf_module/bert/embeddings/LayerNorm/Mul" type="Multiply" version="opset1">
			<data auto_broadcast="numpy" />
			<input>
				<port id="0" precision="FP32">
					<dim>1</dim>
					<dim>384</dim>
					<dim>1024</dim>
				</port>
				<port id="1" precision="FP32">
					<dim>1</dim>
					<dim>1</dim>
					<dim>1024</dim>
				</port>
			</input>
			<output>
				<port id="2" precision="FP32" names="/nncf_module/bert/embeddings/LayerNorm/Mul_output_0">
					<dim>1</dim>
					<dim>384</dim>
					<dim>1024</dim>
				</port>
			</output>
		</layer>
		<layer id="135" name="Constant_42426" type="Const" version="opset1">
			<data element_type="f32" shape="1, 1, 1024" offset="32066644" size="4096" />
			<output>
				<port id="0" precision="FP32">
					<dim>1</dim>
					<dim>1</dim>
					<dim>1024</dim>
				</port>
			</output>
		</layer>
		<layer id="136" name="/nncf_module/bert/embeddings/LayerNorm/Add_1" type="Add" version="opset1">
			<data auto_broadcast="numpy" />
			<input>
				<port id="0" precision="FP32">
					<dim>1</dim>
					<dim>384</dim>
					<dim>1024</dim>
				</port>
				<port id="1" precision="FP32">
					<dim>1</dim>
					<dim>1</dim>
					<dim>1024</dim>
				</port>
			</input>
			<output>
				<port id="2" precision="FP32" names="/nncf_module/bert/embeddings/LayerNorm/Add_1_output_0">
					<dim>1</dim>
					<dim>384</dim>
					<dim>1024</dim>
				</port>
			</output>
		</layer>
		<layer id="137" name="Constant_42427" type="Const" version="opset1">
			<data element_type="f32" shape="1, 1, 1" offset="32070740" size="4" />
			<output>
				<port id="0" precision="FP32">
					<dim>1</dim>
					<dim>1</dim>
					<dim>1</dim>
				</port>
			</output>
		</layer>
		<layer id="138" name="Constant_42428" type="Const" version="opset1">
			<data element_type="f32" shape="1, 1, 1" offset="32070744" size="4" />
			<output>
				<port id="0" precision="FP32">
					<dim>1</dim>
					<dim>1</dim>
					<dim>1</dim>
				</port>
			</output>
		</layer>
		<layer id="139" name="Constant_42429" type="Const" version="opset1">
			<data element_type="f32" shape="1, 1, 1" offset="32070740" size="4" />
			<output>
				<port id="0" precision="FP32">
					<dim>1</dim>
					<dim>1</dim>
					<dim>1</dim>
				</port>
			</output>
		</layer>
		<layer id="140" name="Constant_42430" type="Const" version="opset1">
			<data element_type="f32" shape="1, 1, 1" offset="32070744" size="4" />
			<output>
				<port id="0" precision="FP32">
					<dim>1</dim>
					<dim>1</dim>
					<dim>1</dim>
				</port>
			</output>
		</layer>
		<layer id="141" name="/nncf_module/bert/encoder/layer.0/attention/self/query/BertForQuestionAnswering/BertModel[bert]/BertEncoder[encoder]/ModuleList[layer]/BertLayer[0]/BertAttention[attention]/BertSelfAttention[self]/NNCFLinear[query]/linear_0|INPUT0/FakeQuantize" type="FakeQuantize" version="opset1">
			<data levels="256" auto_broadcast="numpy" />
			<input>
				<port id="0" precision="FP32">
					<dim>1</dim>
					<dim>384</dim>
					<dim>1024</dim>
				</port>
				<port id="1" precision="FP32">
					<dim>1</dim>
					<dim>1</dim>
					<dim>1</dim>
				</port>
				<port id="2" precision="FP32">
					<dim>1</dim>
					<dim>1</dim>
					<dim>1</dim>
				</port>
				<port id="3" precision="FP32">
					<dim>1</dim>
					<dim>1</dim>
					<dim>1</dim>
				</port>
				<port id="4" precision="FP32">
					<dim>1</dim>
					<dim>1</dim>
					<dim>1</dim>
				</port>
			</input>
			<output>
				<port id="5" precision="FP32" names="/nncf_module/bert/encoder/layer.0/attention/self/query/BertForQuestionAnswering/BertModel[bert]/BertEncoder[encoder]/ModuleList[layer]/BertLayer[0]/BertAttention[attention]/BertSelfAttention[self]/NNCFLinear[query]/linear_0|INPUT0/FakeQuantize_output_0">
					<dim>1</dim>
					<dim>384</dim>
					<dim>1024</dim>
				</port>
			</output>
		</layer>
		<layer id="142" name="Constant_73514" type="Const" version="opset1">
			<data element_type="i8" shape="320, 1024" offset="32070748" size="327680" />
			<output>
				<port id="0" precision="I8">
					<dim>320</dim>
					<dim>1024</dim>
				</port>
			</output>
		</layer>
		<layer id="143" name="Convert_45531" type="Convert" version="opset1">
			<data destination_type="f32" />
			<input>
				<port id="0" precision="I8">
					<dim>320</dim>
					<dim>1024</dim>
				</port>
			</input>
			<output>
				<port id="1" precision="FP32">
					<dim>320</dim>
					<dim>1024</dim>
				</port>
			</output>
		</layer>
		<layer id="144" name="Constant_73521" type="Const" version="opset1">
			<data element_type="f32" shape="320, 1" offset="32398428" size="1280" />
			<output>
				<port id="0" precision="FP32">
					<dim>320</dim>
					<dim>1</dim>
				</port>
			</output>
		</layer>
		<layer id="145" name="/nncf_module/bert/encoder/layer.0/attention/self/query/pre_ops.1/op/FakeQuantize" type="Multiply" version="opset1">
			<data auto_broadcast="numpy" />
			<input>
				<port id="0" precision="FP32">
					<dim>320</dim>
					<dim>1024</dim>
				</port>
				<port id="1" precision="FP32">
					<dim>320</dim>
					<dim>1</dim>
				</port>
			</input>
			<output>
				<port id="2" precision="FP32" names="/nncf_module/bert/encoder/layer.0/attention/self/query/pre_ops.1/op/FakeQuantize_output_0">
					<dim>320</dim>
					<dim>1024</dim>
				</port>
			</output>
		</layer>
		<layer id="146" name="/nncf_module/bert/encoder/layer.0/attention/self/query/MatMul" type="MatMul" version="opset1">
			<data transpose_a="false" transpose_b="true" />
			<input>
				<port id="0" precision="FP32">
					<dim>1</dim>
					<dim>384</dim>
					<dim>1024</dim>
				</port>
				<port id="1" precision="FP32">
					<dim>320</dim>
					<dim>1024</dim>
				</port>
			</input>
			<output>
				<port id="2" precision="FP32" names="/nncf_module/bert/encoder/layer.0/attention/self/query/MatMul_output_0">
					<dim>1</dim>
					<dim>384</dim>
					<dim>320</dim>
				</port>
			</output>
		</layer>
		<layer id="147" name="/nncf_module/bert/encoder/layer.0/attention/self/query/Add" type="Add" version="opset1">
			<data auto_broadcast="numpy" />
			<input>
				<port id="0" precision="FP32">
					<dim>1</dim>
					<dim>1</dim>
					<dim>320</dim>
				</port>
				<port id="1" precision="FP32">
					<dim>1</dim>
					<dim>384</dim>
					<dim>320</dim>
				</port>
			</input>
			<output>
				<port id="2" precision="FP32" names="/nncf_module/bert/encoder/layer.0/attention/self/query/Add_output_0">
					<dim>1</dim>
					<dim>384</dim>
					<dim>320</dim>
				</port>
			</output>
		</layer>
		<layer id="148" name="Constant_42432" type="Const" version="opset1">
			<data element_type="f32" shape="1, 1, 1" offset="32399708" size="4" />
			<output>
				<port id="0" precision="FP32">
					<dim>1</dim>
					<dim>1</dim>
					<dim>1</dim>
				</port>
			</output>
		</layer>
		<layer id="149" name="Constant_42433" type="Const" version="opset1">
			<data element_type="f32" shape="1, 1, 1" offset="32399712" size="4" />
			<output>
				<port id="0" precision="FP32">
					<dim>1</dim>
					<dim>1</dim>
					<dim>1</dim>
				</port>
			</output>
		</layer>
		<layer id="150" name="Constant_42434" type="Const" version="opset1">
			<data element_type="f32" shape="1, 1, 1" offset="32399708" size="4" />
			<output>
				<port id="0" precision="FP32">
					<dim>1</dim>
					<dim>1</dim>
					<dim>1</dim>
				</port>
			</output>
		</layer>
		<layer id="151" name="Constant_42435" type="Const" version="opset1">
			<data element_type="f32" shape="1, 1, 1" offset="32399712" size="4" />
			<output>
				<port id="0" precision="FP32">
					<dim>1</dim>
					<dim>1</dim>
					<dim>1</dim>
				</port>
			</output>
		</layer>
		<layer id="152" name="/nncf_module/bert/encoder/layer.0/attention/self/query/BertForQuestionAnswering/BertModel[bert]/BertEncoder[encoder]/ModuleList[layer]/BertLayer[0]/BertAttention[attention]/BertSelfAttention[self]/NNCFLinear[query]/linear_0|OUTPUT/FakeQuantize" type="FakeQuantize" version="opset1">
			<data levels="256" auto_broadcast="numpy" />
			<input>
				<port id="0" precision="FP32">
					<dim>1</dim>
					<dim>384</dim>
					<dim>320</dim>
				</port>
				<port id="1" precision="FP32">
					<dim>1</dim>
					<dim>1</dim>
					<dim>1</dim>
				</port>
				<port id="2" precision="FP32">
					<dim>1</dim>
					<dim>1</dim>
					<dim>1</dim>
				</port>
				<port id="3" precision="FP32">
					<dim>1</dim>
					<dim>1</dim>
					<dim>1</dim>
				</port>
				<port id="4" precision="FP32">
					<dim>1</dim>
					<dim>1</dim>
					<dim>1</dim>
				</port>
			</input>
			<output>
				<port id="5" precision="FP32" names="/nncf_module/bert/encoder/layer.0/attention/self/query/BertForQuestionAnswering/BertModel[bert]/BertEncoder[encoder]/ModuleList[layer]/BertLayer[0]/BertAttention[attention]/BertSelfAttention[self]/NNCFLinear[query]/linear_0|OUTPUT/FakeQuantize_output_0">
					<dim>1</dim>
					<dim>384</dim>
					<dim>320</dim>
				</port>
			</output>
		</layer>
		<layer id="153" name="/nncf_module/bert/encoder/layer.0/attention/self/Shape_4" type="ShapeOf" version="opset3">
			<data output_type="i64" />
			<input>
				<port id="0" precision="FP32">
					<dim>1</dim>
					<dim>384</dim>
					<dim>320</dim>
				</port>
			</input>
			<output>
				<port id="1" precision="I64" names="/nncf_module/bert/encoder/layer.0/attention/self/Shape_4_output_0,/nncf_module/bert/encoder/layer.0/attention/self/Shape_5_output_0">
					<dim>3</dim>
				</port>
			</output>
		</layer>
		<layer id="154" name="Constant_32069" type="Const" version="opset1">
			<data element_type="i64" shape="2" offset="32399716" size="16" />
			<output>
				<port id="0" precision="I64">
					<dim>2</dim>
				</port>
			</output>
		</layer>
		<layer id="155" name="Constant_32070" type="Const" version="opset1">
			<data element_type="i64" shape="" offset="31533100" size="8" />
			<output>
				<port id="0" precision="I64" />
			</output>
		</layer>
		<layer id="156" name="Gather_32071" type="Gather" version="opset8">
			<data batch_dims="0" />
			<input>
				<port id="0" precision="I64">
					<dim>3</dim>
				</port>
				<port id="1" precision="I64">
					<dim>2</dim>
				</port>
				<port id="2" precision="I64" />
			</input>
			<output>
				<port id="3" precision="I64">
					<dim>2</dim>
				</port>
			</output>
		</layer>
		<layer id="157" name="/nncf_module/bert/encoder/layer.0/attention/self/Constant_10" type="Const" version="opset1">
			<data element_type="i64" shape="1" offset="32399732" size="8" />
			<output>
				<port id="0" precision="I64" names="/nncf_module/bert/encoder/layer.0/attention/self/Constant_10_output_0">
					<dim>1</dim>
				</port>
			</output>
		</layer>
		<layer id="158" name="/nncf_module/bert/encoder/layer.0/attention/self/Constant_11" type="Const" version="opset1">
			<data element_type="i64" shape="1" offset="32399740" size="8" />
			<output>
				<port id="0" precision="I64" names="/nncf_module/bert/encoder/layer.0/attention/self/Constant_11_output_0">
					<dim>1</dim>
				</port>
			</output>
		</layer>
		<layer id="159" name="/nncf_module/bert/encoder/layer.0/attention/self/Concat_2" type="Concat" version="opset1">
			<data axis="0" />
			<input>
				<port id="0" precision="I64">
					<dim>2</dim>
				</port>
				<port id="1" precision="I64">
					<dim>1</dim>
				</port>
				<port id="2" precision="I64">
					<dim>1</dim>
				</port>
			</input>
			<output>
				<port id="3" precision="I64" names="/nncf_module/bert/encoder/layer.0/attention/self/Concat_2_output_0">
					<dim>4</dim>
				</port>
			</output>
		</layer>
		<layer id="160" name="Constant_73544" type="Const" version="opset1">
			<data element_type="i64" shape="4" offset="32399748" size="32" />
			<output>
				<port id="0" precision="I64">
					<dim>4</dim>
				</port>
			</output>
		</layer>
		<layer id="161" name="Subtract_73545" type="Subtract" version="opset1">
			<data auto_broadcast="numpy" />
			<input>
				<port id="0" precision="I64">
					<dim>4</dim>
				</port>
				<port id="1" precision="I64">
					<dim>4</dim>
				</port>
			</input>
			<output>
				<port id="2" precision="I64">
					<dim>4</dim>
				</port>
			</output>
		</layer>
		<layer id="162" name="/nncf_module/bert/encoder/layer.0/attention/self/Reshape_2" type="Reshape" version="opset1">
			<data special_zero="true" />
			<input>
				<port id="0" precision="FP32">
					<dim>1</dim>
					<dim>384</dim>
					<dim>320</dim>
				</port>
				<port id="1" precision="I64">
					<dim>4</dim>
				</port>
			</input>
			<output>
				<port id="2" precision="FP32" names="/nncf_module/bert/encoder/layer.0/attention/self/Reshape_2_output_0">
					<dim>1</dim>
					<dim>384</dim>
					<dim>5</dim>
					<dim>64</dim>
				</port>
			</output>
		</layer>
		<layer id="163" name="Constant_525" type="Const" version="opset1">
			<data element_type="i64" shape="4" offset="32399780" size="32" />
			<output>
				<port id="0" precision="I64">
					<dim>4</dim>
				</port>
			</output>
		</layer>
		<layer id="164" name="/nncf_module/bert/encoder/layer.0/attention/self/Transpose_1" type="Transpose" version="opset1">
			<input>
				<port id="0" precision="FP32">
					<dim>1</dim>
					<dim>384</dim>
					<dim>5</dim>
					<dim>64</dim>
				</port>
				<port id="1" precision="I64">
					<dim>4</dim>
				</port>
			</input>
			<output>
				<port id="2" precision="FP32" names="/nncf_module/bert/encoder/layer.0/attention/self/Transpose_1_output_0">
					<dim>1</dim>
					<dim>5</dim>
					<dim>384</dim>
					<dim>64</dim>
				</port>
			</output>
		</layer>
		<layer id="165" name="Constant_73581" type="Const" version="opset1">
			<data element_type="f32" shape="1, 1, 320" offset="32399812" size="1280" />
			<output>
				<port id="0" precision="FP32">
					<dim>1</dim>
					<dim>1</dim>
					<dim>320</dim>
				</port>
			</output>
		</layer>
		<layer id="166" name="Constant_42436" type="Const" version="opset1">
			<data element_type="f32" shape="1, 1, 1" offset="32401092" size="4" />
			<output>
				<port id="0" precision="FP32">
					<dim>1</dim>
					<dim>1</dim>
					<dim>1</dim>
				</port>
			</output>
		</layer>
		<layer id="167" name="Constant_42437" type="Const" version="opset1">
			<data element_type="f32" shape="1, 1, 1" offset="32401096" size="4" />
			<output>
				<port id="0" precision="FP32">
					<dim>1</dim>
					<dim>1</dim>
					<dim>1</dim>
				</port>
			</output>
		</layer>
		<layer id="168" name="Constant_42438" type="Const" version="opset1">
			<data element_type="f32" shape="1, 1, 1" offset="32401092" size="4" />
			<output>
				<port id="0" precision="FP32">
					<dim>1</dim>
					<dim>1</dim>
					<dim>1</dim>
				</port>
			</output>
		</layer>
		<layer id="169" name="Constant_42439" type="Const" version="opset1">
			<data element_type="f32" shape="1, 1, 1" offset="32401096" size="4" />
			<output>
				<port id="0" precision="FP32">
					<dim>1</dim>
					<dim>1</dim>
					<dim>1</dim>
				</port>
			</output>
		</layer>
		<layer id="170" name="/nncf_module/bert/encoder/layer.0/attention/self/key/BertForQuestionAnswering/BertModel[bert]/BertEncoder[encoder]/ModuleList[layer]/BertLayer[0]/BertAttention[attention]/BertSelfAttention[self]/NNCFLinear[key]/linear_0|INPUT0/FakeQuantize" type="FakeQuantize" version="opset1">
			<data levels="256" auto_broadcast="numpy" />
			<input>
				<port id="0" precision="FP32">
					<dim>1</dim>
					<dim>384</dim>
					<dim>1024</dim>
				</port>
				<port id="1" precision="FP32">
					<dim>1</dim>
					<dim>1</dim>
					<dim>1</dim>
				</port>
				<port id="2" precision="FP32">
					<dim>1</dim>
					<dim>1</dim>
					<dim>1</dim>
				</port>
				<port id="3" precision="FP32">
					<dim>1</dim>
					<dim>1</dim>
					<dim>1</dim>
				</port>
				<port id="4" precision="FP32">
					<dim>1</dim>
					<dim>1</dim>
					<dim>1</dim>
				</port>
			</input>
			<output>
				<port id="5" precision="FP32" names="/nncf_module/bert/encoder/layer.0/attention/self/key/BertForQuestionAnswering/BertModel[bert]/BertEncoder[encoder]/ModuleList[layer]/BertLayer[0]/BertAttention[attention]/BertSelfAttention[self]/NNCFLinear[key]/linear_0|INPUT0/FakeQuantize_output_0">
					<dim>1</dim>
					<dim>384</dim>
					<dim>1024</dim>
				</port>
			</output>
		</layer>
		<layer id="171" name="Constant_73588" type="Const" version="opset1">
			<data element_type="i8" shape="320, 1024" offset="32401100" size="327680" />
			<output>
				<port id="0" precision="I8">
					<dim>320</dim>
					<dim>1024</dim>
				</port>
			</output>
		</layer>
		<layer id="172" name="Convert_45652" type="Convert" version="opset1">
			<data destination_type="f32" />
			<input>
				<port id="0" precision="I8">
					<dim>320</dim>
					<dim>1024</dim>
				</port>
			</input>
			<output>
				<port id="1" precision="FP32">
					<dim>320</dim>
					<dim>1024</dim>
				</port>
			</output>
		</layer>
		<layer id="173" name="Constant_73595" type="Const" version="opset1">
			<data element_type="f32" shape="320, 1" offset="32728780" size="1280" />
			<output>
				<port id="0" precision="FP32">
					<dim>320</dim>
					<dim>1</dim>
				</port>
			</output>
		</layer>
		<layer id="174" name="/nncf_module/bert/encoder/layer.0/attention/self/key/pre_ops.1/op/FakeQuantize" type="Multiply" version="opset1">
			<data auto_broadcast="numpy" />
			<input>
				<port id="0" precision="FP32">
					<dim>320</dim>
					<dim>1024</dim>
				</port>
				<port id="1" precision="FP32">
					<dim>320</dim>
					<dim>1</dim>
				</port>
			</input>
			<output>
				<port id="2" precision="FP32" names="/nncf_module/bert/encoder/layer.0/attention/self/key/pre_ops.1/op/FakeQuantize_output_0">
					<dim>320</dim>
					<dim>1024</dim>
				</port>
			</output>
		</layer>
		<layer id="175" name="/nncf_module/bert/encoder/layer.0/attention/self/key/MatMul" type="MatMul" version="opset1">
			<data transpose_a="false" transpose_b="true" />
			<input>
				<port id="0" precision="FP32">
					<dim>1</dim>
					<dim>384</dim>
					<dim>1024</dim>
				</port>
				<port id="1" precision="FP32">
					<dim>320</dim>
					<dim>1024</dim>
				</port>
			</input>
			<output>
				<port id="2" precision="FP32" names="/nncf_module/bert/encoder/layer.0/attention/self/key/MatMul_output_0">
					<dim>1</dim>
					<dim>384</dim>
					<dim>320</dim>
				</port>
			</output>
		</layer>
		<layer id="176" name="/nncf_module/bert/encoder/layer.0/attention/self/key/Add" type="Add" version="opset1">
			<data auto_broadcast="numpy" />
			<input>
				<port id="0" precision="FP32">
					<dim>1</dim>
					<dim>1</dim>
					<dim>320</dim>
				</port>
				<port id="1" precision="FP32">
					<dim>1</dim>
					<dim>384</dim>
					<dim>320</dim>
				</port>
			</input>
			<output>
				<port id="2" precision="FP32" names="/nncf_module/bert/encoder/layer.0/attention/self/key/Add_output_0">
					<dim>1</dim>
					<dim>384</dim>
					<dim>320</dim>
				</port>
			</output>
		</layer>
		<layer id="177" name="Constant_42441" type="Const" version="opset1">
			<data element_type="f32" shape="1, 1, 1" offset="32730060" size="4" />
			<output>
				<port id="0" precision="FP32">
					<dim>1</dim>
					<dim>1</dim>
					<dim>1</dim>
				</port>
			</output>
		</layer>
		<layer id="178" name="Constant_42442" type="Const" version="opset1">
			<data element_type="f32" shape="1, 1, 1" offset="32730064" size="4" />
			<output>
				<port id="0" precision="FP32">
					<dim>1</dim>
					<dim>1</dim>
					<dim>1</dim>
				</port>
			</output>
		</layer>
		<layer id="179" name="Constant_42443" type="Const" version="opset1">
			<data element_type="f32" shape="1, 1, 1" offset="32730060" size="4" />
			<output>
				<port id="0" precision="FP32">
					<dim>1</dim>
					<dim>1</dim>
					<dim>1</dim>
				</port>
			</output>
		</layer>
		<layer id="180" name="Constant_42444" type="Const" version="opset1">
			<data element_type="f32" shape="1, 1, 1" offset="32730064" size="4" />
			<output>
				<port id="0" precision="FP32">
					<dim>1</dim>
					<dim>1</dim>
					<dim>1</dim>
				</port>
			</output>
		</layer>
		<layer id="181" name="/nncf_module/bert/encoder/layer.0/attention/self/key/BertForQuestionAnswering/BertModel[bert]/BertEncoder[encoder]/ModuleList[layer]/BertLayer[0]/BertAttention[attention]/BertSelfAttention[self]/NNCFLinear[key]/linear_0|OUTPUT/FakeQuantize" type="FakeQuantize" version="opset1">
			<data levels="256" auto_broadcast="numpy" />
			<input>
				<port id="0" precision="FP32">
					<dim>1</dim>
					<dim>384</dim>
					<dim>320</dim>
				</port>
				<port id="1" precision="FP32">
					<dim>1</dim>
					<dim>1</dim>
					<dim>1</dim>
				</port>
				<port id="2" precision="FP32">
					<dim>1</dim>
					<dim>1</dim>
					<dim>1</dim>
				</port>
				<port id="3" precision="FP32">
					<dim>1</dim>
					<dim>1</dim>
					<dim>1</dim>
				</port>
				<port id="4" precision="FP32">
					<dim>1</dim>
					<dim>1</dim>
					<dim>1</dim>
				</port>
			</input>
			<output>
				<port id="5" precision="FP32" names="/nncf_module/bert/encoder/layer.0/attention/self/key/BertForQuestionAnswering/BertModel[bert]/BertEncoder[encoder]/ModuleList[layer]/BertLayer[0]/BertAttention[attention]/BertSelfAttention[self]/NNCFLinear[key]/linear_0|OUTPUT/FakeQuantize_output_0">
					<dim>1</dim>
					<dim>384</dim>
					<dim>320</dim>
				</port>
			</output>
		</layer>
		<layer id="182" name="/nncf_module/bert/encoder/layer.0/attention/self/Shape" type="ShapeOf" version="opset3">
			<data output_type="i64" />
			<input>
				<port id="0" precision="FP32">
					<dim>1</dim>
					<dim>384</dim>
					<dim>320</dim>
				</port>
			</input>
			<output>
				<port id="1" precision="I64" names="/nncf_module/bert/encoder/layer.0/attention/self/Shape_1_output_0,/nncf_module/bert/encoder/layer.0/attention/self/Shape_output_0">
					<dim>3</dim>
				</port>
			</output>
		</layer>
		<layer id="183" name="Constant_32074" type="Const" version="opset1">
			<data element_type="i64" shape="2" offset="32399716" size="16" />
			<output>
				<port id="0" precision="I64">
					<dim>2</dim>
				</port>
			</output>
		</layer>
		<layer id="184" name="Constant_32075" type="Const" version="opset1">
			<data element_type="i64" shape="" offset="31533100" size="8" />
			<output>
				<port id="0" precision="I64" />
			</output>
		</layer>
		<layer id="185" name="Gather_32076" type="Gather" version="opset8">
			<data batch_dims="0" />
			<input>
				<port id="0" precision="I64">
					<dim>3</dim>
				</port>
				<port id="1" precision="I64">
					<dim>2</dim>
				</port>
				<port id="2" precision="I64" />
			</input>
			<output>
				<port id="3" precision="I64">
					<dim>2</dim>
				</port>
			</output>
		</layer>
		<layer id="186" name="/nncf_module/bert/encoder/layer.0/attention/self/Constant_2" type="Const" version="opset1">
			<data element_type="i64" shape="1" offset="32399732" size="8" />
			<output>
				<port id="0" precision="I64" names="/nncf_module/bert/encoder/layer.0/attention/self/Constant_2_output_0">
					<dim>1</dim>
				</port>
			</output>
		</layer>
		<layer id="187" name="/nncf_module/bert/encoder/layer.0/attention/self/Constant_3" type="Const" version="opset1">
			<data element_type="i64" shape="1" offset="32399740" size="8" />
			<output>
				<port id="0" precision="I64" names="/nncf_module/bert/encoder/layer.0/attention/self/Constant_3_output_0">
					<dim>1</dim>
				</port>
			</output>
		</layer>
		<layer id="188" name="/nncf_module/bert/encoder/layer.0/attention/self/Concat" type="Concat" version="opset1">
			<data axis="0" />
			<input>
				<port id="0" precision="I64">
					<dim>2</dim>
				</port>
				<port id="1" precision="I64">
					<dim>1</dim>
				</port>
				<port id="2" precision="I64">
					<dim>1</dim>
				</port>
			</input>
			<output>
				<port id="3" precision="I64" names="/nncf_module/bert/encoder/layer.0/attention/self/Concat_output_0">
					<dim>4</dim>
				</port>
			</output>
		</layer>
		<layer id="189" name="Constant_73618" type="Const" version="opset1">
			<data element_type="i64" shape="4" offset="32399748" size="32" />
			<output>
				<port id="0" precision="I64">
					<dim>4</dim>
				</port>
			</output>
		</layer>
		<layer id="190" name="Subtract_73619" type="Subtract" version="opset1">
			<data auto_broadcast="numpy" />
			<input>
				<port id="0" precision="I64">
					<dim>4</dim>
				</port>
				<port id="1" precision="I64">
					<dim>4</dim>
				</port>
			</input>
			<output>
				<port id="2" precision="I64">
					<dim>4</dim>
				</port>
			</output>
		</layer>
		<layer id="191" name="/nncf_module/bert/encoder/layer.0/attention/self/Reshape" type="Reshape" version="opset1">
			<data special_zero="true" />
			<input>
				<port id="0" precision="FP32">
					<dim>1</dim>
					<dim>384</dim>
					<dim>320</dim>
				</port>
				<port id="1" precision="I64">
					<dim>4</dim>
				</port>
			</input>
			<output>
				<port id="2" precision="FP32" names="/nncf_module/bert/encoder/layer.0/attention/self/Reshape_output_0">
					<dim>1</dim>
					<dim>384</dim>
					<dim>5</dim>
					<dim>64</dim>
				</port>
			</output>
		</layer>
		<layer id="192" name="Constant_527" type="Const" version="opset1">
			<data element_type="i64" shape="4" offset="32730068" size="32" />
			<output>
				<port id="0" precision="I64">
					<dim>4</dim>
				</port>
			</output>
		</layer>
		<layer id="193" name="/nncf_module/bert/encoder/layer.0/attention/self/Transpose_2" type="Transpose" version="opset1">
			<input>
				<port id="0" precision="FP32">
					<dim>1</dim>
					<dim>384</dim>
					<dim>5</dim>
					<dim>64</dim>
				</port>
				<port id="1" precision="I64">
					<dim>4</dim>
				</port>
			</input>
			<output>
				<port id="2" precision="FP32" names="/nncf_module/bert/encoder/layer.0/attention/self/Transpose_2_output_0">
					<dim>1</dim>
					<dim>5</dim>
					<dim>64</dim>
					<dim>384</dim>
				</port>
			</output>
		</layer>
		<layer id="194" name="Constant_42445" type="Const" version="opset1">
			<data element_type="f32" shape="1, 1, 1, 1" offset="32730100" size="4" />
			<output>
				<port id="0" precision="FP32">
					<dim>1</dim>
					<dim>1</dim>
					<dim>1</dim>
					<dim>1</dim>
				</port>
			</output>
		</layer>
		<layer id="195" name="Multiply_41906" type="Multiply" version="opset1">
			<data auto_broadcast="numpy" />
			<input>
				<port id="0" precision="FP32">
					<dim>1</dim>
					<dim>5</dim>
					<dim>64</dim>
					<dim>384</dim>
				</port>
				<port id="1" precision="FP32">
					<dim>1</dim>
					<dim>1</dim>
					<dim>1</dim>
					<dim>1</dim>
				</port>
			</input>
			<output>
				<port id="2" precision="FP32">
					<dim>1</dim>
					<dim>5</dim>
					<dim>64</dim>
					<dim>384</dim>
				</port>
			</output>
		</layer>
		<layer id="196" name="/nncf_module/bert/encoder/layer.0/attention/self/Div" type="MatMul" version="opset1">
			<data transpose_a="false" transpose_b="false" />
			<input>
				<port id="0" precision="FP32">
					<dim>1</dim>
					<dim>5</dim>
					<dim>384</dim>
					<dim>64</dim>
				</port>
				<port id="1" precision="FP32">
					<dim>1</dim>
					<dim>5</dim>
					<dim>64</dim>
					<dim>384</dim>
				</port>
			</input>
			<output>
				<port id="2" precision="FP32" names="/nncf_module/bert/encoder/layer.0/attention/self/Div_output_0">
					<dim>1</dim>
					<dim>5</dim>
					<dim>384</dim>
					<dim>384</dim>
				</port>
			</output>
		</layer>
		<layer id="197" name="Constant_42446" type="Const" version="opset1">
			<data element_type="f32" shape="1, 1, 1, 1" offset="32730104" size="4" />
			<output>
				<port id="0" precision="FP32">
					<dim>1</dim>
					<dim>1</dim>
					<dim>1</dim>
					<dim>1</dim>
				</port>
			</output>
		</layer>
		<layer id="198" name="/nncf_module/bert/Constant" type="Const" version="opset1">
			<data element_type="i64" shape="1" offset="32730108" size="8" />
			<output>
				<port id="0" precision="I64" names="/nncf_module/bert/Constant_output_0">
					<dim>1</dim>
				</port>
			</output>
		</layer>
		<layer id="199" name="/nncf_module/bert/Unsqueeze" type="Unsqueeze" version="opset1">
			<input>
				<port id="0" precision="I64">
					<dim>1</dim>
					<dim>384</dim>
				</port>
				<port id="1" precision="I64">
					<dim>1</dim>
				</port>
			</input>
			<output>
				<port id="2" precision="I64" names="/nncf_module/bert/Unsqueeze_output_0">
					<dim>1</dim>
					<dim>1</dim>
					<dim>384</dim>
				</port>
			</output>
		</layer>
		<layer id="200" name="/nncf_module/bert/Constant_1" type="Const" version="opset1">
			<data element_type="i64" shape="1" offset="32730116" size="8" />
			<output>
				<port id="0" precision="I64" names="/nncf_module/bert/Constant_1_output_0">
					<dim>1</dim>
				</port>
			</output>
		</layer>
		<layer id="201" name="/nncf_module/bert/Unsqueeze_1" type="Unsqueeze" version="opset1">
			<input>
				<port id="0" precision="I64">
					<dim>1</dim>
					<dim>1</dim>
					<dim>384</dim>
				</port>
				<port id="1" precision="I64">
					<dim>1</dim>
				</port>
			</input>
			<output>
				<port id="2" precision="I64" names="/nncf_module/bert/Unsqueeze_1_output_0">
					<dim>1</dim>
					<dim>1</dim>
					<dim>1</dim>
					<dim>384</dim>
				</port>
			</output>
		</layer>
		<layer id="202" name="/nncf_module/bert/Cast" type="Convert" version="opset1">
			<data destination_type="f32" />
			<input>
				<port id="0" precision="I64">
					<dim>1</dim>
					<dim>1</dim>
					<dim>1</dim>
					<dim>384</dim>
				</port>
			</input>
			<output>
				<port id="1" precision="FP32" names="/nncf_module/bert/Cast_output_0">
					<dim>1</dim>
					<dim>1</dim>
					<dim>1</dim>
					<dim>384</dim>
				</port>
			</output>
		</layer>
		<layer id="203" name="/nncf_module/bert/Sub" type="Subtract" version="opset1">
			<data auto_broadcast="numpy" />
			<input>
				<port id="0" precision="FP32">
					<dim>1</dim>
					<dim>1</dim>
					<dim>1</dim>
					<dim>1</dim>
				</port>
				<port id="1" precision="FP32">
					<dim>1</dim>
					<dim>1</dim>
					<dim>1</dim>
					<dim>384</dim>
				</port>
			</input>
			<output>
				<port id="2" precision="FP32" names="/nncf_module/bert/Sub_output_0">
					<dim>1</dim>
					<dim>1</dim>
					<dim>1</dim>
					<dim>384</dim>
				</port>
			</output>
		</layer>
		<layer id="204" name="Constant_42447" type="Const" version="opset1">
			<data element_type="f32" shape="1, 1, 1, 1" offset="32730124" size="4" />
			<output>
				<port id="0" precision="FP32">
					<dim>1</dim>
					<dim>1</dim>
					<dim>1</dim>
					<dim>1</dim>
				</port>
			</output>
		</layer>
		<layer id="205" name="/nncf_module/bert/Mul" type="Multiply" version="opset1">
			<data auto_broadcast="numpy" />
			<input>
				<port id="0" precision="FP32">
					<dim>1</dim>
					<dim>1</dim>
					<dim>1</dim>
					<dim>384</dim>
				</port>
				<port id="1" precision="FP32">
					<dim>1</dim>
					<dim>1</dim>
					<dim>1</dim>
					<dim>1</dim>
				</port>
			</input>
			<output>
				<port id="2" precision="FP32" names="/nncf_module/bert/Mul_output_0">
					<dim>1</dim>
					<dim>1</dim>
					<dim>1</dim>
					<dim>384</dim>
				</port>
			</output>
		</layer>
		<layer id="206" name="/nncf_module/bert/encoder/layer.0/attention/self/Add" type="Add" version="opset1">
			<data auto_broadcast="numpy" />
			<input>
				<port id="0" precision="FP32">
					<dim>1</dim>
					<dim>5</dim>
					<dim>384</dim>
					<dim>384</dim>
				</port>
				<port id="1" precision="FP32">
					<dim>1</dim>
					<dim>1</dim>
					<dim>1</dim>
					<dim>384</dim>
				</port>
			</input>
			<output>
				<port id="2" precision="FP32" names="/nncf_module/bert/encoder/layer.0/attention/self/Add_output_0">
					<dim>1</dim>
					<dim>5</dim>
					<dim>384</dim>
					<dim>384</dim>
				</port>
			</output>
		</layer>
		<layer id="207" name="/nncf_module/bert/encoder/layer.0/attention/self/Softmax" type="SoftMax" version="opset8">
			<data axis="-1" />
			<input>
				<port id="0" precision="FP32">
					<dim>1</dim>
					<dim>5</dim>
					<dim>384</dim>
					<dim>384</dim>
				</port>
			</input>
			<output>
				<port id="1" precision="FP32" names="/nncf_module/bert/encoder/layer.0/attention/self/Softmax_output_0">
					<dim>1</dim>
					<dim>5</dim>
					<dim>384</dim>
					<dim>384</dim>
				</port>
			</output>
		</layer>
		<layer id="208" name="Constant_73655" type="Const" version="opset1">
			<data element_type="f32" shape="1, 1, 320" offset="32730128" size="1280" />
			<output>
				<port id="0" precision="FP32">
					<dim>1</dim>
					<dim>1</dim>
					<dim>320</dim>
				</port>
			</output>
		</layer>
		<layer id="209" name="Constant_42448" type="Const" version="opset1">
			<data element_type="f32" shape="1, 1, 1" offset="32731408" size="4" />
			<output>
				<port id="0" precision="FP32">
					<dim>1</dim>
					<dim>1</dim>
					<dim>1</dim>
				</port>
			</output>
		</layer>
		<layer id="210" name="Constant_42449" type="Const" version="opset1">
			<data element_type="f32" shape="1, 1, 1" offset="32731412" size="4" />
			<output>
				<port id="0" precision="FP32">
					<dim>1</dim>
					<dim>1</dim>
					<dim>1</dim>
				</port>
			</output>
		</layer>
		<layer id="211" name="Constant_42450" type="Const" version="opset1">
			<data element_type="f32" shape="1, 1, 1" offset="32731408" size="4" />
			<output>
				<port id="0" precision="FP32">
					<dim>1</dim>
					<dim>1</dim>
					<dim>1</dim>
				</port>
			</output>
		</layer>
		<layer id="212" name="Constant_42451" type="Const" version="opset1">
			<data element_type="f32" shape="1, 1, 1" offset="32731412" size="4" />
			<output>
				<port id="0" precision="FP32">
					<dim>1</dim>
					<dim>1</dim>
					<dim>1</dim>
				</port>
			</output>
		</layer>
		<layer id="213" name="/nncf_module/bert/encoder/layer.0/attention/self/value/BertForQuestionAnswering/BertModel[bert]/BertEncoder[encoder]/ModuleList[layer]/BertLayer[0]/BertAttention[attention]/BertSelfAttention[self]/NNCFLinear[value]/linear_0|INPUT0/FakeQuantize" type="FakeQuantize" version="opset1">
			<data levels="256" auto_broadcast="numpy" />
			<input>
				<port id="0" precision="FP32">
					<dim>1</dim>
					<dim>384</dim>
					<dim>1024</dim>
				</port>
				<port id="1" precision="FP32">
					<dim>1</dim>
					<dim>1</dim>
					<dim>1</dim>
				</port>
				<port id="2" precision="FP32">
					<dim>1</dim>
					<dim>1</dim>
					<dim>1</dim>
				</port>
				<port id="3" precision="FP32">
					<dim>1</dim>
					<dim>1</dim>
					<dim>1</dim>
				</port>
				<port id="4" precision="FP32">
					<dim>1</dim>
					<dim>1</dim>
					<dim>1</dim>
				</port>
			</input>
			<output>
				<port id="5" precision="FP32" names="/nncf_module/bert/encoder/layer.0/attention/self/value/BertForQuestionAnswering/BertModel[bert]/BertEncoder[encoder]/ModuleList[layer]/BertLayer[0]/BertAttention[attention]/BertSelfAttention[self]/NNCFLinear[value]/linear_0|INPUT0/FakeQuantize_output_0">
					<dim>1</dim>
					<dim>384</dim>
					<dim>1024</dim>
				</port>
			</output>
		</layer>
		<layer id="214" name="Constant_73662" type="Const" version="opset1">
			<data element_type="i8" shape="320, 1024" offset="32731416" size="327680" />
			<output>
				<port id="0" precision="I8">
					<dim>320</dim>
					<dim>1024</dim>
				</port>
			</output>
		</layer>
		<layer id="215" name="Convert_45773" type="Convert" version="opset1">
			<data destination_type="f32" />
			<input>
				<port id="0" precision="I8">
					<dim>320</dim>
					<dim>1024</dim>
				</port>
			</input>
			<output>
				<port id="1" precision="FP32">
					<dim>320</dim>
					<dim>1024</dim>
				</port>
			</output>
		</layer>
		<layer id="216" name="Constant_73669" type="Const" version="opset1">
			<data element_type="f32" shape="320, 1" offset="33059096" size="1280" />
			<output>
				<port id="0" precision="FP32">
					<dim>320</dim>
					<dim>1</dim>
				</port>
			</output>
		</layer>
		<layer id="217" name="/nncf_module/bert/encoder/layer.0/attention/self/value/pre_ops.1/op/FakeQuantize" type="Multiply" version="opset1">
			<data auto_broadcast="numpy" />
			<input>
				<port id="0" precision="FP32">
					<dim>320</dim>
					<dim>1024</dim>
				</port>
				<port id="1" precision="FP32">
					<dim>320</dim>
					<dim>1</dim>
				</port>
			</input>
			<output>
				<port id="2" precision="FP32" names="/nncf_module/bert/encoder/layer.0/attention/self/value/pre_ops.1/op/FakeQuantize_output_0">
					<dim>320</dim>
					<dim>1024</dim>
				</port>
			</output>
		</layer>
		<layer id="218" name="/nncf_module/bert/encoder/layer.0/attention/self/value/MatMul" type="MatMul" version="opset1">
			<data transpose_a="false" transpose_b="true" />
			<input>
				<port id="0" precision="FP32">
					<dim>1</dim>
					<dim>384</dim>
					<dim>1024</dim>
				</port>
				<port id="1" precision="FP32">
					<dim>320</dim>
					<dim>1024</dim>
				</port>
			</input>
			<output>
				<port id="2" precision="FP32" names="/nncf_module/bert/encoder/layer.0/attention/self/value/MatMul_output_0">
					<dim>1</dim>
					<dim>384</dim>
					<dim>320</dim>
				</port>
			</output>
		</layer>
		<layer id="219" name="/nncf_module/bert/encoder/layer.0/attention/self/value/Add" type="Add" version="opset1">
			<data auto_broadcast="numpy" />
			<input>
				<port id="0" precision="FP32">
					<dim>1</dim>
					<dim>1</dim>
					<dim>320</dim>
				</port>
				<port id="1" precision="FP32">
					<dim>1</dim>
					<dim>384</dim>
					<dim>320</dim>
				</port>
			</input>
			<output>
				<port id="2" precision="FP32" names="/nncf_module/bert/encoder/layer.0/attention/self/value/Add_output_0">
					<dim>1</dim>
					<dim>384</dim>
					<dim>320</dim>
				</port>
			</output>
		</layer>
		<layer id="220" name="/nncf_module/bert/encoder/layer.0/attention/self/Concat_1" type="Const" version="opset1">
			<data element_type="i64" shape="4" offset="33060376" size="32" />
			<output>
				<port id="0" precision="I64">
					<dim>4</dim>
				</port>
			</output>
		</layer>
		<layer id="221" name="/nncf_module/bert/encoder/layer.0/attention/self/Reshape_1" type="Reshape" version="opset1">
			<data special_zero="true" />
			<input>
				<port id="0" precision="FP32">
					<dim>1</dim>
					<dim>384</dim>
					<dim>320</dim>
				</port>
				<port id="1" precision="I64">
					<dim>4</dim>
				</port>
			</input>
			<output>
				<port id="2" precision="FP32" names="/nncf_module/bert/encoder/layer.0/attention/self/Reshape_1_output_0">
					<dim>1</dim>
					<dim>384</dim>
					<dim>5</dim>
					<dim>64</dim>
				</port>
			</output>
		</layer>
		<layer id="222" name="Constant_460" type="Const" version="opset1">
			<data element_type="i64" shape="4" offset="32399780" size="32" />
			<output>
				<port id="0" precision="I64">
					<dim>4</dim>
				</port>
			</output>
		</layer>
		<layer id="223" name="/nncf_module/bert/encoder/layer.0/attention/self/Transpose" type="Transpose" version="opset1">
			<input>
				<port id="0" precision="FP32">
					<dim>1</dim>
					<dim>384</dim>
					<dim>5</dim>
					<dim>64</dim>
				</port>
				<port id="1" precision="I64">
					<dim>4</dim>
				</port>
			</input>
			<output>
				<port id="2" precision="FP32" names="/nncf_module/bert/encoder/layer.0/attention/self/Transpose_output_0">
					<dim>1</dim>
					<dim>5</dim>
					<dim>384</dim>
					<dim>64</dim>
				</port>
			</output>
		</layer>
		<layer id="224" name="/nncf_module/bert/encoder/layer.0/attention/self/MatMul_1" type="MatMul" version="opset1">
			<data transpose_a="false" transpose_b="false" />
			<input>
				<port id="0" precision="FP32">
					<dim>1</dim>
					<dim>5</dim>
					<dim>384</dim>
					<dim>384</dim>
				</port>
				<port id="1" precision="FP32">
					<dim>1</dim>
					<dim>5</dim>
					<dim>384</dim>
					<dim>64</dim>
				</port>
			</input>
			<output>
				<port id="2" precision="FP32" names="/nncf_module/bert/encoder/layer.0/attention/self/MatMul_1_output_0">
					<dim>1</dim>
					<dim>5</dim>
					<dim>384</dim>
					<dim>64</dim>
				</port>
			</output>
		</layer>
		<layer id="225" name="Constant_42453" type="Const" version="opset1">
			<data element_type="f32" shape="1, 1, 1, 1" offset="33060408" size="4" />
			<output>
				<port id="0" precision="FP32">
					<dim>1</dim>
					<dim>1</dim>
					<dim>1</dim>
					<dim>1</dim>
				</port>
			</output>
		</layer>
		<layer id="226" name="Constant_42454" type="Const" version="opset1">
			<data element_type="f32" shape="1, 1, 1, 1" offset="33060412" size="4" />
			<output>
				<port id="0" precision="FP32">
					<dim>1</dim>
					<dim>1</dim>
					<dim>1</dim>
					<dim>1</dim>
				</port>
			</output>
		</layer>
		<layer id="227" name="Constant_42455" type="Const" version="opset1">
			<data element_type="f32" shape="1, 1, 1, 1" offset="33060408" size="4" />
			<output>
				<port id="0" precision="FP32">
					<dim>1</dim>
					<dim>1</dim>
					<dim>1</dim>
					<dim>1</dim>
				</port>
			</output>
		</layer>
		<layer id="228" name="Constant_42456" type="Const" version="opset1">
			<data element_type="f32" shape="1, 1, 1, 1" offset="33060412" size="4" />
			<output>
				<port id="0" precision="FP32">
					<dim>1</dim>
					<dim>1</dim>
					<dim>1</dim>
					<dim>1</dim>
				</port>
			</output>
		</layer>
		<layer id="229" name="/nncf_module/bert/encoder/layer.0/attention/self/BertForQuestionAnswering/BertModel[bert]/BertEncoder[encoder]/ModuleList[layer]/BertLayer[0]/BertAttention[attention]/BertSelfAttention[self]/matmul_1|OUTPUT/FakeQuantize" type="FakeQuantize" version="opset1">
			<data levels="256" auto_broadcast="numpy" />
			<input>
				<port id="0" precision="FP32">
					<dim>1</dim>
					<dim>5</dim>
					<dim>384</dim>
					<dim>64</dim>
				</port>
				<port id="1" precision="FP32">
					<dim>1</dim>
					<dim>1</dim>
					<dim>1</dim>
					<dim>1</dim>
				</port>
				<port id="2" precision="FP32">
					<dim>1</dim>
					<dim>1</dim>
					<dim>1</dim>
					<dim>1</dim>
				</port>
				<port id="3" precision="FP32">
					<dim>1</dim>
					<dim>1</dim>
					<dim>1</dim>
					<dim>1</dim>
				</port>
				<port id="4" precision="FP32">
					<dim>1</dim>
					<dim>1</dim>
					<dim>1</dim>
					<dim>1</dim>
				</port>
			</input>
			<output>
				<port id="5" precision="FP32" names="/nncf_module/bert/encoder/layer.0/attention/self/BertForQuestionAnswering/BertModel[bert]/BertEncoder[encoder]/ModuleList[layer]/BertLayer[0]/BertAttention[attention]/BertSelfAttention[self]/matmul_1|OUTPUT/FakeQuantize_output_0">
					<dim>1</dim>
					<dim>5</dim>
					<dim>384</dim>
					<dim>64</dim>
				</port>
			</output>
		</layer>
		<layer id="230" name="Constant_538" type="Const" version="opset1">
			<data element_type="i64" shape="4" offset="32399780" size="32" />
			<output>
				<port id="0" precision="I64">
					<dim>4</dim>
				</port>
			</output>
		</layer>
		<layer id="231" name="/nncf_module/bert/encoder/layer.0/attention/self/Transpose_3" type="Transpose" version="opset1">
			<input>
				<port id="0" precision="FP32">
					<dim>1</dim>
					<dim>5</dim>
					<dim>384</dim>
					<dim>64</dim>
				</port>
				<port id="1" precision="I64">
					<dim>4</dim>
				</port>
			</input>
			<output>
				<port id="2" precision="FP32" names="/nncf_module/bert/encoder/layer.0/attention/self/Transpose_3_output_0">
					<dim>1</dim>
					<dim>384</dim>
					<dim>5</dim>
					<dim>64</dim>
				</port>
			</output>
		</layer>
		<layer id="232" name="/nncf_module/bert/encoder/layer.0/attention/self/Concat_3" type="Const" version="opset1">
			<data element_type="i64" shape="3" offset="33060416" size="24" />
			<output>
				<port id="0" precision="I64">
					<dim>3</dim>
				</port>
			</output>
		</layer>
		<layer id="233" name="/nncf_module/bert/encoder/layer.0/attention/self/Reshape_3" type="Reshape" version="opset1">
			<data special_zero="true" />
			<input>
				<port id="0" precision="FP32">
					<dim>1</dim>
					<dim>384</dim>
					<dim>5</dim>
					<dim>64</dim>
				</port>
				<port id="1" precision="I64">
					<dim>3</dim>
				</port>
			</input>
			<output>
				<port id="2" precision="FP32" names="/nncf_module/bert/encoder/layer.0/attention/self/Reshape_3_output_0">
					<dim>1</dim>
					<dim>384</dim>
					<dim>320</dim>
				</port>
			</output>
		</layer>
		<layer id="234" name="Constant_73688" type="Const" version="opset1">
			<data element_type="i8" shape="1024, 320" offset="33060440" size="327680" />
			<output>
				<port id="0" precision="I8">
					<dim>1024</dim>
					<dim>320</dim>
				</port>
			</output>
		</layer>
		<layer id="235" name="Convert_45894" type="Convert" version="opset1">
			<data destination_type="f32" />
			<input>
				<port id="0" precision="I8">
					<dim>1024</dim>
					<dim>320</dim>
				</port>
			</input>
			<output>
				<port id="1" precision="FP32">
					<dim>1024</dim>
					<dim>320</dim>
				</port>
			</output>
		</layer>
		<layer id="236" name="Constant_45831" type="Const" version="opset1">
			<data element_type="f32" shape="1024, 1" offset="33388120" size="4096" />
			<output>
				<port id="0" precision="FP32">
					<dim>1024</dim>
					<dim>1</dim>
				</port>
			</output>
		</layer>
		<layer id="237" name="/nncf_module/bert/encoder/layer.0/attention/output/dense/pre_ops.1/op/FakeQuantize" type="Multiply" version="opset1">
			<data auto_broadcast="numpy" />
			<input>
				<port id="0" precision="FP32">
					<dim>1024</dim>
					<dim>320</dim>
				</port>
				<port id="1" precision="FP32">
					<dim>1024</dim>
					<dim>1</dim>
				</port>
			</input>
			<output>
				<port id="2" precision="FP32" names="/nncf_module/bert/encoder/layer.0/attention/output/dense/pre_ops.1/op/FakeQuantize_output_0">
					<dim>1024</dim>
					<dim>320</dim>
				</port>
			</output>
		</layer>
		<layer id="238" name="/nncf_module/bert/encoder/layer.0/attention/output/dense/MatMul" type="MatMul" version="opset1">
			<data transpose_a="false" transpose_b="true" />
			<input>
				<port id="0" precision="FP32">
					<dim>1</dim>
					<dim>384</dim>
					<dim>320</dim>
				</port>
				<port id="1" precision="FP32">
					<dim>1024</dim>
					<dim>320</dim>
				</port>
			</input>
			<output>
				<port id="2" precision="FP32" names="/nncf_module/bert/encoder/layer.0/attention/output/dense/MatMul_output_0">
					<dim>1</dim>
					<dim>384</dim>
					<dim>1024</dim>
				</port>
			</output>
		</layer>
		<layer id="239" name="/nncf_module/bert/encoder/layer.0/attention/output/dense/Add" type="Add" version="opset1">
			<data auto_broadcast="numpy" />
			<input>
				<port id="0" precision="FP32">
					<dim>1</dim>
					<dim>1</dim>
					<dim>1024</dim>
				</port>
				<port id="1" precision="FP32">
					<dim>1</dim>
					<dim>384</dim>
					<dim>1024</dim>
				</port>
			</input>
			<output>
				<port id="2" precision="FP32" names="/nncf_module/bert/encoder/layer.0/attention/output/dense/Add_output_0">
					<dim>1</dim>
					<dim>384</dim>
					<dim>1024</dim>
				</port>
			</output>
		</layer>
		<layer id="240" name="/nncf_module/bert/encoder/layer.0/attention/output/Add" type="Add" version="opset1">
			<data auto_broadcast="numpy" />
			<input>
				<port id="0" precision="FP32">
					<dim>1</dim>
					<dim>384</dim>
					<dim>1024</dim>
				</port>
				<port id="1" precision="FP32">
					<dim>1</dim>
					<dim>384</dim>
					<dim>1024</dim>
				</port>
			</input>
			<output>
				<port id="2" precision="FP32" names="/nncf_module/bert/encoder/layer.0/attention/output/Add_output_0">
					<dim>1</dim>
					<dim>384</dim>
					<dim>1024</dim>
				</port>
			</output>
		</layer>
		<layer id="241" name="Constant_608" type="Const" version="opset1">
			<data element_type="i64" shape="1" offset="32062540" size="8" />
			<output>
				<port id="0" precision="I64">
					<dim>1</dim>
				</port>
			</output>
		</layer>
		<layer id="242" name="/nncf_module/bert/encoder/layer.0/attention/output/LayerNorm/Div" type="MVN" version="opset6">
			<data eps="9.999999960041972e-13" normalize_variance="true" eps_mode="INSIDE_SQRT" />
			<input>
				<port id="0" precision="FP32">
					<dim>1</dim>
					<dim>384</dim>
					<dim>1024</dim>
				</port>
				<port id="1" precision="I64">
					<dim>1</dim>
				</port>
			</input>
			<output>
				<port id="2" precision="FP32" names="/nncf_module/bert/encoder/layer.0/attention/output/LayerNorm/Div_output_0">
					<dim>1</dim>
					<dim>384</dim>
					<dim>1024</dim>
				</port>
			</output>
		</layer>
		<layer id="243" name="Constant_42458" type="Const" version="opset1">
			<data element_type="f32" shape="1, 1, 1024" offset="33392216" size="4096" />
			<output>
				<port id="0" precision="FP32">
					<dim>1</dim>
					<dim>1</dim>
					<dim>1024</dim>
				</port>
			</output>
		</layer>
		<layer id="244" name="/nncf_module/bert/encoder/layer.0/attention/output/LayerNorm/Mul" type="Multiply" version="opset1">
			<data auto_broadcast="numpy" />
			<input>
				<port id="0" precision="FP32">
					<dim>1</dim>
					<dim>384</dim>
					<dim>1024</dim>
				</port>
				<port id="1" precision="FP32">
					<dim>1</dim>
					<dim>1</dim>
					<dim>1024</dim>
				</port>
			</input>
			<output>
				<port id="2" precision="FP32" names="/nncf_module/bert/encoder/layer.0/attention/output/LayerNorm/Mul_output_0">
					<dim>1</dim>
					<dim>384</dim>
					<dim>1024</dim>
				</port>
			</output>
		</layer>
		<layer id="245" name="Constant_42459" type="Const" version="opset1">
			<data element_type="f32" shape="1, 1, 1024" offset="33396312" size="4096" />
			<output>
				<port id="0" precision="FP32">
					<dim>1</dim>
					<dim>1</dim>
					<dim>1024</dim>
				</port>
			</output>
		</layer>
		<layer id="246" name="/nncf_module/bert/encoder/layer.0/attention/output/LayerNorm/Add_1" type="Add" version="opset1">
			<data auto_broadcast="numpy" />
			<input>
				<port id="0" precision="FP32">
					<dim>1</dim>
					<dim>384</dim>
					<dim>1024</dim>
				</port>
				<port id="1" precision="FP32">
					<dim>1</dim>
					<dim>1</dim>
					<dim>1024</dim>
				</port>
			</input>
			<output>
				<port id="2" precision="FP32" names="/nncf_module/bert/encoder/layer.0/attention/output/LayerNorm/Add_1_output_0">
					<dim>1</dim>
					<dim>384</dim>
					<dim>1024</dim>
				</port>
			</output>
		</layer>
		<layer id="247" name="Constant_42460" type="Const" version="opset1">
			<data element_type="f32" shape="1, 1, 1" offset="33400408" size="4" />
			<output>
				<port id="0" precision="FP32">
					<dim>1</dim>
					<dim>1</dim>
					<dim>1</dim>
				</port>
			</output>
		</layer>
		<layer id="248" name="Constant_42461" type="Const" version="opset1">
			<data element_type="f32" shape="1, 1, 1" offset="33400412" size="4" />
			<output>
				<port id="0" precision="FP32">
					<dim>1</dim>
					<dim>1</dim>
					<dim>1</dim>
				</port>
			</output>
		</layer>
		<layer id="249" name="Constant_42462" type="Const" version="opset1">
			<data element_type="f32" shape="1, 1, 1" offset="33400408" size="4" />
			<output>
				<port id="0" precision="FP32">
					<dim>1</dim>
					<dim>1</dim>
					<dim>1</dim>
				</port>
			</output>
		</layer>
		<layer id="250" name="Constant_42463" type="Const" version="opset1">
			<data element_type="f32" shape="1, 1, 1" offset="33400412" size="4" />
			<output>
				<port id="0" precision="FP32">
					<dim>1</dim>
					<dim>1</dim>
					<dim>1</dim>
				</port>
			</output>
		</layer>
		<layer id="251" name="/nncf_module/bert/encoder/layer.0/intermediate/dense/BertForQuestionAnswering/BertModel[bert]/BertEncoder[encoder]/ModuleList[layer]/BertLayer[0]/BertIntermediate[intermediate]/NNCFLinear[dense]/linear_0|INPUT0/FakeQuantize" type="FakeQuantize" version="opset1">
			<data levels="256" auto_broadcast="numpy" />
			<input>
				<port id="0" precision="FP32">
					<dim>1</dim>
					<dim>384</dim>
					<dim>1024</dim>
				</port>
				<port id="1" precision="FP32">
					<dim>1</dim>
					<dim>1</dim>
					<dim>1</dim>
				</port>
				<port id="2" precision="FP32">
					<dim>1</dim>
					<dim>1</dim>
					<dim>1</dim>
				</port>
				<port id="3" precision="FP32">
					<dim>1</dim>
					<dim>1</dim>
					<dim>1</dim>
				</port>
				<port id="4" precision="FP32">
					<dim>1</dim>
					<dim>1</dim>
					<dim>1</dim>
				</port>
			</input>
			<output>
				<port id="5" precision="FP32" names="/nncf_module/bert/encoder/layer.0/intermediate/dense/BertForQuestionAnswering/BertModel[bert]/BertEncoder[encoder]/ModuleList[layer]/BertLayer[0]/BertIntermediate[intermediate]/NNCFLinear[dense]/linear_0|INPUT0/FakeQuantize_output_0">
					<dim>1</dim>
					<dim>384</dim>
					<dim>1024</dim>
				</port>
			</output>
		</layer>
		<layer id="252" name="Constant_73695" type="Const" version="opset1">
			<data element_type="i8" shape="642, 1024" offset="33400416" size="657408" />
			<output>
				<port id="0" precision="I8">
					<dim>642</dim>
					<dim>1024</dim>
				</port>
			</output>
		</layer>
		<layer id="253" name="Convert_46015" type="Convert" version="opset1">
			<data destination_type="f32" />
			<input>
				<port id="0" precision="I8">
					<dim>642</dim>
					<dim>1024</dim>
				</port>
			</input>
			<output>
				<port id="1" precision="FP32">
					<dim>642</dim>
					<dim>1024</dim>
				</port>
			</output>
		</layer>
		<layer id="254" name="Constant_73702" type="Const" version="opset1">
			<data element_type="f32" shape="642, 1" offset="34057824" size="2568" />
			<output>
				<port id="0" precision="FP32">
					<dim>642</dim>
					<dim>1</dim>
				</port>
			</output>
		</layer>
		<layer id="255" name="/nncf_module/bert/encoder/layer.0/intermediate/dense/pre_ops.1/op/FakeQuantize" type="Multiply" version="opset1">
			<data auto_broadcast="numpy" />
			<input>
				<port id="0" precision="FP32">
					<dim>642</dim>
					<dim>1024</dim>
				</port>
				<port id="1" precision="FP32">
					<dim>642</dim>
					<dim>1</dim>
				</port>
			</input>
			<output>
				<port id="2" precision="FP32" names="/nncf_module/bert/encoder/layer.0/intermediate/dense/pre_ops.1/op/FakeQuantize_output_0">
					<dim>642</dim>
					<dim>1024</dim>
				</port>
			</output>
		</layer>
		<layer id="256" name="/nncf_module/bert/encoder/layer.0/intermediate/dense/MatMul" type="MatMul" version="opset1">
			<data transpose_a="false" transpose_b="true" />
			<input>
				<port id="0" precision="FP32">
					<dim>1</dim>
					<dim>384</dim>
					<dim>1024</dim>
				</port>
				<port id="1" precision="FP32">
					<dim>642</dim>
					<dim>1024</dim>
				</port>
			</input>
			<output>
				<port id="2" precision="FP32" names="/nncf_module/bert/encoder/layer.0/intermediate/dense/MatMul_output_0">
					<dim>1</dim>
					<dim>384</dim>
					<dim>642</dim>
				</port>
			</output>
		</layer>
		<layer id="257" name="/nncf_module/bert/encoder/layer.0/intermediate/dense/Add" type="Add" version="opset1">
			<data auto_broadcast="numpy" />
			<input>
				<port id="0" precision="FP32">
					<dim>1</dim>
					<dim>1</dim>
					<dim>642</dim>
				</port>
				<port id="1" precision="FP32">
					<dim>1</dim>
					<dim>384</dim>
					<dim>642</dim>
				</port>
			</input>
			<output>
				<port id="2" precision="FP32" names="/nncf_module/bert/encoder/layer.0/intermediate/dense/Add_output_0">
					<dim>1</dim>
					<dim>384</dim>
					<dim>642</dim>
				</port>
			</output>
		</layer>
		<layer id="258" name="/nncf_module/bert/encoder/layer.0/intermediate/intermediate_act_fn/Mul_1" type="Gelu" version="opset7">
			<data approximation_mode="ERF" />
			<input>
				<port id="0" precision="FP32">
					<dim>1</dim>
					<dim>384</dim>
					<dim>642</dim>
				</port>
			</input>
			<output>
				<port id="1" precision="FP32" names="/nncf_module/bert/encoder/layer.0/intermediate/intermediate_act_fn/Mul_1_output_0">
					<dim>1</dim>
					<dim>384</dim>
					<dim>642</dim>
				</port>
			</output>
		</layer>
		<layer id="259" name="Constant_42465" type="Const" version="opset1">
			<data element_type="f32" shape="1, 1, 1" offset="34060392" size="4" />
			<output>
				<port id="0" precision="FP32">
					<dim>1</dim>
					<dim>1</dim>
					<dim>1</dim>
				</port>
			</output>
		</layer>
		<layer id="260" name="Constant_42466" type="Const" version="opset1">
			<data element_type="f32" shape="1, 1, 1" offset="34060396" size="4" />
			<output>
				<port id="0" precision="FP32">
					<dim>1</dim>
					<dim>1</dim>
					<dim>1</dim>
				</port>
			</output>
		</layer>
		<layer id="261" name="Constant_42467" type="Const" version="opset1">
			<data element_type="f32" shape="1, 1, 1" offset="34060392" size="4" />
			<output>
				<port id="0" precision="FP32">
					<dim>1</dim>
					<dim>1</dim>
					<dim>1</dim>
				</port>
			</output>
		</layer>
		<layer id="262" name="Constant_42468" type="Const" version="opset1">
			<data element_type="f32" shape="1, 1, 1" offset="34060396" size="4" />
			<output>
				<port id="0" precision="FP32">
					<dim>1</dim>
					<dim>1</dim>
					<dim>1</dim>
				</port>
			</output>
		</layer>
		<layer id="263" name="/nncf_module/bert/encoder/layer.0/intermediate/intermediate_act_fn/BertForQuestionAnswering/BertModel[bert]/BertEncoder[encoder]/ModuleList[layer]/BertLayer[0]/BertIntermediate[intermediate]/GELUActivation[intermediate_act_fn]/gelu_0|OUTPUT/FakeQuantize" type="FakeQuantize" version="opset1">
			<data levels="256" auto_broadcast="numpy" />
			<input>
				<port id="0" precision="FP32">
					<dim>1</dim>
					<dim>384</dim>
					<dim>642</dim>
				</port>
				<port id="1" precision="FP32">
					<dim>1</dim>
					<dim>1</dim>
					<dim>1</dim>
				</port>
				<port id="2" precision="FP32">
					<dim>1</dim>
					<dim>1</dim>
					<dim>1</dim>
				</port>
				<port id="3" precision="FP32">
					<dim>1</dim>
					<dim>1</dim>
					<dim>1</dim>
				</port>
				<port id="4" precision="FP32">
					<dim>1</dim>
					<dim>1</dim>
					<dim>1</dim>
				</port>
			</input>
			<output>
				<port id="5" precision="FP32" names="/nncf_module/bert/encoder/layer.0/intermediate/intermediate_act_fn/BertForQuestionAnswering/BertModel[bert]/BertEncoder[encoder]/ModuleList[layer]/BertLayer[0]/BertIntermediate[intermediate]/GELUActivation[intermediate_act_fn]/gelu_0|OUTPUT/FakeQuantize_output_0">
					<dim>1</dim>
					<dim>384</dim>
					<dim>642</dim>
				</port>
			</output>
		</layer>
		<layer id="264" name="Constant_73709" type="Const" version="opset1">
			<data element_type="i8" shape="1024, 642" offset="34060400" size="657408" />
			<output>
				<port id="0" precision="I8">
					<dim>1024</dim>
					<dim>642</dim>
				</port>
			</output>
		</layer>
		<layer id="265" name="Convert_46136" type="Convert" version="opset1">
			<data destination_type="f32" />
			<input>
				<port id="0" precision="I8">
					<dim>1024</dim>
					<dim>642</dim>
				</port>
			</input>
			<output>
				<port id="1" precision="FP32">
					<dim>1024</dim>
					<dim>642</dim>
				</port>
			</output>
		</layer>
		<layer id="266" name="Constant_46073" type="Const" version="opset1">
			<data element_type="f32" shape="1024, 1" offset="34717808" size="4096" />
			<output>
				<port id="0" precision="FP32">
					<dim>1024</dim>
					<dim>1</dim>
				</port>
			</output>
		</layer>
		<layer id="267" name="/nncf_module/bert/encoder/layer.0/output/dense/pre_ops.1/op/FakeQuantize" type="Multiply" version="opset1">
			<data auto_broadcast="numpy" />
			<input>
				<port id="0" precision="FP32">
					<dim>1024</dim>
					<dim>642</dim>
				</port>
				<port id="1" precision="FP32">
					<dim>1024</dim>
					<dim>1</dim>
				</port>
			</input>
			<output>
				<port id="2" precision="FP32" names="/nncf_module/bert/encoder/layer.0/output/dense/pre_ops.1/op/FakeQuantize_output_0">
					<dim>1024</dim>
					<dim>642</dim>
				</port>
			</output>
		</layer>
		<layer id="268" name="/nncf_module/bert/encoder/layer.0/output/dense/MatMul" type="MatMul" version="opset1">
			<data transpose_a="false" transpose_b="true" />
			<input>
				<port id="0" precision="FP32">
					<dim>1</dim>
					<dim>384</dim>
					<dim>642</dim>
				</port>
				<port id="1" precision="FP32">
					<dim>1024</dim>
					<dim>642</dim>
				</port>
			</input>
			<output>
				<port id="2" precision="FP32" names="/nncf_module/bert/encoder/layer.0/output/dense/MatMul_output_0">
					<dim>1</dim>
					<dim>384</dim>
					<dim>1024</dim>
				</port>
			</output>
		</layer>
		<layer id="269" name="/nncf_module/bert/encoder/layer.0/output/dense/Add" type="Add" version="opset1">
			<data auto_broadcast="numpy" />
			<input>
				<port id="0" precision="FP32">
					<dim>1</dim>
					<dim>1</dim>
					<dim>1024</dim>
				</port>
				<port id="1" precision="FP32">
					<dim>1</dim>
					<dim>384</dim>
					<dim>1024</dim>
				</port>
			</input>
			<output>
				<port id="2" precision="FP32" names="/nncf_module/bert/encoder/layer.0/output/dense/Add_output_0">
					<dim>1</dim>
					<dim>384</dim>
					<dim>1024</dim>
				</port>
			</output>
		</layer>
		<layer id="270" name="/nncf_module/bert/encoder/layer.0/output/Add" type="Add" version="opset1">
			<data auto_broadcast="numpy" />
			<input>
				<port id="0" precision="FP32">
					<dim>1</dim>
					<dim>384</dim>
					<dim>1024</dim>
				</port>
				<port id="1" precision="FP32">
					<dim>1</dim>
					<dim>384</dim>
					<dim>1024</dim>
				</port>
			</input>
			<output>
				<port id="2" precision="FP32" names="/nncf_module/bert/encoder/layer.0/output/Add_output_0">
					<dim>1</dim>
					<dim>384</dim>
					<dim>1024</dim>
				</port>
			</output>
		</layer>
		<layer id="271" name="Constant_652" type="Const" version="opset1">
			<data element_type="i64" shape="1" offset="32062540" size="8" />
			<output>
				<port id="0" precision="I64">
					<dim>1</dim>
				</port>
			</output>
		</layer>
		<layer id="272" name="/nncf_module/bert/encoder/layer.0/output/LayerNorm/Div" type="MVN" version="opset6">
			<data eps="9.999999960041972e-13" normalize_variance="true" eps_mode="INSIDE_SQRT" />
			<input>
				<port id="0" precision="FP32">
					<dim>1</dim>
					<dim>384</dim>
					<dim>1024</dim>
				</port>
				<port id="1" precision="I64">
					<dim>1</dim>
				</port>
			</input>
			<output>
				<port id="2" precision="FP32" names="/nncf_module/bert/encoder/layer.0/output/LayerNorm/Div_output_0">
					<dim>1</dim>
					<dim>384</dim>
					<dim>1024</dim>
				</port>
			</output>
		</layer>
		<layer id="273" name="Constant_42470" type="Const" version="opset1">
			<data element_type="f32" shape="1, 1, 1024" offset="34721904" size="4096" />
			<output>
				<port id="0" precision="FP32">
					<dim>1</dim>
					<dim>1</dim>
					<dim>1024</dim>
				</port>
			</output>
		</layer>
		<layer id="274" name="/nncf_module/bert/encoder/layer.0/output/LayerNorm/Mul" type="Multiply" version="opset1">
			<data auto_broadcast="numpy" />
			<input>
				<port id="0" precision="FP32">
					<dim>1</dim>
					<dim>384</dim>
					<dim>1024</dim>
				</port>
				<port id="1" precision="FP32">
					<dim>1</dim>
					<dim>1</dim>
					<dim>1024</dim>
				</port>
			</input>
			<output>
				<port id="2" precision="FP32" names="/nncf_module/bert/encoder/layer.0/output/LayerNorm/Mul_output_0">
					<dim>1</dim>
					<dim>384</dim>
					<dim>1024</dim>
				</port>
			</output>
		</layer>
		<layer id="275" name="Constant_42471" type="Const" version="opset1">
			<data element_type="f32" shape="1, 1, 1024" offset="34726000" size="4096" />
			<output>
				<port id="0" precision="FP32">
					<dim>1</dim>
					<dim>1</dim>
					<dim>1024</dim>
				</port>
			</output>
		</layer>
		<layer id="276" name="/nncf_module/bert/encoder/layer.0/output/LayerNorm/Add_1" type="Add" version="opset1">
			<data auto_broadcast="numpy" />
			<input>
				<port id="0" precision="FP32">
					<dim>1</dim>
					<dim>384</dim>
					<dim>1024</dim>
				</port>
				<port id="1" precision="FP32">
					<dim>1</dim>
					<dim>1</dim>
					<dim>1024</dim>
				</port>
			</input>
			<output>
				<port id="2" precision="FP32" names="/nncf_module/bert/encoder/layer.0/output/LayerNorm/Add_1_output_0">
					<dim>1</dim>
					<dim>384</dim>
					<dim>1024</dim>
				</port>
			</output>
		</layer>
		<layer id="277" name="Constant_42472" type="Const" version="opset1">
			<data element_type="f32" shape="1, 1, 1" offset="34730096" size="4" />
			<output>
				<port id="0" precision="FP32">
					<dim>1</dim>
					<dim>1</dim>
					<dim>1</dim>
				</port>
			</output>
		</layer>
		<layer id="278" name="Constant_42473" type="Const" version="opset1">
			<data element_type="f32" shape="1, 1, 1" offset="34730100" size="4" />
			<output>
				<port id="0" precision="FP32">
					<dim>1</dim>
					<dim>1</dim>
					<dim>1</dim>
				</port>
			</output>
		</layer>
		<layer id="279" name="Constant_42474" type="Const" version="opset1">
			<data element_type="f32" shape="1, 1, 1" offset="34730096" size="4" />
			<output>
				<port id="0" precision="FP32">
					<dim>1</dim>
					<dim>1</dim>
					<dim>1</dim>
				</port>
			</output>
		</layer>
		<layer id="280" name="Constant_42475" type="Const" version="opset1">
			<data element_type="f32" shape="1, 1, 1" offset="34730100" size="4" />
			<output>
				<port id="0" precision="FP32">
					<dim>1</dim>
					<dim>1</dim>
					<dim>1</dim>
				</port>
			</output>
		</layer>
		<layer id="281" name="/nncf_module/bert/encoder/layer.1/attention/self/query/BertForQuestionAnswering/BertModel[bert]/BertEncoder[encoder]/ModuleList[layer]/BertLayer[1]/BertAttention[attention]/BertSelfAttention[self]/NNCFLinear[query]/linear_0|INPUT0/FakeQuantize" type="FakeQuantize" version="opset1">
			<data levels="256" auto_broadcast="numpy" />
			<input>
				<port id="0" precision="FP32">
					<dim>1</dim>
					<dim>384</dim>
					<dim>1024</dim>
				</port>
				<port id="1" precision="FP32">
					<dim>1</dim>
					<dim>1</dim>
					<dim>1</dim>
				</port>
				<port id="2" precision="FP32">
					<dim>1</dim>
					<dim>1</dim>
					<dim>1</dim>
				</port>
				<port id="3" precision="FP32">
					<dim>1</dim>
					<dim>1</dim>
					<dim>1</dim>
				</port>
				<port id="4" precision="FP32">
					<dim>1</dim>
					<dim>1</dim>
					<dim>1</dim>
				</port>
			</input>
			<output>
				<port id="5" precision="FP32" names="/nncf_module/bert/encoder/layer.1/attention/self/query/BertForQuestionAnswering/BertModel[bert]/BertEncoder[encoder]/ModuleList[layer]/BertLayer[1]/BertAttention[attention]/BertSelfAttention[self]/NNCFLinear[query]/linear_0|INPUT0/FakeQuantize_output_0">
					<dim>1</dim>
					<dim>384</dim>
					<dim>1024</dim>
				</port>
			</output>
		</layer>
		<layer id="282" name="Constant_73716" type="Const" version="opset1">
			<data element_type="i8" shape="192, 1024" offset="34730104" size="196608" />
			<output>
				<port id="0" precision="I8">
					<dim>192</dim>
					<dim>1024</dim>
				</port>
			</output>
		</layer>
		<layer id="283" name="Convert_46257" type="Convert" version="opset1">
			<data destination_type="f32" />
			<input>
				<port id="0" precision="I8">
					<dim>192</dim>
					<dim>1024</dim>
				</port>
			</input>
			<output>
				<port id="1" precision="FP32">
					<dim>192</dim>
					<dim>1024</dim>
				</port>
			</output>
		</layer>
		<layer id="284" name="Constant_73723" type="Const" version="opset1">
			<data element_type="f32" shape="192, 1" offset="34926712" size="768" />
			<output>
				<port id="0" precision="FP32">
					<dim>192</dim>
					<dim>1</dim>
				</port>
			</output>
		</layer>
		<layer id="285" name="/nncf_module/bert/encoder/layer.1/attention/self/query/pre_ops.1/op/FakeQuantize" type="Multiply" version="opset1">
			<data auto_broadcast="numpy" />
			<input>
				<port id="0" precision="FP32">
					<dim>192</dim>
					<dim>1024</dim>
				</port>
				<port id="1" precision="FP32">
					<dim>192</dim>
					<dim>1</dim>
				</port>
			</input>
			<output>
				<port id="2" precision="FP32" names="/nncf_module/bert/encoder/layer.1/attention/self/query/pre_ops.1/op/FakeQuantize_output_0">
					<dim>192</dim>
					<dim>1024</dim>
				</port>
			</output>
		</layer>
		<layer id="286" name="/nncf_module/bert/encoder/layer.1/attention/self/query/MatMul" type="MatMul" version="opset1">
			<data transpose_a="false" transpose_b="true" />
			<input>
				<port id="0" precision="FP32">
					<dim>1</dim>
					<dim>384</dim>
					<dim>1024</dim>
				</port>
				<port id="1" precision="FP32">
					<dim>192</dim>
					<dim>1024</dim>
				</port>
			</input>
			<output>
				<port id="2" precision="FP32" names="/nncf_module/bert/encoder/layer.1/attention/self/query/MatMul_output_0">
					<dim>1</dim>
					<dim>384</dim>
					<dim>192</dim>
				</port>
			</output>
		</layer>
		<layer id="287" name="/nncf_module/bert/encoder/layer.1/attention/self/query/Add" type="Add" version="opset1">
			<data auto_broadcast="numpy" />
			<input>
				<port id="0" precision="FP32">
					<dim>1</dim>
					<dim>1</dim>
					<dim>192</dim>
				</port>
				<port id="1" precision="FP32">
					<dim>1</dim>
					<dim>384</dim>
					<dim>192</dim>
				</port>
			</input>
			<output>
				<port id="2" precision="FP32" names="/nncf_module/bert/encoder/layer.1/attention/self/query/Add_output_0">
					<dim>1</dim>
					<dim>384</dim>
					<dim>192</dim>
				</port>
			</output>
		</layer>
		<layer id="288" name="Constant_42477" type="Const" version="opset1">
			<data element_type="f32" shape="1, 1, 1" offset="34927480" size="4" />
			<output>
				<port id="0" precision="FP32">
					<dim>1</dim>
					<dim>1</dim>
					<dim>1</dim>
				</port>
			</output>
		</layer>
		<layer id="289" name="Constant_42478" type="Const" version="opset1">
			<data element_type="f32" shape="1, 1, 1" offset="34927484" size="4" />
			<output>
				<port id="0" precision="FP32">
					<dim>1</dim>
					<dim>1</dim>
					<dim>1</dim>
				</port>
			</output>
		</layer>
		<layer id="290" name="Constant_42479" type="Const" version="opset1">
			<data element_type="f32" shape="1, 1, 1" offset="34927480" size="4" />
			<output>
				<port id="0" precision="FP32">
					<dim>1</dim>
					<dim>1</dim>
					<dim>1</dim>
				</port>
			</output>
		</layer>
		<layer id="291" name="Constant_42480" type="Const" version="opset1">
			<data element_type="f32" shape="1, 1, 1" offset="34927484" size="4" />
			<output>
				<port id="0" precision="FP32">
					<dim>1</dim>
					<dim>1</dim>
					<dim>1</dim>
				</port>
			</output>
		</layer>
		<layer id="292" name="/nncf_module/bert/encoder/layer.1/attention/self/query/BertForQuestionAnswering/BertModel[bert]/BertEncoder[encoder]/ModuleList[layer]/BertLayer[1]/BertAttention[attention]/BertSelfAttention[self]/NNCFLinear[query]/linear_0|OUTPUT/FakeQuantize" type="FakeQuantize" version="opset1">
			<data levels="256" auto_broadcast="numpy" />
			<input>
				<port id="0" precision="FP32">
					<dim>1</dim>
					<dim>384</dim>
					<dim>192</dim>
				</port>
				<port id="1" precision="FP32">
					<dim>1</dim>
					<dim>1</dim>
					<dim>1</dim>
				</port>
				<port id="2" precision="FP32">
					<dim>1</dim>
					<dim>1</dim>
					<dim>1</dim>
				</port>
				<port id="3" precision="FP32">
					<dim>1</dim>
					<dim>1</dim>
					<dim>1</dim>
				</port>
				<port id="4" precision="FP32">
					<dim>1</dim>
					<dim>1</dim>
					<dim>1</dim>
				</port>
			</input>
			<output>
				<port id="5" precision="FP32" names="/nncf_module/bert/encoder/layer.1/attention/self/query/BertForQuestionAnswering/BertModel[bert]/BertEncoder[encoder]/ModuleList[layer]/BertLayer[1]/BertAttention[attention]/BertSelfAttention[self]/NNCFLinear[query]/linear_0|OUTPUT/FakeQuantize_output_0">
					<dim>1</dim>
					<dim>384</dim>
					<dim>192</dim>
				</port>
			</output>
		</layer>
		<layer id="293" name="/nncf_module/bert/encoder/layer.1/attention/self/Shape_4" type="ShapeOf" version="opset3">
			<data output_type="i64" />
			<input>
				<port id="0" precision="FP32">
					<dim>1</dim>
					<dim>384</dim>
					<dim>192</dim>
				</port>
			</input>
			<output>
				<port id="1" precision="I64" names="/nncf_module/bert/encoder/layer.1/attention/self/Shape_4_output_0,/nncf_module/bert/encoder/layer.1/attention/self/Shape_5_output_0">
					<dim>3</dim>
				</port>
			</output>
		</layer>
		<layer id="294" name="Constant_32089" type="Const" version="opset1">
			<data element_type="i64" shape="2" offset="32399716" size="16" />
			<output>
				<port id="0" precision="I64">
					<dim>2</dim>
				</port>
			</output>
		</layer>
		<layer id="295" name="Constant_32090" type="Const" version="opset1">
			<data element_type="i64" shape="" offset="31533100" size="8" />
			<output>
				<port id="0" precision="I64" />
			</output>
		</layer>
		<layer id="296" name="Gather_32091" type="Gather" version="opset8">
			<data batch_dims="0" />
			<input>
				<port id="0" precision="I64">
					<dim>3</dim>
				</port>
				<port id="1" precision="I64">
					<dim>2</dim>
				</port>
				<port id="2" precision="I64" />
			</input>
			<output>
				<port id="3" precision="I64">
					<dim>2</dim>
				</port>
			</output>
		</layer>
		<layer id="297" name="/nncf_module/bert/encoder/layer.1/attention/self/Constant_10" type="Const" version="opset1">
			<data element_type="i64" shape="1" offset="32399732" size="8" />
			<output>
				<port id="0" precision="I64" names="/nncf_module/bert/encoder/layer.1/attention/self/Constant_10_output_0">
					<dim>1</dim>
				</port>
			</output>
		</layer>
		<layer id="298" name="/nncf_module/bert/encoder/layer.1/attention/self/Constant_11" type="Const" version="opset1">
			<data element_type="i64" shape="1" offset="32399740" size="8" />
			<output>
				<port id="0" precision="I64" names="/nncf_module/bert/encoder/layer.1/attention/self/Constant_11_output_0">
					<dim>1</dim>
				</port>
			</output>
		</layer>
		<layer id="299" name="/nncf_module/bert/encoder/layer.1/attention/self/Concat_2" type="Concat" version="opset1">
			<data axis="0" />
			<input>
				<port id="0" precision="I64">
					<dim>2</dim>
				</port>
				<port id="1" precision="I64">
					<dim>1</dim>
				</port>
				<port id="2" precision="I64">
					<dim>1</dim>
				</port>
			</input>
			<output>
				<port id="3" precision="I64" names="/nncf_module/bert/encoder/layer.1/attention/self/Concat_2_output_0">
					<dim>4</dim>
				</port>
			</output>
		</layer>
		<layer id="300" name="Constant_73746" type="Const" version="opset1">
			<data element_type="i64" shape="4" offset="34927488" size="32" />
			<output>
				<port id="0" precision="I64">
					<dim>4</dim>
				</port>
			</output>
		</layer>
		<layer id="301" name="Subtract_73747" type="Subtract" version="opset1">
			<data auto_broadcast="numpy" />
			<input>
				<port id="0" precision="I64">
					<dim>4</dim>
				</port>
				<port id="1" precision="I64">
					<dim>4</dim>
				</port>
			</input>
			<output>
				<port id="2" precision="I64">
					<dim>4</dim>
				</port>
			</output>
		</layer>
		<layer id="302" name="/nncf_module/bert/encoder/layer.1/attention/self/Reshape_2" type="Reshape" version="opset1">
			<data special_zero="true" />
			<input>
				<port id="0" precision="FP32">
					<dim>1</dim>
					<dim>384</dim>
					<dim>192</dim>
				</port>
				<port id="1" precision="I64">
					<dim>4</dim>
				</port>
			</input>
			<output>
				<port id="2" precision="FP32" names="/nncf_module/bert/encoder/layer.1/attention/self/Reshape_2_output_0">
					<dim>1</dim>
					<dim>384</dim>
					<dim>3</dim>
					<dim>64</dim>
				</port>
			</output>
		</layer>
		<layer id="303" name="Constant_895" type="Const" version="opset1">
			<data element_type="i64" shape="4" offset="32399780" size="32" />
			<output>
				<port id="0" precision="I64">
					<dim>4</dim>
				</port>
			</output>
		</layer>
		<layer id="304" name="/nncf_module/bert/encoder/layer.1/attention/self/Transpose_1" type="Transpose" version="opset1">
			<input>
				<port id="0" precision="FP32">
					<dim>1</dim>
					<dim>384</dim>
					<dim>3</dim>
					<dim>64</dim>
				</port>
				<port id="1" precision="I64">
					<dim>4</dim>
				</port>
			</input>
			<output>
				<port id="2" precision="FP32" names="/nncf_module/bert/encoder/layer.1/attention/self/Transpose_1_output_0">
					<dim>1</dim>
					<dim>3</dim>
					<dim>384</dim>
					<dim>64</dim>
				</port>
			</output>
		</layer>
		<layer id="305" name="Constant_73783" type="Const" version="opset1">
			<data element_type="f32" shape="1, 1, 192" offset="34927520" size="768" />
			<output>
				<port id="0" precision="FP32">
					<dim>1</dim>
					<dim>1</dim>
					<dim>192</dim>
				</port>
			</output>
		</layer>
		<layer id="306" name="Constant_42481" type="Const" version="opset1">
			<data element_type="f32" shape="1, 1, 1" offset="34928288" size="4" />
			<output>
				<port id="0" precision="FP32">
					<dim>1</dim>
					<dim>1</dim>
					<dim>1</dim>
				</port>
			</output>
		</layer>
		<layer id="307" name="Constant_42482" type="Const" version="opset1">
			<data element_type="f32" shape="1, 1, 1" offset="34928292" size="4" />
			<output>
				<port id="0" precision="FP32">
					<dim>1</dim>
					<dim>1</dim>
					<dim>1</dim>
				</port>
			</output>
		</layer>
		<layer id="308" name="Constant_42483" type="Const" version="opset1">
			<data element_type="f32" shape="1, 1, 1" offset="34928288" size="4" />
			<output>
				<port id="0" precision="FP32">
					<dim>1</dim>
					<dim>1</dim>
					<dim>1</dim>
				</port>
			</output>
		</layer>
		<layer id="309" name="Constant_42484" type="Const" version="opset1">
			<data element_type="f32" shape="1, 1, 1" offset="34928292" size="4" />
			<output>
				<port id="0" precision="FP32">
					<dim>1</dim>
					<dim>1</dim>
					<dim>1</dim>
				</port>
			</output>
		</layer>
		<layer id="310" name="/nncf_module/bert/encoder/layer.1/attention/self/key/BertForQuestionAnswering/BertModel[bert]/BertEncoder[encoder]/ModuleList[layer]/BertLayer[1]/BertAttention[attention]/BertSelfAttention[self]/NNCFLinear[key]/linear_0|INPUT0/FakeQuantize" type="FakeQuantize" version="opset1">
			<data levels="256" auto_broadcast="numpy" />
			<input>
				<port id="0" precision="FP32">
					<dim>1</dim>
					<dim>384</dim>
					<dim>1024</dim>
				</port>
				<port id="1" precision="FP32">
					<dim>1</dim>
					<dim>1</dim>
					<dim>1</dim>
				</port>
				<port id="2" precision="FP32">
					<dim>1</dim>
					<dim>1</dim>
					<dim>1</dim>
				</port>
				<port id="3" precision="FP32">
					<dim>1</dim>
					<dim>1</dim>
					<dim>1</dim>
				</port>
				<port id="4" precision="FP32">
					<dim>1</dim>
					<dim>1</dim>
					<dim>1</dim>
				</port>
			</input>
			<output>
				<port id="5" precision="FP32" names="/nncf_module/bert/encoder/layer.1/attention/self/key/BertForQuestionAnswering/BertModel[bert]/BertEncoder[encoder]/ModuleList[layer]/BertLayer[1]/BertAttention[attention]/BertSelfAttention[self]/NNCFLinear[key]/linear_0|INPUT0/FakeQuantize_output_0">
					<dim>1</dim>
					<dim>384</dim>
					<dim>1024</dim>
				</port>
			</output>
		</layer>
		<layer id="311" name="Constant_73790" type="Const" version="opset1">
			<data element_type="i8" shape="192, 1024" offset="34928296" size="196608" />
			<output>
				<port id="0" precision="I8">
					<dim>192</dim>
					<dim>1024</dim>
				</port>
			</output>
		</layer>
		<layer id="312" name="Convert_46378" type="Convert" version="opset1">
			<data destination_type="f32" />
			<input>
				<port id="0" precision="I8">
					<dim>192</dim>
					<dim>1024</dim>
				</port>
			</input>
			<output>
				<port id="1" precision="FP32">
					<dim>192</dim>
					<dim>1024</dim>
				</port>
			</output>
		</layer>
		<layer id="313" name="Constant_73797" type="Const" version="opset1">
			<data element_type="f32" shape="192, 1" offset="35124904" size="768" />
			<output>
				<port id="0" precision="FP32">
					<dim>192</dim>
					<dim>1</dim>
				</port>
			</output>
		</layer>
		<layer id="314" name="/nncf_module/bert/encoder/layer.1/attention/self/key/pre_ops.1/op/FakeQuantize" type="Multiply" version="opset1">
			<data auto_broadcast="numpy" />
			<input>
				<port id="0" precision="FP32">
					<dim>192</dim>
					<dim>1024</dim>
				</port>
				<port id="1" precision="FP32">
					<dim>192</dim>
					<dim>1</dim>
				</port>
			</input>
			<output>
				<port id="2" precision="FP32" names="/nncf_module/bert/encoder/layer.1/attention/self/key/pre_ops.1/op/FakeQuantize_output_0">
					<dim>192</dim>
					<dim>1024</dim>
				</port>
			</output>
		</layer>
		<layer id="315" name="/nncf_module/bert/encoder/layer.1/attention/self/key/MatMul" type="MatMul" version="opset1">
			<data transpose_a="false" transpose_b="true" />
			<input>
				<port id="0" precision="FP32">
					<dim>1</dim>
					<dim>384</dim>
					<dim>1024</dim>
				</port>
				<port id="1" precision="FP32">
					<dim>192</dim>
					<dim>1024</dim>
				</port>
			</input>
			<output>
				<port id="2" precision="FP32" names="/nncf_module/bert/encoder/layer.1/attention/self/key/MatMul_output_0">
					<dim>1</dim>
					<dim>384</dim>
					<dim>192</dim>
				</port>
			</output>
		</layer>
		<layer id="316" name="/nncf_module/bert/encoder/layer.1/attention/self/key/Add" type="Add" version="opset1">
			<data auto_broadcast="numpy" />
			<input>
				<port id="0" precision="FP32">
					<dim>1</dim>
					<dim>1</dim>
					<dim>192</dim>
				</port>
				<port id="1" precision="FP32">
					<dim>1</dim>
					<dim>384</dim>
					<dim>192</dim>
				</port>
			</input>
			<output>
				<port id="2" precision="FP32" names="/nncf_module/bert/encoder/layer.1/attention/self/key/Add_output_0">
					<dim>1</dim>
					<dim>384</dim>
					<dim>192</dim>
				</port>
			</output>
		</layer>
		<layer id="317" name="Constant_42486" type="Const" version="opset1">
			<data element_type="f32" shape="1, 1, 1" offset="35125672" size="4" />
			<output>
				<port id="0" precision="FP32">
					<dim>1</dim>
					<dim>1</dim>
					<dim>1</dim>
				</port>
			</output>
		</layer>
		<layer id="318" name="Constant_42487" type="Const" version="opset1">
			<data element_type="f32" shape="1, 1, 1" offset="35125676" size="4" />
			<output>
				<port id="0" precision="FP32">
					<dim>1</dim>
					<dim>1</dim>
					<dim>1</dim>
				</port>
			</output>
		</layer>
		<layer id="319" name="Constant_42488" type="Const" version="opset1">
			<data element_type="f32" shape="1, 1, 1" offset="35125672" size="4" />
			<output>
				<port id="0" precision="FP32">
					<dim>1</dim>
					<dim>1</dim>
					<dim>1</dim>
				</port>
			</output>
		</layer>
		<layer id="320" name="Constant_42489" type="Const" version="opset1">
			<data element_type="f32" shape="1, 1, 1" offset="35125676" size="4" />
			<output>
				<port id="0" precision="FP32">
					<dim>1</dim>
					<dim>1</dim>
					<dim>1</dim>
				</port>
			</output>
		</layer>
		<layer id="321" name="/nncf_module/bert/encoder/layer.1/attention/self/key/BertForQuestionAnswering/BertModel[bert]/BertEncoder[encoder]/ModuleList[layer]/BertLayer[1]/BertAttention[attention]/BertSelfAttention[self]/NNCFLinear[key]/linear_0|OUTPUT/FakeQuantize" type="FakeQuantize" version="opset1">
			<data levels="256" auto_broadcast="numpy" />
			<input>
				<port id="0" precision="FP32">
					<dim>1</dim>
					<dim>384</dim>
					<dim>192</dim>
				</port>
				<port id="1" precision="FP32">
					<dim>1</dim>
					<dim>1</dim>
					<dim>1</dim>
				</port>
				<port id="2" precision="FP32">
					<dim>1</dim>
					<dim>1</dim>
					<dim>1</dim>
				</port>
				<port id="3" precision="FP32">
					<dim>1</dim>
					<dim>1</dim>
					<dim>1</dim>
				</port>
				<port id="4" precision="FP32">
					<dim>1</dim>
					<dim>1</dim>
					<dim>1</dim>
				</port>
			</input>
			<output>
				<port id="5" precision="FP32" names="/nncf_module/bert/encoder/layer.1/attention/self/key/BertForQuestionAnswering/BertModel[bert]/BertEncoder[encoder]/ModuleList[layer]/BertLayer[1]/BertAttention[attention]/BertSelfAttention[self]/NNCFLinear[key]/linear_0|OUTPUT/FakeQuantize_output_0">
					<dim>1</dim>
					<dim>384</dim>
					<dim>192</dim>
				</port>
			</output>
		</layer>
		<layer id="322" name="/nncf_module/bert/encoder/layer.1/attention/self/Shape" type="ShapeOf" version="opset3">
			<data output_type="i64" />
			<input>
				<port id="0" precision="FP32">
					<dim>1</dim>
					<dim>384</dim>
					<dim>192</dim>
				</port>
			</input>
			<output>
				<port id="1" precision="I64" names="/nncf_module/bert/encoder/layer.1/attention/self/Shape_1_output_0,/nncf_module/bert/encoder/layer.1/attention/self/Shape_output_0">
					<dim>3</dim>
				</port>
			</output>
		</layer>
		<layer id="323" name="Constant_32094" type="Const" version="opset1">
			<data element_type="i64" shape="2" offset="32399716" size="16" />
			<output>
				<port id="0" precision="I64">
					<dim>2</dim>
				</port>
			</output>
		</layer>
		<layer id="324" name="Constant_32095" type="Const" version="opset1">
			<data element_type="i64" shape="" offset="31533100" size="8" />
			<output>
				<port id="0" precision="I64" />
			</output>
		</layer>
		<layer id="325" name="Gather_32096" type="Gather" version="opset8">
			<data batch_dims="0" />
			<input>
				<port id="0" precision="I64">
					<dim>3</dim>
				</port>
				<port id="1" precision="I64">
					<dim>2</dim>
				</port>
				<port id="2" precision="I64" />
			</input>
			<output>
				<port id="3" precision="I64">
					<dim>2</dim>
				</port>
			</output>
		</layer>
		<layer id="326" name="/nncf_module/bert/encoder/layer.1/attention/self/Constant_2" type="Const" version="opset1">
			<data element_type="i64" shape="1" offset="32399732" size="8" />
			<output>
				<port id="0" precision="I64" names="/nncf_module/bert/encoder/layer.1/attention/self/Constant_2_output_0">
					<dim>1</dim>
				</port>
			</output>
		</layer>
		<layer id="327" name="/nncf_module/bert/encoder/layer.1/attention/self/Constant_3" type="Const" version="opset1">
			<data element_type="i64" shape="1" offset="32399740" size="8" />
			<output>
				<port id="0" precision="I64" names="/nncf_module/bert/encoder/layer.1/attention/self/Constant_3_output_0">
					<dim>1</dim>
				</port>
			</output>
		</layer>
		<layer id="328" name="/nncf_module/bert/encoder/layer.1/attention/self/Concat" type="Concat" version="opset1">
			<data axis="0" />
			<input>
				<port id="0" precision="I64">
					<dim>2</dim>
				</port>
				<port id="1" precision="I64">
					<dim>1</dim>
				</port>
				<port id="2" precision="I64">
					<dim>1</dim>
				</port>
			</input>
			<output>
				<port id="3" precision="I64" names="/nncf_module/bert/encoder/layer.1/attention/self/Concat_output_0">
					<dim>4</dim>
				</port>
			</output>
		</layer>
		<layer id="329" name="Constant_73820" type="Const" version="opset1">
			<data element_type="i64" shape="4" offset="34927488" size="32" />
			<output>
				<port id="0" precision="I64">
					<dim>4</dim>
				</port>
			</output>
		</layer>
		<layer id="330" name="Subtract_73821" type="Subtract" version="opset1">
			<data auto_broadcast="numpy" />
			<input>
				<port id="0" precision="I64">
					<dim>4</dim>
				</port>
				<port id="1" precision="I64">
					<dim>4</dim>
				</port>
			</input>
			<output>
				<port id="2" precision="I64">
					<dim>4</dim>
				</port>
			</output>
		</layer>
		<layer id="331" name="/nncf_module/bert/encoder/layer.1/attention/self/Reshape" type="Reshape" version="opset1">
			<data special_zero="true" />
			<input>
				<port id="0" precision="FP32">
					<dim>1</dim>
					<dim>384</dim>
					<dim>192</dim>
				</port>
				<port id="1" precision="I64">
					<dim>4</dim>
				</port>
			</input>
			<output>
				<port id="2" precision="FP32" names="/nncf_module/bert/encoder/layer.1/attention/self/Reshape_output_0">
					<dim>1</dim>
					<dim>384</dim>
					<dim>3</dim>
					<dim>64</dim>
				</port>
			</output>
		</layer>
		<layer id="332" name="Constant_897" type="Const" version="opset1">
			<data element_type="i64" shape="4" offset="32730068" size="32" />
			<output>
				<port id="0" precision="I64">
					<dim>4</dim>
				</port>
			</output>
		</layer>
		<layer id="333" name="/nncf_module/bert/encoder/layer.1/attention/self/Transpose_2" type="Transpose" version="opset1">
			<input>
				<port id="0" precision="FP32">
					<dim>1</dim>
					<dim>384</dim>
					<dim>3</dim>
					<dim>64</dim>
				</port>
				<port id="1" precision="I64">
					<dim>4</dim>
				</port>
			</input>
			<output>
				<port id="2" precision="FP32" names="/nncf_module/bert/encoder/layer.1/attention/self/Transpose_2_output_0">
					<dim>1</dim>
					<dim>3</dim>
					<dim>64</dim>
					<dim>384</dim>
				</port>
			</output>
		</layer>
		<layer id="334" name="Constant_42490" type="Const" version="opset1">
			<data element_type="f32" shape="1, 1, 1, 1" offset="32730100" size="4" />
			<output>
				<port id="0" precision="FP32">
					<dim>1</dim>
					<dim>1</dim>
					<dim>1</dim>
					<dim>1</dim>
				</port>
			</output>
		</layer>
		<layer id="335" name="Multiply_41908" type="Multiply" version="opset1">
			<data auto_broadcast="numpy" />
			<input>
				<port id="0" precision="FP32">
					<dim>1</dim>
					<dim>3</dim>
					<dim>64</dim>
					<dim>384</dim>
				</port>
				<port id="1" precision="FP32">
					<dim>1</dim>
					<dim>1</dim>
					<dim>1</dim>
					<dim>1</dim>
				</port>
			</input>
			<output>
				<port id="2" precision="FP32">
					<dim>1</dim>
					<dim>3</dim>
					<dim>64</dim>
					<dim>384</dim>
				</port>
			</output>
		</layer>
		<layer id="336" name="/nncf_module/bert/encoder/layer.1/attention/self/Div" type="MatMul" version="opset1">
			<data transpose_a="false" transpose_b="false" />
			<input>
				<port id="0" precision="FP32">
					<dim>1</dim>
					<dim>3</dim>
					<dim>384</dim>
					<dim>64</dim>
				</port>
				<port id="1" precision="FP32">
					<dim>1</dim>
					<dim>3</dim>
					<dim>64</dim>
					<dim>384</dim>
				</port>
			</input>
			<output>
				<port id="2" precision="FP32" names="/nncf_module/bert/encoder/layer.1/attention/self/Div_output_0">
					<dim>1</dim>
					<dim>3</dim>
					<dim>384</dim>
					<dim>384</dim>
				</port>
			</output>
		</layer>
		<layer id="337" name="/nncf_module/bert/encoder/layer.1/attention/self/Add" type="Add" version="opset1">
			<data auto_broadcast="numpy" />
			<input>
				<port id="0" precision="FP32">
					<dim>1</dim>
					<dim>3</dim>
					<dim>384</dim>
					<dim>384</dim>
				</port>
				<port id="1" precision="FP32">
					<dim>1</dim>
					<dim>1</dim>
					<dim>1</dim>
					<dim>384</dim>
				</port>
			</input>
			<output>
				<port id="2" precision="FP32" names="/nncf_module/bert/encoder/layer.1/attention/self/Add_output_0">
					<dim>1</dim>
					<dim>3</dim>
					<dim>384</dim>
					<dim>384</dim>
				</port>
			</output>
		</layer>
		<layer id="338" name="/nncf_module/bert/encoder/layer.1/attention/self/Softmax" type="SoftMax" version="opset8">
			<data axis="-1" />
			<input>
				<port id="0" precision="FP32">
					<dim>1</dim>
					<dim>3</dim>
					<dim>384</dim>
					<dim>384</dim>
				</port>
			</input>
			<output>
				<port id="1" precision="FP32" names="/nncf_module/bert/encoder/layer.1/attention/self/Softmax_output_0">
					<dim>1</dim>
					<dim>3</dim>
					<dim>384</dim>
					<dim>384</dim>
				</port>
			</output>
		</layer>
		<layer id="339" name="Constant_73857" type="Const" version="opset1">
			<data element_type="f32" shape="1, 1, 192" offset="35125680" size="768" />
			<output>
				<port id="0" precision="FP32">
					<dim>1</dim>
					<dim>1</dim>
					<dim>192</dim>
				</port>
			</output>
		</layer>
		<layer id="340" name="Constant_42491" type="Const" version="opset1">
			<data element_type="f32" shape="1, 1, 1" offset="35126448" size="4" />
			<output>
				<port id="0" precision="FP32">
					<dim>1</dim>
					<dim>1</dim>
					<dim>1</dim>
				</port>
			</output>
		</layer>
		<layer id="341" name="Constant_42492" type="Const" version="opset1">
			<data element_type="f32" shape="1, 1, 1" offset="35126452" size="4" />
			<output>
				<port id="0" precision="FP32">
					<dim>1</dim>
					<dim>1</dim>
					<dim>1</dim>
				</port>
			</output>
		</layer>
		<layer id="342" name="Constant_42493" type="Const" version="opset1">
			<data element_type="f32" shape="1, 1, 1" offset="35126448" size="4" />
			<output>
				<port id="0" precision="FP32">
					<dim>1</dim>
					<dim>1</dim>
					<dim>1</dim>
				</port>
			</output>
		</layer>
		<layer id="343" name="Constant_42494" type="Const" version="opset1">
			<data element_type="f32" shape="1, 1, 1" offset="35126452" size="4" />
			<output>
				<port id="0" precision="FP32">
					<dim>1</dim>
					<dim>1</dim>
					<dim>1</dim>
				</port>
			</output>
		</layer>
		<layer id="344" name="/nncf_module/bert/encoder/layer.1/attention/self/value/BertForQuestionAnswering/BertModel[bert]/BertEncoder[encoder]/ModuleList[layer]/BertLayer[1]/BertAttention[attention]/BertSelfAttention[self]/NNCFLinear[value]/linear_0|INPUT0/FakeQuantize" type="FakeQuantize" version="opset1">
			<data levels="256" auto_broadcast="numpy" />
			<input>
				<port id="0" precision="FP32">
					<dim>1</dim>
					<dim>384</dim>
					<dim>1024</dim>
				</port>
				<port id="1" precision="FP32">
					<dim>1</dim>
					<dim>1</dim>
					<dim>1</dim>
				</port>
				<port id="2" precision="FP32">
					<dim>1</dim>
					<dim>1</dim>
					<dim>1</dim>
				</port>
				<port id="3" precision="FP32">
					<dim>1</dim>
					<dim>1</dim>
					<dim>1</dim>
				</port>
				<port id="4" precision="FP32">
					<dim>1</dim>
					<dim>1</dim>
					<dim>1</dim>
				</port>
			</input>
			<output>
				<port id="5" precision="FP32" names="/nncf_module/bert/encoder/layer.1/attention/self/value/BertForQuestionAnswering/BertModel[bert]/BertEncoder[encoder]/ModuleList[layer]/BertLayer[1]/BertAttention[attention]/BertSelfAttention[self]/NNCFLinear[value]/linear_0|INPUT0/FakeQuantize_output_0">
					<dim>1</dim>
					<dim>384</dim>
					<dim>1024</dim>
				</port>
			</output>
		</layer>
		<layer id="345" name="Constant_73864" type="Const" version="opset1">
			<data element_type="i8" shape="192, 1024" offset="35126456" size="196608" />
			<output>
				<port id="0" precision="I8">
					<dim>192</dim>
					<dim>1024</dim>
				</port>
			</output>
		</layer>
		<layer id="346" name="Convert_46499" type="Convert" version="opset1">
			<data destination_type="f32" />
			<input>
				<port id="0" precision="I8">
					<dim>192</dim>
					<dim>1024</dim>
				</port>
			</input>
			<output>
				<port id="1" precision="FP32">
					<dim>192</dim>
					<dim>1024</dim>
				</port>
			</output>
		</layer>
		<layer id="347" name="Constant_73871" type="Const" version="opset1">
			<data element_type="f32" shape="192, 1" offset="35323064" size="768" />
			<output>
				<port id="0" precision="FP32">
					<dim>192</dim>
					<dim>1</dim>
				</port>
			</output>
		</layer>
		<layer id="348" name="/nncf_module/bert/encoder/layer.1/attention/self/value/pre_ops.1/op/FakeQuantize" type="Multiply" version="opset1">
			<data auto_broadcast="numpy" />
			<input>
				<port id="0" precision="FP32">
					<dim>192</dim>
					<dim>1024</dim>
				</port>
				<port id="1" precision="FP32">
					<dim>192</dim>
					<dim>1</dim>
				</port>
			</input>
			<output>
				<port id="2" precision="FP32" names="/nncf_module/bert/encoder/layer.1/attention/self/value/pre_ops.1/op/FakeQuantize_output_0">
					<dim>192</dim>
					<dim>1024</dim>
				</port>
			</output>
		</layer>
		<layer id="349" name="/nncf_module/bert/encoder/layer.1/attention/self/value/MatMul" type="MatMul" version="opset1">
			<data transpose_a="false" transpose_b="true" />
			<input>
				<port id="0" precision="FP32">
					<dim>1</dim>
					<dim>384</dim>
					<dim>1024</dim>
				</port>
				<port id="1" precision="FP32">
					<dim>192</dim>
					<dim>1024</dim>
				</port>
			</input>
			<output>
				<port id="2" precision="FP32" names="/nncf_module/bert/encoder/layer.1/attention/self/value/MatMul_output_0">
					<dim>1</dim>
					<dim>384</dim>
					<dim>192</dim>
				</port>
			</output>
		</layer>
		<layer id="350" name="/nncf_module/bert/encoder/layer.1/attention/self/value/Add" type="Add" version="opset1">
			<data auto_broadcast="numpy" />
			<input>
				<port id="0" precision="FP32">
					<dim>1</dim>
					<dim>1</dim>
					<dim>192</dim>
				</port>
				<port id="1" precision="FP32">
					<dim>1</dim>
					<dim>384</dim>
					<dim>192</dim>
				</port>
			</input>
			<output>
				<port id="2" precision="FP32" names="/nncf_module/bert/encoder/layer.1/attention/self/value/Add_output_0">
					<dim>1</dim>
					<dim>384</dim>
					<dim>192</dim>
				</port>
			</output>
		</layer>
		<layer id="351" name="/nncf_module/bert/encoder/layer.1/attention/self/Concat_1" type="Const" version="opset1">
			<data element_type="i64" shape="4" offset="35323832" size="32" />
			<output>
				<port id="0" precision="I64">
					<dim>4</dim>
				</port>
			</output>
		</layer>
		<layer id="352" name="/nncf_module/bert/encoder/layer.1/attention/self/Reshape_1" type="Reshape" version="opset1">
			<data special_zero="true" />
			<input>
				<port id="0" precision="FP32">
					<dim>1</dim>
					<dim>384</dim>
					<dim>192</dim>
				</port>
				<port id="1" precision="I64">
					<dim>4</dim>
				</port>
			</input>
			<output>
				<port id="2" precision="FP32" names="/nncf_module/bert/encoder/layer.1/attention/self/Reshape_1_output_0">
					<dim>1</dim>
					<dim>384</dim>
					<dim>3</dim>
					<dim>64</dim>
				</port>
			</output>
		</layer>
		<layer id="353" name="Constant_830" type="Const" version="opset1">
			<data element_type="i64" shape="4" offset="32399780" size="32" />
			<output>
				<port id="0" precision="I64">
					<dim>4</dim>
				</port>
			</output>
		</layer>
		<layer id="354" name="/nncf_module/bert/encoder/layer.1/attention/self/Transpose" type="Transpose" version="opset1">
			<input>
				<port id="0" precision="FP32">
					<dim>1</dim>
					<dim>384</dim>
					<dim>3</dim>
					<dim>64</dim>
				</port>
				<port id="1" precision="I64">
					<dim>4</dim>
				</port>
			</input>
			<output>
				<port id="2" precision="FP32" names="/nncf_module/bert/encoder/layer.1/attention/self/Transpose_output_0">
					<dim>1</dim>
					<dim>3</dim>
					<dim>384</dim>
					<dim>64</dim>
				</port>
			</output>
		</layer>
		<layer id="355" name="/nncf_module/bert/encoder/layer.1/attention/self/MatMul_1" type="MatMul" version="opset1">
			<data transpose_a="false" transpose_b="false" />
			<input>
				<port id="0" precision="FP32">
					<dim>1</dim>
					<dim>3</dim>
					<dim>384</dim>
					<dim>384</dim>
				</port>
				<port id="1" precision="FP32">
					<dim>1</dim>
					<dim>3</dim>
					<dim>384</dim>
					<dim>64</dim>
				</port>
			</input>
			<output>
				<port id="2" precision="FP32" names="/nncf_module/bert/encoder/layer.1/attention/self/MatMul_1_output_0">
					<dim>1</dim>
					<dim>3</dim>
					<dim>384</dim>
					<dim>64</dim>
				</port>
			</output>
		</layer>
		<layer id="356" name="Constant_42496" type="Const" version="opset1">
			<data element_type="f32" shape="1, 1, 1, 1" offset="35323864" size="4" />
			<output>
				<port id="0" precision="FP32">
					<dim>1</dim>
					<dim>1</dim>
					<dim>1</dim>
					<dim>1</dim>
				</port>
			</output>
		</layer>
		<layer id="357" name="Constant_42497" type="Const" version="opset1">
			<data element_type="f32" shape="1, 1, 1, 1" offset="35323868" size="4" />
			<output>
				<port id="0" precision="FP32">
					<dim>1</dim>
					<dim>1</dim>
					<dim>1</dim>
					<dim>1</dim>
				</port>
			</output>
		</layer>
		<layer id="358" name="Constant_42498" type="Const" version="opset1">
			<data element_type="f32" shape="1, 1, 1, 1" offset="35323864" size="4" />
			<output>
				<port id="0" precision="FP32">
					<dim>1</dim>
					<dim>1</dim>
					<dim>1</dim>
					<dim>1</dim>
				</port>
			</output>
		</layer>
		<layer id="359" name="Constant_42499" type="Const" version="opset1">
			<data element_type="f32" shape="1, 1, 1, 1" offset="35323868" size="4" />
			<output>
				<port id="0" precision="FP32">
					<dim>1</dim>
					<dim>1</dim>
					<dim>1</dim>
					<dim>1</dim>
				</port>
			</output>
		</layer>
		<layer id="360" name="/nncf_module/bert/encoder/layer.1/attention/self/BertForQuestionAnswering/BertModel[bert]/BertEncoder[encoder]/ModuleList[layer]/BertLayer[1]/BertAttention[attention]/BertSelfAttention[self]/matmul_1|OUTPUT/FakeQuantize" type="FakeQuantize" version="opset1">
			<data levels="256" auto_broadcast="numpy" />
			<input>
				<port id="0" precision="FP32">
					<dim>1</dim>
					<dim>3</dim>
					<dim>384</dim>
					<dim>64</dim>
				</port>
				<port id="1" precision="FP32">
					<dim>1</dim>
					<dim>1</dim>
					<dim>1</dim>
					<dim>1</dim>
				</port>
				<port id="2" precision="FP32">
					<dim>1</dim>
					<dim>1</dim>
					<dim>1</dim>
					<dim>1</dim>
				</port>
				<port id="3" precision="FP32">
					<dim>1</dim>
					<dim>1</dim>
					<dim>1</dim>
					<dim>1</dim>
				</port>
				<port id="4" precision="FP32">
					<dim>1</dim>
					<dim>1</dim>
					<dim>1</dim>
					<dim>1</dim>
				</port>
			</input>
			<output>
				<port id="5" precision="FP32" names="/nncf_module/bert/encoder/layer.1/attention/self/BertForQuestionAnswering/BertModel[bert]/BertEncoder[encoder]/ModuleList[layer]/BertLayer[1]/BertAttention[attention]/BertSelfAttention[self]/matmul_1|OUTPUT/FakeQuantize_output_0">
					<dim>1</dim>
					<dim>3</dim>
					<dim>384</dim>
					<dim>64</dim>
				</port>
			</output>
		</layer>
		<layer id="361" name="Constant_908" type="Const" version="opset1">
			<data element_type="i64" shape="4" offset="32399780" size="32" />
			<output>
				<port id="0" precision="I64">
					<dim>4</dim>
				</port>
			</output>
		</layer>
		<layer id="362" name="/nncf_module/bert/encoder/layer.1/attention/self/Transpose_3" type="Transpose" version="opset1">
			<input>
				<port id="0" precision="FP32">
					<dim>1</dim>
					<dim>3</dim>
					<dim>384</dim>
					<dim>64</dim>
				</port>
				<port id="1" precision="I64">
					<dim>4</dim>
				</port>
			</input>
			<output>
				<port id="2" precision="FP32" names="/nncf_module/bert/encoder/layer.1/attention/self/Transpose_3_output_0">
					<dim>1</dim>
					<dim>384</dim>
					<dim>3</dim>
					<dim>64</dim>
				</port>
			</output>
		</layer>
		<layer id="363" name="/nncf_module/bert/encoder/layer.1/attention/self/Concat_3" type="Const" version="opset1">
			<data element_type="i64" shape="3" offset="35323872" size="24" />
			<output>
				<port id="0" precision="I64">
					<dim>3</dim>
				</port>
			</output>
		</layer>
		<layer id="364" name="/nncf_module/bert/encoder/layer.1/attention/self/Reshape_3" type="Reshape" version="opset1">
			<data special_zero="true" />
			<input>
				<port id="0" precision="FP32">
					<dim>1</dim>
					<dim>384</dim>
					<dim>3</dim>
					<dim>64</dim>
				</port>
				<port id="1" precision="I64">
					<dim>3</dim>
				</port>
			</input>
			<output>
				<port id="2" precision="FP32" names="/nncf_module/bert/encoder/layer.1/attention/self/Reshape_3_output_0">
					<dim>1</dim>
					<dim>384</dim>
					<dim>192</dim>
				</port>
			</output>
		</layer>
		<layer id="365" name="Constant_73890" type="Const" version="opset1">
			<data element_type="i8" shape="1024, 192" offset="35323896" size="196608" />
			<output>
				<port id="0" precision="I8">
					<dim>1024</dim>
					<dim>192</dim>
				</port>
			</output>
		</layer>
		<layer id="366" name="Convert_46620" type="Convert" version="opset1">
			<data destination_type="f32" />
			<input>
				<port id="0" precision="I8">
					<dim>1024</dim>
					<dim>192</dim>
				</port>
			</input>
			<output>
				<port id="1" precision="FP32">
					<dim>1024</dim>
					<dim>192</dim>
				</port>
			</output>
		</layer>
		<layer id="367" name="Constant_46557" type="Const" version="opset1">
			<data element_type="f32" shape="1024, 1" offset="35520504" size="4096" />
			<output>
				<port id="0" precision="FP32">
					<dim>1024</dim>
					<dim>1</dim>
				</port>
			</output>
		</layer>
		<layer id="368" name="/nncf_module/bert/encoder/layer.1/attention/output/dense/pre_ops.1/op/FakeQuantize" type="Multiply" version="opset1">
			<data auto_broadcast="numpy" />
			<input>
				<port id="0" precision="FP32">
					<dim>1024</dim>
					<dim>192</dim>
				</port>
				<port id="1" precision="FP32">
					<dim>1024</dim>
					<dim>1</dim>
				</port>
			</input>
			<output>
				<port id="2" precision="FP32" names="/nncf_module/bert/encoder/layer.1/attention/output/dense/pre_ops.1/op/FakeQuantize_output_0">
					<dim>1024</dim>
					<dim>192</dim>
				</port>
			</output>
		</layer>
		<layer id="369" name="/nncf_module/bert/encoder/layer.1/attention/output/dense/MatMul" type="MatMul" version="opset1">
			<data transpose_a="false" transpose_b="true" />
			<input>
				<port id="0" precision="FP32">
					<dim>1</dim>
					<dim>384</dim>
					<dim>192</dim>
				</port>
				<port id="1" precision="FP32">
					<dim>1024</dim>
					<dim>192</dim>
				</port>
			</input>
			<output>
				<port id="2" precision="FP32" names="/nncf_module/bert/encoder/layer.1/attention/output/dense/MatMul_output_0">
					<dim>1</dim>
					<dim>384</dim>
					<dim>1024</dim>
				</port>
			</output>
		</layer>
		<layer id="370" name="/nncf_module/bert/encoder/layer.1/attention/output/dense/Add" type="Add" version="opset1">
			<data auto_broadcast="numpy" />
			<input>
				<port id="0" precision="FP32">
					<dim>1</dim>
					<dim>1</dim>
					<dim>1024</dim>
				</port>
				<port id="1" precision="FP32">
					<dim>1</dim>
					<dim>384</dim>
					<dim>1024</dim>
				</port>
			</input>
			<output>
				<port id="2" precision="FP32" names="/nncf_module/bert/encoder/layer.1/attention/output/dense/Add_output_0">
					<dim>1</dim>
					<dim>384</dim>
					<dim>1024</dim>
				</port>
			</output>
		</layer>
		<layer id="371" name="/nncf_module/bert/encoder/layer.1/attention/output/Add" type="Add" version="opset1">
			<data auto_broadcast="numpy" />
			<input>
				<port id="0" precision="FP32">
					<dim>1</dim>
					<dim>384</dim>
					<dim>1024</dim>
				</port>
				<port id="1" precision="FP32">
					<dim>1</dim>
					<dim>384</dim>
					<dim>1024</dim>
				</port>
			</input>
			<output>
				<port id="2" precision="FP32" names="/nncf_module/bert/encoder/layer.1/attention/output/Add_output_0">
					<dim>1</dim>
					<dim>384</dim>
					<dim>1024</dim>
				</port>
			</output>
		</layer>
		<layer id="372" name="Constant_978" type="Const" version="opset1">
			<data element_type="i64" shape="1" offset="32062540" size="8" />
			<output>
				<port id="0" precision="I64">
					<dim>1</dim>
				</port>
			</output>
		</layer>
		<layer id="373" name="/nncf_module/bert/encoder/layer.1/attention/output/LayerNorm/Div" type="MVN" version="opset6">
			<data eps="9.999999960041972e-13" normalize_variance="true" eps_mode="INSIDE_SQRT" />
			<input>
				<port id="0" precision="FP32">
					<dim>1</dim>
					<dim>384</dim>
					<dim>1024</dim>
				</port>
				<port id="1" precision="I64">
					<dim>1</dim>
				</port>
			</input>
			<output>
				<port id="2" precision="FP32" names="/nncf_module/bert/encoder/layer.1/attention/output/LayerNorm/Div_output_0">
					<dim>1</dim>
					<dim>384</dim>
					<dim>1024</dim>
				</port>
			</output>
		</layer>
		<layer id="374" name="Constant_42501" type="Const" version="opset1">
…
		<edge from-layer="2651" from-port="1" to-layer="2654" to-port="0" />
		<edge from-layer="2652" from-port="0" to-layer="2654" to-port="1" />
		<edge from-layer="2653" from-port="0" to-layer="2654" to-port="2" />
		<edge from-layer="2654" from-port="3" to-layer="2657" to-port="0" />
		<edge from-layer="2655" from-port="0" to-layer="2657" to-port="1" />
		<edge from-layer="2656" from-port="0" to-layer="2657" to-port="2" />
		<edge from-layer="2657" from-port="3" to-layer="2659" to-port="0" />
		<edge from-layer="2658" from-port="0" to-layer="2659" to-port="1" />
		<edge from-layer="2659" from-port="2" to-layer="2660" to-port="1" />
		<edge from-layer="2660" from-port="2" to-layer="2662" to-port="0" />
		<edge from-layer="2661" from-port="0" to-layer="2662" to-port="1" />
		<edge from-layer="2662" from-port="2" to-layer="2694" to-port="0" />
		<edge from-layer="2663" from-port="0" to-layer="2674" to-port="0" />
		<edge from-layer="2664" from-port="0" to-layer="2668" to-port="1" />
		<edge from-layer="2665" from-port="0" to-layer="2668" to-port="2" />
		<edge from-layer="2666" from-port="0" to-layer="2668" to-port="3" />
		<edge from-layer="2667" from-port="0" to-layer="2668" to-port="4" />
		<edge from-layer="2668" from-port="5" to-layer="2673" to-port="0" />
		<edge from-layer="2669" from-port="0" to-layer="2670" to-port="0" />
		<edge from-layer="2670" from-port="1" to-layer="2672" to-port="0" />
		<edge from-layer="2671" from-port="0" to-layer="2672" to-port="1" />
		<edge from-layer="2672" from-port="2" to-layer="2673" to-port="1" />
		<edge from-layer="2673" from-port="2" to-layer="2674" to-port="1" />
		<edge from-layer="2674" from-port="2" to-layer="2679" to-port="0" />
		<edge from-layer="2675" from-port="0" to-layer="2679" to-port="1" />
		<edge from-layer="2676" from-port="0" to-layer="2679" to-port="2" />
		<edge from-layer="2677" from-port="0" to-layer="2679" to-port="3" />
		<edge from-layer="2678" from-port="0" to-layer="2679" to-port="4" />
		<edge from-layer="2679" from-port="5" to-layer="2689" to-port="0" />
		<edge from-layer="2679" from-port="5" to-layer="2680" to-port="0" />
		<edge from-layer="2680" from-port="1" to-layer="2683" to-port="0" />
		<edge from-layer="2681" from-port="0" to-layer="2683" to-port="1" />
		<edge from-layer="2682" from-port="0" to-layer="2683" to-port="2" />
		<edge from-layer="2683" from-port="3" to-layer="2686" to-port="0" />
		<edge from-layer="2684" from-port="0" to-layer="2686" to-port="1" />
		<edge from-layer="2685" from-port="0" to-layer="2686" to-port="2" />
		<edge from-layer="2686" from-port="3" to-layer="2688" to-port="0" />
		<edge from-layer="2687" from-port="0" to-layer="2688" to-port="1" />
		<edge from-layer="2688" from-port="2" to-layer="2689" to-port="1" />
		<edge from-layer="2689" from-port="2" to-layer="2691" to-port="0" />
		<edge from-layer="2690" from-port="0" to-layer="2691" to-port="1" />
		<edge from-layer="2691" from-port="2" to-layer="2693" to-port="0" />
		<edge from-layer="2692" from-port="0" to-layer="2693" to-port="1" />
		<edge from-layer="2693" from-port="2" to-layer="2694" to-port="1" />
		<edge from-layer="2694" from-port="2" to-layer="2695" to-port="0" />
		<edge from-layer="2695" from-port="2" to-layer="2696" to-port="0" />
		<edge from-layer="2696" from-port="1" to-layer="2713" to-port="0" />
		<edge from-layer="2697" from-port="0" to-layer="2708" to-port="0" />
		<edge from-layer="2698" from-port="0" to-layer="2702" to-port="1" />
		<edge from-layer="2699" from-port="0" to-layer="2702" to-port="2" />
		<edge from-layer="2700" from-port="0" to-layer="2702" to-port="3" />
		<edge from-layer="2701" from-port="0" to-layer="2702" to-port="4" />
		<edge from-layer="2702" from-port="5" to-layer="2707" to-port="0" />
		<edge from-layer="2703" from-port="0" to-layer="2704" to-port="0" />
		<edge from-layer="2704" from-port="1" to-layer="2706" to-port="0" />
		<edge from-layer="2705" from-port="0" to-layer="2706" to-port="1" />
		<edge from-layer="2706" from-port="2" to-layer="2707" to-port="1" />
		<edge from-layer="2707" from-port="2" to-layer="2708" to-port="1" />
		<edge from-layer="2708" from-port="2" to-layer="2710" to-port="0" />
		<edge from-layer="2709" from-port="0" to-layer="2710" to-port="1" />
		<edge from-layer="2710" from-port="2" to-layer="2712" to-port="0" />
		<edge from-layer="2711" from-port="0" to-layer="2712" to-port="1" />
		<edge from-layer="2712" from-port="2" to-layer="2713" to-port="1" />
		<edge from-layer="2713" from-port="2" to-layer="2718" to-port="0" />
		<edge from-layer="2714" from-port="0" to-layer="2718" to-port="1" />
		<edge from-layer="2715" from-port="0" to-layer="2718" to-port="2" />
		<edge from-layer="2716" from-port="0" to-layer="2718" to-port="3" />
		<edge from-layer="2717" from-port="0" to-layer="2718" to-port="4" />
		<edge from-layer="2718" from-port="5" to-layer="2720" to-port="0" />
		<edge from-layer="2719" from-port="0" to-layer="2720" to-port="1" />
		<edge from-layer="2720" from-port="2" to-layer="2722" to-port="0" />
		<edge from-layer="2721" from-port="0" to-layer="2722" to-port="1" />
		<edge from-layer="2722" from-port="2" to-layer="2727" to-port="0" />
		<edge from-layer="2723" from-port="0" to-layer="2724" to-port="0" />
		<edge from-layer="2724" from-port="1" to-layer="2726" to-port="0" />
		<edge from-layer="2725" from-port="0" to-layer="2726" to-port="1" />
		<edge from-layer="2726" from-port="2" to-layer="2727" to-port="1" />
		<edge from-layer="2727" from-port="2" to-layer="2728" to-port="1" />
		<edge from-layer="2728" from-port="2" to-layer="2729" to-port="0" />
		<edge from-layer="2729" from-port="2" to-layer="2731" to-port="0" />
		<edge from-layer="2730" from-port="0" to-layer="2731" to-port="1" />
		<edge from-layer="2731" from-port="2" to-layer="2733" to-port="0" />
		<edge from-layer="2732" from-port="0" to-layer="2733" to-port="1" />
		<edge from-layer="2733" from-port="2" to-layer="2735" to-port="0" />
		<edge from-layer="2734" from-port="0" to-layer="2735" to-port="1" />
		<edge from-layer="2735" from-port="2" to-layer="2759" to-port="1" />
		<edge from-layer="2735" from-port="2" to-layer="2740" to-port="0" />
		<edge from-layer="2736" from-port="0" to-layer="2740" to-port="1" />
		<edge from-layer="2737" from-port="0" to-layer="2740" to-port="2" />
		<edge from-layer="2738" from-port="0" to-layer="2740" to-port="3" />
		<edge from-layer="2739" from-port="0" to-layer="2740" to-port="4" />
		<edge from-layer="2740" from-port="5" to-layer="2745" to-port="0" />
		<edge from-layer="2741" from-port="0" to-layer="2742" to-port="0" />
		<edge from-layer="2742" from-port="1" to-layer="2744" to-port="0" />
		<edge from-layer="2743" from-port="0" to-layer="2744" to-port="1" />
		<edge from-layer="2744" from-port="2" to-layer="2745" to-port="1" />
		<edge from-layer="2745" from-port="2" to-layer="2746" to-port="1" />
		<edge from-layer="2746" from-port="2" to-layer="2747" to-port="0" />
		<edge from-layer="2747" from-port="1" to-layer="2752" to-port="0" />
		<edge from-layer="2748" from-port="0" to-layer="2752" to-port="1" />
		<edge from-layer="2749" from-port="0" to-layer="2752" to-port="2" />
		<edge from-layer="2750" from-port="0" to-layer="2752" to-port="3" />
		<edge from-layer="2751" from-port="0" to-layer="2752" to-port="4" />
		<edge from-layer="2752" from-port="5" to-layer="2757" to-port="0" />
		<edge from-layer="2753" from-port="0" to-layer="2754" to-port="0" />
		<edge from-layer="2754" from-port="1" to-layer="2756" to-port="0" />
		<edge from-layer="2755" from-port="0" to-layer="2756" to-port="1" />
		<edge from-layer="2756" from-port="2" to-layer="2757" to-port="1" />
		<edge from-layer="2757" from-port="2" to-layer="2758" to-port="1" />
		<edge from-layer="2758" from-port="2" to-layer="2759" to-port="0" />
		<edge from-layer="2759" from-port="2" to-layer="2761" to-port="0" />
		<edge from-layer="2760" from-port="0" to-layer="2761" to-port="1" />
		<edge from-layer="2761" from-port="2" to-layer="2763" to-port="0" />
		<edge from-layer="2762" from-port="0" to-layer="2763" to-port="1" />
		<edge from-layer="2763" from-port="2" to-layer="2765" to-port="0" />
		<edge from-layer="2764" from-port="0" to-layer="2765" to-port="1" />
		<edge from-layer="2765" from-port="2" to-layer="2833" to-port="0" />
		<edge from-layer="2765" from-port="2" to-layer="2860" to-port="1" />
		<edge from-layer="2765" from-port="2" to-layer="2799" to-port="0" />
		<edge from-layer="2765" from-port="2" to-layer="2770" to-port="0" />
		<edge from-layer="2766" from-port="0" to-layer="2770" to-port="1" />
		<edge from-layer="2767" from-port="0" to-layer="2770" to-port="2" />
		<edge from-layer="2768" from-port="0" to-layer="2770" to-port="3" />
		<edge from-layer="2769" from-port="0" to-layer="2770" to-port="4" />
		<edge from-layer="2770" from-port="5" to-layer="2775" to-port="0" />
		<edge from-layer="2771" from-port="0" to-layer="2772" to-port="0" />
		<edge from-layer="2772" from-port="1" to-layer="2774" to-port="0" />
		<edge from-layer="2773" from-port="0" to-layer="2774" to-port="1" />
		<edge from-layer="2774" from-port="2" to-layer="2775" to-port="1" />
		<edge from-layer="2775" from-port="2" to-layer="2776" to-port="1" />
		<edge from-layer="2776" from-port="2" to-layer="2781" to-port="0" />
		<edge from-layer="2777" from-port="0" to-layer="2781" to-port="1" />
		<edge from-layer="2778" from-port="0" to-layer="2781" to-port="2" />
		<edge from-layer="2779" from-port="0" to-layer="2781" to-port="3" />
		<edge from-layer="2780" from-port="0" to-layer="2781" to-port="4" />
		<edge from-layer="2781" from-port="5" to-layer="2791" to-port="0" />
		<edge from-layer="2781" from-port="5" to-layer="2782" to-port="0" />
		<edge from-layer="2782" from-port="1" to-layer="2785" to-port="0" />
		<edge from-layer="2783" from-port="0" to-layer="2785" to-port="1" />
		<edge from-layer="2784" from-port="0" to-layer="2785" to-port="2" />
		<edge from-layer="2785" from-port="3" to-layer="2788" to-port="0" />
		<edge from-layer="2786" from-port="0" to-layer="2788" to-port="1" />
		<edge from-layer="2787" from-port="0" to-layer="2788" to-port="2" />
		<edge from-layer="2788" from-port="3" to-layer="2790" to-port="0" />
		<edge from-layer="2789" from-port="0" to-layer="2790" to-port="1" />
		<edge from-layer="2790" from-port="2" to-layer="2791" to-port="1" />
		<edge from-layer="2791" from-port="2" to-layer="2793" to-port="0" />
		<edge from-layer="2792" from-port="0" to-layer="2793" to-port="1" />
		<edge from-layer="2793" from-port="2" to-layer="2825" to-port="0" />
		<edge from-layer="2794" from-port="0" to-layer="2805" to-port="0" />
		<edge from-layer="2795" from-port="0" to-layer="2799" to-port="1" />
		<edge from-layer="2796" from-port="0" to-layer="2799" to-port="2" />
		<edge from-layer="2797" from-port="0" to-layer="2799" to-port="3" />
		<edge from-layer="2798" from-port="0" to-layer="2799" to-port="4" />
		<edge from-layer="2799" from-port="5" to-layer="2804" to-port="0" />
		<edge from-layer="2800" from-port="0" to-layer="2801" to-port="0" />
		<edge from-layer="2801" from-port="1" to-layer="2803" to-port="0" />
		<edge from-layer="2802" from-port="0" to-layer="2803" to-port="1" />
		<edge from-layer="2803" from-port="2" to-layer="2804" to-port="1" />
		<edge from-layer="2804" from-port="2" to-layer="2805" to-port="1" />
		<edge from-layer="2805" from-port="2" to-layer="2810" to-port="0" />
		<edge from-layer="2806" from-port="0" to-layer="2810" to-port="1" />
		<edge from-layer="2807" from-port="0" to-layer="2810" to-port="2" />
		<edge from-layer="2808" from-port="0" to-layer="2810" to-port="3" />
		<edge from-layer="2809" from-port="0" to-layer="2810" to-port="4" />
		<edge from-layer="2810" from-port="5" to-layer="2820" to-port="0" />
		<edge from-layer="2810" from-port="5" to-layer="2811" to-port="0" />
		<edge from-layer="2811" from-port="1" to-layer="2814" to-port="0" />
		<edge from-layer="2812" from-port="0" to-layer="2814" to-port="1" />
		<edge from-layer="2813" from-port="0" to-layer="2814" to-port="2" />
		<edge from-layer="2814" from-port="3" to-layer="2817" to-port="0" />
		<edge from-layer="2815" from-port="0" to-layer="2817" to-port="1" />
		<edge from-layer="2816" from-port="0" to-layer="2817" to-port="2" />
		<edge from-layer="2817" from-port="3" to-layer="2819" to-port="0" />
		<edge from-layer="2818" from-port="0" to-layer="2819" to-port="1" />
		<edge from-layer="2819" from-port="2" to-layer="2820" to-port="1" />
		<edge from-layer="2820" from-port="2" to-layer="2822" to-port="0" />
		<edge from-layer="2821" from-port="0" to-layer="2822" to-port="1" />
		<edge from-layer="2822" from-port="2" to-layer="2824" to-port="0" />
		<edge from-layer="2823" from-port="0" to-layer="2824" to-port="1" />
		<edge from-layer="2824" from-port="2" to-layer="2825" to-port="1" />
		<edge from-layer="2825" from-port="2" to-layer="2826" to-port="0" />
		<edge from-layer="2826" from-port="2" to-layer="2827" to-port="0" />
		<edge from-layer="2827" from-port="1" to-layer="2844" to-port="0" />
		<edge from-layer="2828" from-port="0" to-layer="2839" to-port="0" />
		<edge from-layer="2829" from-port="0" to-layer="2833" to-port="1" />
		<edge from-layer="2830" from-port="0" to-layer="2833" to-port="2" />
		<edge from-layer="2831" from-port="0" to-layer="2833" to-port="3" />
		<edge from-layer="2832" from-port="0" to-layer="2833" to-port="4" />
		<edge from-layer="2833" from-port="5" to-layer="2838" to-port="0" />
		<edge from-layer="2834" from-port="0" to-layer="2835" to-port="0" />
		<edge from-layer="2835" from-port="1" to-layer="2837" to-port="0" />
		<edge from-layer="2836" from-port="0" to-layer="2837" to-port="1" />
		<edge from-layer="2837" from-port="2" to-layer="2838" to-port="1" />
		<edge from-layer="2838" from-port="2" to-layer="2839" to-port="1" />
		<edge from-layer="2839" from-port="2" to-layer="2841" to-port="0" />
		<edge from-layer="2840" from-port="0" to-layer="2841" to-port="1" />
		<edge from-layer="2841" from-port="2" to-layer="2843" to-port="0" />
		<edge from-layer="2842" from-port="0" to-layer="2843" to-port="1" />
		<edge from-layer="2843" from-port="2" to-layer="2844" to-port="1" />
		<edge from-layer="2844" from-port="2" to-layer="2849" to-port="0" />
		<edge from-layer="2845" from-port="0" to-layer="2849" to-port="1" />
		<edge from-layer="2846" from-port="0" to-layer="2849" to-port="2" />
		<edge from-layer="2847" from-port="0" to-layer="2849" to-port="3" />
		<edge from-layer="2848" from-port="0" to-layer="2849" to-port="4" />
		<edge from-layer="2849" from-port="5" to-layer="2851" to-port="0" />
		<edge from-layer="2850" from-port="0" to-layer="2851" to-port="1" />
		<edge from-layer="2851" from-port="2" to-layer="2853" to-port="0" />
		<edge from-layer="2852" from-port="0" to-layer="2853" to-port="1" />
		<edge from-layer="2853" from-port="2" to-layer="2858" to-port="0" />
		<edge from-layer="2854" from-port="0" to-layer="2855" to-port="0" />
		<edge from-layer="2855" from-port="1" to-layer="2857" to-port="0" />
		<edge from-layer="2856" from-port="0" to-layer="2857" to-port="1" />
		<edge from-layer="2857" from-port="2" to-layer="2858" to-port="1" />
		<edge from-layer="2858" from-port="2" to-layer="2859" to-port="1" />
		<edge from-layer="2859" from-port="2" to-layer="2860" to-port="0" />
		<edge from-layer="2860" from-port="2" to-layer="2862" to-port="0" />
		<edge from-layer="2861" from-port="0" to-layer="2862" to-port="1" />
		<edge from-layer="2862" from-port="2" to-layer="2864" to-port="0" />
		<edge from-layer="2863" from-port="0" to-layer="2864" to-port="1" />
		<edge from-layer="2864" from-port="2" to-layer="2866" to-port="0" />
		<edge from-layer="2865" from-port="0" to-layer="2866" to-port="1" />
		<edge from-layer="2866" from-port="2" to-layer="2871" to-port="0" />
		<edge from-layer="2866" from-port="2" to-layer="2890" to-port="1" />
		<edge from-layer="2867" from-port="0" to-layer="2871" to-port="1" />
		<edge from-layer="2868" from-port="0" to-layer="2871" to-port="2" />
		<edge from-layer="2869" from-port="0" to-layer="2871" to-port="3" />
		<edge from-layer="2870" from-port="0" to-layer="2871" to-port="4" />
		<edge from-layer="2871" from-port="5" to-layer="2876" to-port="0" />
		<edge from-layer="2872" from-port="0" to-layer="2873" to-port="0" />
		<edge from-layer="2873" from-port="1" to-layer="2875" to-port="0" />
		<edge from-layer="2874" from-port="0" to-layer="2875" to-port="1" />
		<edge from-layer="2875" from-port="2" to-layer="2876" to-port="1" />
		<edge from-layer="2876" from-port="2" to-layer="2877" to-port="1" />
		<edge from-layer="2877" from-port="2" to-layer="2878" to-port="0" />
		<edge from-layer="2878" from-port="1" to-layer="2883" to-port="0" />
		<edge from-layer="2879" from-port="0" to-layer="2883" to-port="1" />
		<edge from-layer="2880" from-port="0" to-layer="2883" to-port="2" />
		<edge from-layer="2881" from-port="0" to-layer="2883" to-port="3" />
		<edge from-layer="2882" from-port="0" to-layer="2883" to-port="4" />
		<edge from-layer="2883" from-port="5" to-layer="2888" to-port="0" />
		<edge from-layer="2884" from-port="0" to-layer="2885" to-port="0" />
		<edge from-layer="2885" from-port="1" to-layer="2887" to-port="0" />
		<edge from-layer="2886" from-port="0" to-layer="2887" to-port="1" />
		<edge from-layer="2887" from-port="2" to-layer="2888" to-port="1" />
		<edge from-layer="2888" from-port="2" to-layer="2889" to-port="1" />
		<edge from-layer="2889" from-port="2" to-layer="2890" to-port="0" />
		<edge from-layer="2890" from-port="2" to-layer="2892" to-port="0" />
		<edge from-layer="2891" from-port="0" to-layer="2892" to-port="1" />
		<edge from-layer="2892" from-port="2" to-layer="2894" to-port="0" />
		<edge from-layer="2893" from-port="0" to-layer="2894" to-port="1" />
		<edge from-layer="2894" from-port="2" to-layer="2896" to-port="0" />
		<edge from-layer="2895" from-port="0" to-layer="2896" to-port="1" />
		<edge from-layer="2896" from-port="2" to-layer="2901" to-port="0" />
		<edge from-layer="2896" from-port="2" to-layer="2964" to-port="0" />
		<edge from-layer="2896" from-port="2" to-layer="2991" to-port="1" />
		<edge from-layer="2896" from-port="2" to-layer="2930" to-port="0" />
		<edge from-layer="2897" from-port="0" to-layer="2901" to-port="1" />
		<edge from-layer="2898" from-port="0" to-layer="2901" to-port="2" />
		<edge from-layer="2899" from-port="0" to-layer="2901" to-port="3" />
		<edge from-layer="2900" from-port="0" to-layer="2901" to-port="4" />
		<edge from-layer="2901" from-port="5" to-layer="2906" to-port="0" />
		<edge from-layer="2902" from-port="0" to-layer="2903" to-port="0" />
		<edge from-layer="2903" from-port="1" to-layer="2905" to-port="0" />
		<edge from-layer="2904" from-port="0" to-layer="2905" to-port="1" />
		<edge from-layer="2905" from-port="2" to-layer="2906" to-port="1" />
		<edge from-layer="2906" from-port="2" to-layer="2907" to-port="1" />
		<edge from-layer="2907" from-port="2" to-layer="2912" to-port="0" />
		<edge from-layer="2908" from-port="0" to-layer="2912" to-port="1" />
		<edge from-layer="2909" from-port="0" to-layer="2912" to-port="2" />
		<edge from-layer="2910" from-port="0" to-layer="2912" to-port="3" />
		<edge from-layer="2911" from-port="0" to-layer="2912" to-port="4" />
		<edge from-layer="2912" from-port="5" to-layer="2913" to-port="0" />
		<edge from-layer="2912" from-port="5" to-layer="2922" to-port="0" />
		<edge from-layer="2913" from-port="1" to-layer="2916" to-port="0" />
		<edge from-layer="2914" from-port="0" to-layer="2916" to-port="1" />
		<edge from-layer="2915" from-port="0" to-layer="2916" to-port="2" />
		<edge from-layer="2916" from-port="3" to-layer="2919" to-port="0" />
		<edge from-layer="2917" from-port="0" to-layer="2919" to-port="1" />
		<edge from-layer="2918" from-port="0" to-layer="2919" to-port="2" />
		<edge from-layer="2919" from-port="3" to-layer="2921" to-port="0" />
		<edge from-layer="2920" from-port="0" to-layer="2921" to-port="1" />
		<edge from-layer="2921" from-port="2" to-layer="2922" to-port="1" />
		<edge from-layer="2922" from-port="2" to-layer="2924" to-port="0" />
		<edge from-layer="2923" from-port="0" to-layer="2924" to-port="1" />
		<edge from-layer="2924" from-port="2" to-layer="2956" to-port="0" />
		<edge from-layer="2925" from-port="0" to-layer="2936" to-port="0" />
		<edge from-layer="2926" from-port="0" to-layer="2930" to-port="1" />
		<edge from-layer="2927" from-port="0" to-layer="2930" to-port="2" />
		<edge from-layer="2928" from-port="0" to-layer="2930" to-port="3" />
		<edge from-layer="2929" from-port="0" to-layer="2930" to-port="4" />
		<edge from-layer="2930" from-port="5" to-layer="2935" to-port="0" />
		<edge from-layer="2931" from-port="0" to-layer="2932" to-port="0" />
		<edge from-layer="2932" from-port="1" to-layer="2934" to-port="0" />
		<edge from-layer="2933" from-port="0" to-layer="2934" to-port="1" />
		<edge from-layer="2934" from-port="2" to-layer="2935" to-port="1" />
		<edge from-layer="2935" from-port="2" to-layer="2936" to-port="1" />
		<edge from-layer="2936" from-port="2" to-layer="2941" to-port="0" />
		<edge from-layer="2937" from-port="0" to-layer="2941" to-port="1" />
		<edge from-layer="2938" from-port="0" to-layer="2941" to-port="2" />
		<edge from-layer="2939" from-port="0" to-layer="2941" to-port="3" />
		<edge from-layer="2940" from-port="0" to-layer="2941" to-port="4" />
		<edge from-layer="2941" from-port="5" to-layer="2951" to-port="0" />
		<edge from-layer="2941" from-port="5" to-layer="2942" to-port="0" />
		<edge from-layer="2942" from-port="1" to-layer="2945" to-port="0" />
		<edge from-layer="2943" from-port="0" to-layer="2945" to-port="1" />
		<edge from-layer="2944" from-port="0" to-layer="2945" to-port="2" />
		<edge from-layer="2945" from-port="3" to-layer="2948" to-port="0" />
		<edge from-layer="2946" from-port="0" to-layer="2948" to-port="1" />
		<edge from-layer="2947" from-port="0" to-layer="2948" to-port="2" />
		<edge from-layer="2948" from-port="3" to-layer="2950" to-port="0" />
		<edge from-layer="2949" from-port="0" to-layer="2950" to-port="1" />
		<edge from-layer="2950" from-port="2" to-layer="2951" to-port="1" />
		<edge from-layer="2951" from-port="2" to-layer="2953" to-port="0" />
		<edge from-layer="2952" from-port="0" to-layer="2953" to-port="1" />
		<edge from-layer="2953" from-port="2" to-layer="2955" to-port="0" />
		<edge from-layer="2954" from-port="0" to-layer="2955" to-port="1" />
		<edge from-layer="2955" from-port="2" to-layer="2956" to-port="1" />
		<edge from-layer="2956" from-port="2" to-layer="2957" to-port="0" />
		<edge from-layer="2957" from-port="2" to-layer="2958" to-port="0" />
		<edge from-layer="2958" from-port="1" to-layer="2975" to-port="0" />
		<edge from-layer="2959" from-port="0" to-layer="2970" to-port="0" />
		<edge from-layer="2960" from-port="0" to-layer="2964" to-port="1" />
		<edge from-layer="2961" from-port="0" to-layer="2964" to-port="2" />
		<edge from-layer="2962" from-port="0" to-layer="2964" to-port="3" />
		<edge from-layer="2963" from-port="0" to-layer="2964" to-port="4" />
		<edge from-layer="2964" from-port="5" to-layer="2969" to-port="0" />
		<edge from-layer="2965" from-port="0" to-layer="2966" to-port="0" />
		<edge from-layer="2966" from-port="1" to-layer="2968" to-port="0" />
		<edge from-layer="2967" from-port="0" to-layer="2968" to-port="1" />
		<edge from-layer="2968" from-port="2" to-layer="2969" to-port="1" />
		<edge from-layer="2969" from-port="2" to-layer="2970" to-port="1" />
		<edge from-layer="2970" from-port="2" to-layer="2972" to-port="0" />
		<edge from-layer="2971" from-port="0" to-layer="2972" to-port="1" />
		<edge from-layer="2972" from-port="2" to-layer="2974" to-port="0" />
		<edge from-layer="2973" from-port="0" to-layer="2974" to-port="1" />
		<edge from-layer="2974" from-port="2" to-layer="2975" to-port="1" />
		<edge from-layer="2975" from-port="2" to-layer="2980" to-port="0" />
		<edge from-layer="2976" from-port="0" to-layer="2980" to-port="1" />
		<edge from-layer="2977" from-port="0" to-layer="2980" to-port="2" />
		<edge from-layer="2978" from-port="0" to-layer="2980" to-port="3" />
		<edge from-layer="2979" from-port="0" to-layer="2980" to-port="4" />
		<edge from-layer="2980" from-port="5" to-layer="2982" to-port="0" />
		<edge from-layer="2981" from-port="0" to-layer="2982" to-port="1" />
		<edge from-layer="2982" from-port="2" to-layer="2984" to-port="0" />
		<edge from-layer="2983" from-port="0" to-layer="2984" to-port="1" />
		<edge from-layer="2984" from-port="2" to-layer="2989" to-port="0" />
		<edge from-layer="2985" from-port="0" to-layer="2986" to-port="0" />
		<edge from-layer="2986" from-port="1" to-layer="2988" to-port="0" />
		<edge from-layer="2987" from-port="0" to-layer="2988" to-port="1" />
		<edge from-layer="2988" from-port="2" to-layer="2989" to-port="1" />
		<edge from-layer="2989" from-port="2" to-layer="2990" to-port="1" />
		<edge from-layer="2990" from-port="2" to-layer="2991" to-port="0" />
		<edge from-layer="2991" from-port="2" to-layer="2993" to-port="0" />
		<edge from-layer="2992" from-port="0" to-layer="2993" to-port="1" />
		<edge from-layer="2993" from-port="2" to-layer="2995" to-port="0" />
		<edge from-layer="2994" from-port="0" to-layer="2995" to-port="1" />
		<edge from-layer="2995" from-port="2" to-layer="2997" to-port="0" />
		<edge from-layer="2996" from-port="0" to-layer="2997" to-port="1" />
		<edge from-layer="2997" from-port="2" to-layer="3021" to-port="1" />
		<edge from-layer="2997" from-port="2" to-layer="3002" to-port="0" />
		<edge from-layer="2998" from-port="0" to-layer="3002" to-port="1" />
		<edge from-layer="2999" from-port="0" to-layer="3002" to-port="2" />
		<edge from-layer="3000" from-port="0" to-layer="3002" to-port="3" />
		<edge from-layer="3001" from-port="0" to-layer="3002" to-port="4" />
		<edge from-layer="3002" from-port="5" to-layer="3007" to-port="0" />
		<edge from-layer="3003" from-port="0" to-layer="3004" to-port="0" />
		<edge from-layer="3004" from-port="1" to-layer="3006" to-port="0" />
		<edge from-layer="3005" from-port="0" to-layer="3006" to-port="1" />
		<edge from-layer="3006" from-port="2" to-layer="3007" to-port="1" />
		<edge from-layer="3007" from-port="2" to-layer="3008" to-port="1" />
		<edge from-layer="3008" from-port="2" to-layer="3009" to-port="0" />
		<edge from-layer="3009" from-port="1" to-layer="3014" to-port="0" />
		<edge from-layer="3010" from-port="0" to-layer="3014" to-port="1" />
		<edge from-layer="3011" from-port="0" to-layer="3014" to-port="2" />
		<edge from-layer="3012" from-port="0" to-layer="3014" to-port="3" />
		<edge from-layer="3013" from-port="0" to-layer="3014" to-port="4" />
		<edge from-layer="3014" from-port="5" to-layer="3019" to-port="0" />
		<edge from-layer="3015" from-port="0" to-layer="3016" to-port="0" />
		<edge from-layer="3016" from-port="1" to-layer="3018" to-port="0" />
		<edge from-layer="3017" from-port="0" to-layer="3018" to-port="1" />
		<edge from-layer="3018" from-port="2" to-layer="3019" to-port="1" />
		<edge from-layer="3019" from-port="2" to-layer="3020" to-port="1" />
		<edge from-layer="3020" from-port="2" to-layer="3021" to-port="0" />
		<edge from-layer="3021" from-port="2" to-layer="3023" to-port="0" />
		<edge from-layer="3022" from-port="0" to-layer="3023" to-port="1" />
		<edge from-layer="3023" from-port="2" to-layer="3025" to-port="0" />
		<edge from-layer="3024" from-port="0" to-layer="3025" to-port="1" />
		<edge from-layer="3025" from-port="2" to-layer="3027" to-port="0" />
		<edge from-layer="3026" from-port="0" to-layer="3027" to-port="1" />
		<edge from-layer="3027" from-port="2" to-layer="3095" to-port="0" />
		<edge from-layer="3027" from-port="2" to-layer="3061" to-port="0" />
		<edge from-layer="3027" from-port="2" to-layer="3032" to-port="0" />
		<edge from-layer="3027" from-port="2" to-layer="3122" to-port="1" />
		<edge from-layer="3028" from-port="0" to-layer="3032" to-port="1" />
		<edge from-layer="3029" from-port="0" to-layer="3032" to-port="2" />
		<edge from-layer="3030" from-port="0" to-layer="3032" to-port="3" />
		<edge from-layer="3031" from-port="0" to-layer="3032" to-port="4" />
		<edge from-layer="3032" from-port="5" to-layer="3037" to-port="0" />
		<edge from-layer="3033" from-port="0" to-layer="3034" to-port="0" />
		<edge from-layer="3034" from-port="1" to-layer="3036" to-port="0" />
		<edge from-layer="3035" from-port="0" to-layer="3036" to-port="1" />
		<edge from-layer="3036" from-port="2" to-layer="3037" to-port="1" />
		<edge from-layer="3037" from-port="2" to-layer="3038" to-port="1" />
		<edge from-layer="3038" from-port="2" to-layer="3043" to-port="0" />
		<edge from-layer="3039" from-port="0" to-layer="3043" to-port="1" />
		<edge from-layer="3040" from-port="0" to-layer="3043" to-port="2" />
		<edge from-layer="3041" from-port="0" to-layer="3043" to-port="3" />
		<edge from-layer="3042" from-port="0" to-layer="3043" to-port="4" />
		<edge from-layer="3043" from-port="5" to-layer="3053" to-port="0" />
		<edge from-layer="3043" from-port="5" to-layer="3044" to-port="0" />
		<edge from-layer="3044" from-port="1" to-layer="3047" to-port="0" />
		<edge from-layer="3045" from-port="0" to-layer="3047" to-port="1" />
		<edge from-layer="3046" from-port="0" to-layer="3047" to-port="2" />
		<edge from-layer="3047" from-port="3" to-layer="3050" to-port="0" />
		<edge from-layer="3048" from-port="0" to-layer="3050" to-port="1" />
		<edge from-layer="3049" from-port="0" to-layer="3050" to-port="2" />
		<edge from-layer="3050" from-port="3" to-layer="3052" to-port="0" />
		<edge from-layer="3051" from-port="0" to-layer="3052" to-port="1" />
		<edge from-layer="3052" from-port="2" to-layer="3053" to-port="1" />
		<edge from-layer="3053" from-port="2" to-layer="3055" to-port="0" />
		<edge from-layer="3054" from-port="0" to-layer="3055" to-port="1" />
		<edge from-layer="3055" from-port="2" to-layer="3087" to-port="0" />
		<edge from-layer="3056" from-port="0" to-layer="3067" to-port="0" />
		<edge from-layer="3057" from-port="0" to-layer="3061" to-port="1" />
		<edge from-layer="3058" from-port="0" to-layer="3061" to-port="2" />
		<edge from-layer="3059" from-port="0" to-layer="3061" to-port="3" />
		<edge from-layer="3060" from-port="0" to-layer="3061" to-port="4" />
		<edge from-layer="3061" from-port="5" to-layer="3066" to-port="0" />
		<edge from-layer="3062" from-port="0" to-layer="3063" to-port="0" />
		<edge from-layer="3063" from-port="1" to-layer="3065" to-port="0" />
		<edge from-layer="3064" from-port="0" to-layer="3065" to-port="1" />
		<edge from-layer="3065" from-port="2" to-layer="3066" to-port="1" />
		<edge from-layer="3066" from-port="2" to-layer="3067" to-port="1" />
		<edge from-layer="3067" from-port="2" to-layer="3072" to-port="0" />
		<edge from-layer="3068" from-port="0" to-layer="3072" to-port="1" />
		<edge from-layer="3069" from-port="0" to-layer="3072" to-port="2" />
		<edge from-layer="3070" from-port="0" to-layer="3072" to-port="3" />
		<edge from-layer="3071" from-port="0" to-layer="3072" to-port="4" />
		<edge from-layer="3072" from-port="5" to-layer="3082" to-port="0" />
		<edge from-layer="3072" from-port="5" to-layer="3073" to-port="0" />
		<edge from-layer="3073" from-port="1" to-layer="3076" to-port="0" />
		<edge from-layer="3074" from-port="0" to-layer="3076" to-port="1" />
		<edge from-layer="3075" from-port="0" to-layer="3076" to-port="2" />
		<edge from-layer="3076" from-port="3" to-layer="3079" to-port="0" />
		<edge from-layer="3077" from-port="0" to-layer="3079" to-port="1" />
		<edge from-layer="3078" from-port="0" to-layer="3079" to-port="2" />
		<edge from-layer="3079" from-port="3" to-layer="3081" to-port="0" />
		<edge from-layer="3080" from-port="0" to-layer="3081" to-port="1" />
		<edge from-layer="3081" from-port="2" to-layer="3082" to-port="1" />
		<edge from-layer="3082" from-port="2" to-layer="3084" to-port="0" />
		<edge from-layer="3083" from-port="0" to-layer="3084" to-port="1" />
		<edge from-layer="3084" from-port="2" to-layer="3086" to-port="0" />
		<edge from-layer="3085" from-port="0" to-layer="3086" to-port="1" />
		<edge from-layer="3086" from-port="2" to-layer="3087" to-port="1" />
		<edge from-layer="3087" from-port="2" to-layer="3088" to-port="0" />
		<edge from-layer="3088" from-port="2" to-layer="3089" to-port="0" />
		<edge from-layer="3089" from-port="1" to-layer="3106" to-port="0" />
		<edge from-layer="3090" from-port="0" to-layer="3101" to-port="0" />
		<edge from-layer="3091" from-port="0" to-layer="3095" to-port="1" />
		<edge from-layer="3092" from-port="0" to-layer="3095" to-port="2" />
		<edge from-layer="3093" from-port="0" to-layer="3095" to-port="3" />
		<edge from-layer="3094" from-port="0" to-layer="3095" to-port="4" />
		<edge from-layer="3095" from-port="5" to-layer="3100" to-port="0" />
		<edge from-layer="3096" from-port="0" to-layer="3097" to-port="0" />
		<edge from-layer="3097" from-port="1" to-layer="3099" to-port="0" />
		<edge from-layer="3098" from-port="0" to-layer="3099" to-port="1" />
		<edge from-layer="3099" from-port="2" to-layer="3100" to-port="1" />
		<edge from-layer="3100" from-port="2" to-layer="3101" to-port="1" />
		<edge from-layer="3101" from-port="2" to-layer="3103" to-port="0" />
		<edge from-layer="3102" from-port="0" to-layer="3103" to-port="1" />
		<edge from-layer="3103" from-port="2" to-layer="3105" to-port="0" />
		<edge from-layer="3104" from-port="0" to-layer="3105" to-port="1" />
		<edge from-layer="3105" from-port="2" to-layer="3106" to-port="1" />
		<edge from-layer="3106" from-port="2" to-layer="3111" to-port="0" />
		<edge from-layer="3107" from-port="0" to-layer="3111" to-port="1" />
		<edge from-layer="3108" from-port="0" to-layer="3111" to-port="2" />
		<edge from-layer="3109" from-port="0" to-layer="3111" to-port="3" />
		<edge from-layer="3110" from-port="0" to-layer="3111" to-port="4" />
		<edge from-layer="3111" from-port="5" to-layer="3113" to-port="0" />
		<edge from-layer="3112" from-port="0" to-layer="3113" to-port="1" />
		<edge from-layer="3113" from-port="2" to-layer="3115" to-port="0" />
		<edge from-layer="3114" from-port="0" to-layer="3115" to-port="1" />
		<edge from-layer="3115" from-port="2" to-layer="3120" to-port="0" />
		<edge from-layer="3116" from-port="0" to-layer="3117" to-port="0" />
		<edge from-layer="3117" from-port="1" to-layer="3119" to-port="0" />
		<edge from-layer="3118" from-port="0" to-layer="3119" to-port="1" />
		<edge from-layer="3119" from-port="2" to-layer="3120" to-port="1" />
		<edge from-layer="3120" from-port="2" to-layer="3121" to-port="1" />
		<edge from-layer="3121" from-port="2" to-layer="3122" to-port="0" />
		<edge from-layer="3122" from-port="2" to-layer="3124" to-port="0" />
		<edge from-layer="3123" from-port="0" to-layer="3124" to-port="1" />
		<edge from-layer="3124" from-port="2" to-layer="3126" to-port="0" />
		<edge from-layer="3125" from-port="0" to-layer="3126" to-port="1" />
		<edge from-layer="3126" from-port="2" to-layer="3128" to-port="0" />
		<edge from-layer="3127" from-port="0" to-layer="3128" to-port="1" />
		<edge from-layer="3128" from-port="2" to-layer="3152" to-port="1" />
		<edge from-layer="3128" from-port="2" to-layer="3133" to-port="0" />
		<edge from-layer="3129" from-port="0" to-layer="3133" to-port="1" />
		<edge from-layer="3130" from-port="0" to-layer="3133" to-port="2" />
		<edge from-layer="3131" from-port="0" to-layer="3133" to-port="3" />
		<edge from-layer="3132" from-port="0" to-layer="3133" to-port="4" />
		<edge from-layer="3133" from-port="5" to-layer="3138" to-port="0" />
		<edge from-layer="3134" from-port="0" to-layer="3135" to-port="0" />
		<edge from-layer="3135" from-port="1" to-layer="3137" to-port="0" />
		<edge from-layer="3136" from-port="0" to-layer="3137" to-port="1" />
		<edge from-layer="3137" from-port="2" to-layer="3138" to-port="1" />
		<edge from-layer="3138" from-port="2" to-layer="3139" to-port="1" />
		<edge from-layer="3139" from-port="2" to-layer="3140" to-port="0" />
		<edge from-layer="3140" from-port="1" to-layer="3145" to-port="0" />
		<edge from-layer="3141" from-port="0" to-layer="3145" to-port="1" />
		<edge from-layer="3142" from-port="0" to-layer="3145" to-port="2" />
		<edge from-layer="3143" from-port="0" to-layer="3145" to-port="3" />
		<edge from-layer="3144" from-port="0" to-layer="3145" to-port="4" />
		<edge from-layer="3145" from-port="5" to-layer="3150" to-port="0" />
		<edge from-layer="3146" from-port="0" to-layer="3147" to-port="0" />
		<edge from-layer="3147" from-port="1" to-layer="3149" to-port="0" />
		<edge from-layer="3148" from-port="0" to-layer="3149" to-port="1" />
		<edge from-layer="3149" from-port="2" to-layer="3150" to-port="1" />
		<edge from-layer="3150" from-port="2" to-layer="3151" to-port="1" />
		<edge from-layer="3151" from-port="2" to-layer="3152" to-port="0" />
		<edge from-layer="3152" from-port="2" to-layer="3154" to-port="0" />
		<edge from-layer="3153" from-port="0" to-layer="3154" to-port="1" />
		<edge from-layer="3154" from-port="2" to-layer="3156" to-port="0" />
		<edge from-layer="3155" from-port="0" to-layer="3156" to-port="1" />
		<edge from-layer="3156" from-port="2" to-layer="3158" to-port="0" />
		<edge from-layer="3157" from-port="0" to-layer="3158" to-port="1" />
		<edge from-layer="3158" from-port="2" to-layer="3253" to-port="1" />
		<edge from-layer="3158" from-port="2" to-layer="3192" to-port="0" />
		<edge from-layer="3158" from-port="2" to-layer="3226" to-port="0" />
		<edge from-layer="3158" from-port="2" to-layer="3163" to-port="0" />
		<edge from-layer="3159" from-port="0" to-layer="3163" to-port="1" />
		<edge from-layer="3160" from-port="0" to-layer="3163" to-port="2" />
		<edge from-layer="3161" from-port="0" to-layer="3163" to-port="3" />
		<edge from-layer="3162" from-port="0" to-layer="3163" to-port="4" />
		<edge from-layer="3163" from-port="5" to-layer="3168" to-port="0" />
		<edge from-layer="3164" from-port="0" to-layer="3165" to-port="0" />
		<edge from-layer="3165" from-port="1" to-layer="3167" to-port="0" />
		<edge from-layer="3166" from-port="0" to-layer="3167" to-port="1" />
		<edge from-layer="3167" from-port="2" to-layer="3168" to-port="1" />
		<edge from-layer="3168" from-port="2" to-layer="3169" to-port="1" />
		<edge from-layer="3169" from-port="2" to-layer="3174" to-port="0" />
		<edge from-layer="3170" from-port="0" to-layer="3174" to-port="1" />
		<edge from-layer="3171" from-port="0" to-layer="3174" to-port="2" />
		<edge from-layer="3172" from-port="0" to-layer="3174" to-port="3" />
		<edge from-layer="3173" from-port="0" to-layer="3174" to-port="4" />
		<edge from-layer="3174" from-port="5" to-layer="3184" to-port="0" />
		<edge from-layer="3174" from-port="5" to-layer="3175" to-port="0" />
		<edge from-layer="3175" from-port="1" to-layer="3178" to-port="0" />
		<edge from-layer="3176" from-port="0" to-layer="3178" to-port="1" />
		<edge from-layer="3177" from-port="0" to-layer="3178" to-port="2" />
		<edge from-layer="3178" from-port="3" to-layer="3181" to-port="0" />
		<edge from-layer="3179" from-port="0" to-layer="3181" to-port="1" />
		<edge from-layer="3180" from-port="0" to-layer="3181" to-port="2" />
		<edge from-layer="3181" from-port="3" to-layer="3183" to-port="0" />
		<edge from-layer="3182" from-port="0" to-layer="3183" to-port="1" />
		<edge from-layer="3183" from-port="2" to-layer="3184" to-port="1" />
		<edge from-layer="3184" from-port="2" to-layer="3186" to-port="0" />
		<edge from-layer="3185" from-port="0" to-layer="3186" to-port="1" />
		<edge from-layer="3186" from-port="2" to-layer="3218" to-port="0" />
		<edge from-layer="3187" from-port="0" to-layer="3198" to-port="0" />
		<edge from-layer="3188" from-port="0" to-layer="3192" to-port="1" />
		<edge from-layer="3189" from-port="0" to-layer="3192" to-port="2" />
		<edge from-layer="3190" from-port="0" to-layer="3192" to-port="3" />
		<edge from-layer="3191" from-port="0" to-layer="3192" to-port="4" />
		<edge from-layer="3192" from-port="5" to-layer="3197" to-port="0" />
		<edge from-layer="3193" from-port="0" to-layer="3194" to-port="0" />
		<edge from-layer="3194" from-port="1" to-layer="3196" to-port="0" />
		<edge from-layer="3195" from-port="0" to-layer="3196" to-port="1" />
		<edge from-layer="3196" from-port="2" to-layer="3197" to-port="1" />
		<edge from-layer="3197" from-port="2" to-layer="3198" to-port="1" />
		<edge from-layer="3198" from-port="2" to-layer="3203" to-port="0" />
		<edge from-layer="3199" from-port="0" to-layer="3203" to-port="1" />
		<edge from-layer="3200" from-port="0" to-layer="3203" to-port="2" />
		<edge from-layer="3201" from-port="0" to-layer="3203" to-port="3" />
		<edge from-layer="3202" from-port="0" to-layer="3203" to-port="4" />
		<edge from-layer="3203" from-port="5" to-layer="3213" to-port="0" />
		<edge from-layer="3203" from-port="5" to-layer="3204" to-port="0" />
		<edge from-layer="3204" from-port="1" to-layer="3207" to-port="0" />
		<edge from-layer="3205" from-port="0" to-layer="3207" to-port="1" />
		<edge from-layer="3206" from-port="0" to-layer="3207" to-port="2" />
		<edge from-layer="3207" from-port="3" to-layer="3210" to-port="0" />
		<edge from-layer="3208" from-port="0" to-layer="3210" to-port="1" />
		<edge from-layer="3209" from-port="0" to-layer="3210" to-port="2" />
		<edge from-layer="3210" from-port="3" to-layer="3212" to-port="0" />
		<edge from-layer="3211" from-port="0" to-layer="3212" to-port="1" />
		<edge from-layer="3212" from-port="2" to-layer="3213" to-port="1" />
		<edge from-layer="3213" from-port="2" to-layer="3215" to-port="0" />
		<edge from-layer="3214" from-port="0" to-layer="3215" to-port="1" />
		<edge from-layer="3215" from-port="2" to-layer="3217" to-port="0" />
		<edge from-layer="3216" from-port="0" to-layer="3217" to-port="1" />
		<edge from-layer="3217" from-port="2" to-layer="3218" to-port="1" />
		<edge from-layer="3218" from-port="2" to-layer="3219" to-port="0" />
		<edge from-layer="3219" from-port="2" to-layer="3220" to-port="0" />
		<edge from-layer="3220" from-port="1" to-layer="3237" to-port="0" />
		<edge from-layer="3221" from-port="0" to-layer="3232" to-port="0" />
		<edge from-layer="3222" from-port="0" to-layer="3226" to-port="1" />
		<edge from-layer="3223" from-port="0" to-layer="3226" to-port="2" />
		<edge from-layer="3224" from-port="0" to-layer="3226" to-port="3" />
		<edge from-layer="3225" from-port="0" to-layer="3226" to-port="4" />
		<edge from-layer="3226" from-port="5" to-layer="3231" to-port="0" />
		<edge from-layer="3227" from-port="0" to-layer="3228" to-port="0" />
		<edge from-layer="3228" from-port="1" to-layer="3230" to-port="0" />
		<edge from-layer="3229" from-port="0" to-layer="3230" to-port="1" />
		<edge from-layer="3230" from-port="2" to-layer="3231" to-port="1" />
		<edge from-layer="3231" from-port="2" to-layer="3232" to-port="1" />
		<edge from-layer="3232" from-port="2" to-layer="3234" to-port="0" />
		<edge from-layer="3233" from-port="0" to-layer="3234" to-port="1" />
		<edge from-layer="3234" from-port="2" to-layer="3236" to-port="0" />
		<edge from-layer="3235" from-port="0" to-layer="3236" to-port="1" />
		<edge from-layer="3236" from-port="2" to-layer="3237" to-port="1" />
		<edge from-layer="3237" from-port="2" to-layer="3242" to-port="0" />
		<edge from-layer="3238" from-port="0" to-layer="3242" to-port="1" />
		<edge from-layer="3239" from-port="0" to-layer="3242" to-port="2" />
		<edge from-layer="3240" from-port="0" to-layer="3242" to-port="3" />
		<edge from-layer="3241" from-port="0" to-layer="3242" to-port="4" />
		<edge from-layer="3242" from-port="5" to-layer="3244" to-port="0" />
		<edge from-layer="3243" from-port="0" to-layer="3244" to-port="1" />
		<edge from-layer="3244" from-port="2" to-layer="3246" to-port="0" />
		<edge from-layer="3245" from-port="0" to-layer="3246" to-port="1" />
		<edge from-layer="3246" from-port="2" to-layer="3251" to-port="0" />
		<edge from-layer="3247" from-port="0" to-layer="3248" to-port="0" />
		<edge from-layer="3248" from-port="1" to-layer="3250" to-port="0" />
		<edge from-layer="3249" from-port="0" to-layer="3250" to-port="1" />
		<edge from-layer="3250" from-port="2" to-layer="3251" to-port="1" />
		<edge from-layer="3251" from-port="2" to-layer="3252" to-port="1" />
		<edge from-layer="3252" from-port="2" to-layer="3253" to-port="0" />
		<edge from-layer="3253" from-port="2" to-layer="3255" to-port="0" />
		<edge from-layer="3254" from-port="0" to-layer="3255" to-port="1" />
		<edge from-layer="3255" from-port="2" to-layer="3257" to-port="0" />
		<edge from-layer="3256" from-port="0" to-layer="3257" to-port="1" />
		<edge from-layer="3257" from-port="2" to-layer="3259" to-port="0" />
		<edge from-layer="3258" from-port="0" to-layer="3259" to-port="1" />
		<edge from-layer="3259" from-port="2" to-layer="3264" to-port="0" />
		<edge from-layer="3259" from-port="2" to-layer="3283" to-port="1" />
		<edge from-layer="3260" from-port="0" to-layer="3264" to-port="1" />
		<edge from-layer="3261" from-port="0" to-layer="3264" to-port="2" />
		<edge from-layer="3262" from-port="0" to-layer="3264" to-port="3" />
		<edge from-layer="3263" from-port="0" to-layer="3264" to-port="4" />
		<edge from-layer="3264" from-port="5" to-layer="3269" to-port="0" />
		<edge from-layer="3265" from-port="0" to-layer="3266" to-port="0" />
		<edge from-layer="3266" from-port="1" to-layer="3268" to-port="0" />
		<edge from-layer="3267" from-port="0" to-layer="3268" to-port="1" />
		<edge from-layer="3268" from-port="2" to-layer="3269" to-port="1" />
		<edge from-layer="3269" from-port="2" to-layer="3270" to-port="1" />
		<edge from-layer="3270" from-port="2" to-layer="3271" to-port="0" />
		<edge from-layer="3271" from-port="1" to-layer="3276" to-port="0" />
		<edge from-layer="3272" from-port="0" to-layer="3276" to-port="1" />
		<edge from-layer="3273" from-port="0" to-layer="3276" to-port="2" />
		<edge from-layer="3274" from-port="0" to-layer="3276" to-port="3" />
		<edge from-layer="3275" from-port="0" to-layer="3276" to-port="4" />
		<edge from-layer="3276" from-port="5" to-layer="3281" to-port="0" />
		<edge from-layer="3277" from-port="0" to-layer="3278" to-port="0" />
		<edge from-layer="3278" from-port="1" to-layer="3280" to-port="0" />
		<edge from-layer="3279" from-port="0" to-layer="3280" to-port="1" />
		<edge from-layer="3280" from-port="2" to-layer="3281" to-port="1" />
		<edge from-layer="3281" from-port="2" to-layer="3282" to-port="1" />
		<edge from-layer="3282" from-port="2" to-layer="3283" to-port="0" />
		<edge from-layer="3283" from-port="2" to-layer="3285" to-port="0" />
		<edge from-layer="3284" from-port="0" to-layer="3285" to-port="1" />
		<edge from-layer="3285" from-port="2" to-layer="3287" to-port="0" />
		<edge from-layer="3286" from-port="0" to-layer="3287" to-port="1" />
		<edge from-layer="3287" from-port="2" to-layer="3289" to-port="0" />
		<edge from-layer="3288" from-port="0" to-layer="3289" to-port="1" />
		<edge from-layer="3289" from-port="2" to-layer="3294" to-port="0" />
		<edge from-layer="3290" from-port="0" to-layer="3294" to-port="1" />
		<edge from-layer="3291" from-port="0" to-layer="3294" to-port="2" />
		<edge from-layer="3292" from-port="0" to-layer="3294" to-port="3" />
		<edge from-layer="3293" from-port="0" to-layer="3294" to-port="4" />
		<edge from-layer="3294" from-port="5" to-layer="3299" to-port="0" />
		<edge from-layer="3295" from-port="0" to-layer="3296" to-port="0" />
		<edge from-layer="3296" from-port="1" to-layer="3298" to-port="0" />
		<edge from-layer="3297" from-port="0" to-layer="3298" to-port="1" />
		<edge from-layer="3298" from-port="2" to-layer="3299" to-port="1" />
		<edge from-layer="3299" from-port="2" to-layer="3300" to-port="1" />
		<edge from-layer="3300" from-port="2" to-layer="3303" to-port="0" />
		<edge from-layer="3301" from-port="0" to-layer="3303" to-port="1" />
		<edge from-layer="3302" from-port="0" to-layer="3303" to-port="2" />
		<edge from-layer="3303" from-port="4" to-layer="3304" to-port="0" />
		<edge from-layer="3303" from-port="3" to-layer="3318" to-port="2" />
		<edge from-layer="3303" from-port="3" to-layer="3318" to-port="1" />
		<edge from-layer="3303" from-port="3" to-layer="3312" to-port="0" />
		<edge from-layer="3303" from-port="4" to-layer="3310" to-port="2" />
		<edge from-layer="3303" from-port="4" to-layer="3310" to-port="1" />
		<edge from-layer="3304" from-port="1" to-layer="3307" to-port="0" />
		<edge from-layer="3305" from-port="0" to-layer="3307" to-port="1" />
		<edge from-layer="3306" from-port="0" to-layer="3307" to-port="2" />
		<edge from-layer="3307" from-port="3" to-layer="3309" to-port="0" />
		<edge from-layer="3308" from-port="0" to-layer="3309" to-port="1" />
		<edge from-layer="3309" from-port="2" to-layer="3310" to-port="0" />
		<edge from-layer="3310" from-port="3" to-layer="3311" to-port="0" />
		<edge from-layer="3312" from-port="1" to-layer="3315" to-port="0" />
		<edge from-layer="3313" from-port="0" to-layer="3315" to-port="1" />
		<edge from-layer="3314" from-port="0" to-layer="3315" to-port="2" />
		<edge from-layer="3315" from-port="3" to-layer="3317" to-port="0" />
		<edge from-layer="3316" from-port="0" to-layer="3317" to-port="1" />
		<edge from-layer="3317" from-port="2" to-layer="3318" to-port="0" />
		<edge from-layer="3318" from-port="3" to-layer="3319" to-port="0" />
	</edges>
	<rt_info>
		<MO_version value="2022.3.0-9052-9752fafe8eb-releases/2022/3" />
		<Runtime_version value="2022.3.0-9052-9752fafe8eb-releases/2022/3" />
		<conversion_parameters>
			<framework value="onnx" />
			<input_model value="DIR/model.onnx" />
			<model_name value="openvino_model" />
			<output_dir value="DIR" />
			<transform value="Pruning" />
		</conversion_parameters>
		<legacy_frontend value="False" />
	</rt_info>
</net>
