<?xml version="1.0"?>
<net name="torch_jit" version="11">
	<layers>
		<layer id="2" name="input_ids" type="Parameter" version="opset1">
			<data shape="1,384" element_type="i64" />
			<rt_info>
				<attribute name="old_api_map_element_type" version="0" value="i32" />
			</rt_info>
			<output>
				<port id="0" precision="I64" names="input_ids">
					<dim>1</dim>
					<dim>384</dim>
				</port>
			</output>
		</layer>
		<layer id="1" name="attention_mask" type="Parameter" version="opset1">
			<data shape="1,384" element_type="i64" />
			<rt_info>
				<attribute name="old_api_map_element_type" version="0" value="i32" />
			</rt_info>
			<output>
				<port id="0" precision="I64" names="attention_mask">
					<dim>1</dim>
					<dim>384</dim>
				</port>
			</output>
		</layer>
		<layer id="0" name="token_type_ids" type="Parameter" version="opset1">
			<data shape="1,384" element_type="i64" />
			<rt_info>
				<attribute name="old_api_map_element_type" version="0" value="i32" />
			</rt_info>
			<output>
				<port id="0" precision="I64" names="token_type_ids">
					<dim>1</dim>
					<dim>384</dim>
				</port>
			</output>
		</layer>
		<layer id="3" name="Constant_9082896" type="Const" version="opset1">
			<data element_type="f32" shape="1, 1, 2" offset="0" size="8" />
			<output>
				<port id="0" precision="FP32">
					<dim>1</dim>
					<dim>1</dim>
					<dim>2</dim>
				</port>
			</output>
		</layer>
		<layer id="4" name="Constant_9082885" type="Const" version="opset1">
			<data element_type="f32" shape="1, 1, 512" offset="8" size="2048" />
			<output>
				<port id="0" precision="FP32">
					<dim>1</dim>
					<dim>1</dim>
					<dim>512</dim>
				</port>
			</output>
		</layer>
		<layer id="5" name="Constant_9082874" type="Const" version="opset1">
			<data element_type="f32" shape="1, 1, 128" offset="2056" size="512" />
			<output>
				<port id="0" precision="FP32">
					<dim>1</dim>
					<dim>1</dim>
					<dim>128</dim>
				</port>
			</output>
		</layer>
		<layer id="6" name="Constant_9122761" type="Const" version="opset1">
			<data element_type="f32" shape="1, 1, 115" offset="2568" size="460" />
			<output>
				<port id="0" precision="FP32">
					<dim>1</dim>
					<dim>1</dim>
					<dim>115</dim>
				</port>
			</output>
		</layer>
		<layer id="7" name="Constant_9082858" type="Const" version="opset1">
			<data element_type="f32" shape="1, 1, 128" offset="3028" size="512" />
			<output>
				<port id="0" precision="FP32">
					<dim>1</dim>
					<dim>1</dim>
					<dim>128</dim>
				</port>
			</output>
		</layer>
		<layer id="8" name="Constant_9122768" type="Const" version="opset1">
			<data element_type="f32" shape="1, 1, 142" offset="3540" size="568" />
			<output>
				<port id="0" precision="FP32">
					<dim>1</dim>
					<dim>1</dim>
					<dim>142</dim>
				</port>
			</output>
		</layer>
		<layer id="9" name="Constant_9082842" type="Const" version="opset1">
			<data element_type="f32" shape="1, 1, 128" offset="4108" size="512" />
			<output>
				<port id="0" precision="FP32">
					<dim>1</dim>
					<dim>1</dim>
					<dim>128</dim>
				</port>
			</output>
		</layer>
		<layer id="10" name="Constant_9122775" type="Const" version="opset1">
			<data element_type="f32" shape="1, 1, 154" offset="4620" size="616" />
			<output>
				<port id="0" precision="FP32">
					<dim>1</dim>
					<dim>1</dim>
					<dim>154</dim>
				</port>
			</output>
		</layer>
		<layer id="11" name="Constant_9082826" type="Const" version="opset1">
			<data element_type="f32" shape="1, 1, 128" offset="5236" size="512" />
			<output>
				<port id="0" precision="FP32">
					<dim>1</dim>
					<dim>1</dim>
					<dim>128</dim>
				</port>
			</output>
		</layer>
		<layer id="12" name="Constant_9122782" type="Const" version="opset1">
			<data element_type="f32" shape="1, 1, 182" offset="5748" size="728" />
			<output>
				<port id="0" precision="FP32">
					<dim>1</dim>
					<dim>1</dim>
					<dim>182</dim>
				</port>
			</output>
		</layer>
		<layer id="13" name="Constant_9082805" type="Const" version="opset1">
			<data element_type="f32" shape="1, 1, 128" offset="6476" size="512" />
			<output>
				<port id="0" precision="FP32">
					<dim>1</dim>
					<dim>1</dim>
					<dim>128</dim>
				</port>
			</output>
		</layer>
		<layer id="14" name="Constant_9082777" type="Const" version="opset1">
			<data element_type="f32" shape="1, 1, 128" offset="6988" size="512" />
			<output>
				<port id="0" precision="FP32">
					<dim>1</dim>
					<dim>1</dim>
					<dim>128</dim>
				</port>
			</output>
		</layer>
		<layer id="15" name="Constant_9082761" type="Const" version="opset1">
			<data element_type="f32" shape="1, 1, 512" offset="7500" size="2048" />
			<output>
				<port id="0" precision="FP32">
					<dim>1</dim>
					<dim>1</dim>
					<dim>512</dim>
				</port>
			</output>
		</layer>
		<layer id="16" name="Constant_9082750" type="Const" version="opset1">
			<data element_type="f32" shape="1, 1, 128" offset="9548" size="512" />
			<output>
				<port id="0" precision="FP32">
					<dim>1</dim>
					<dim>1</dim>
					<dim>128</dim>
				</port>
			</output>
		</layer>
		<layer id="17" name="Constant_9122789" type="Const" version="opset1">
			<data element_type="f32" shape="1, 1, 209" offset="10060" size="836" />
			<output>
				<port id="0" precision="FP32">
					<dim>1</dim>
					<dim>1</dim>
					<dim>209</dim>
				</port>
			</output>
		</layer>
		<layer id="18" name="Constant_9082734" type="Const" version="opset1">
			<data element_type="f32" shape="1, 1, 128" offset="10896" size="512" />
			<output>
				<port id="0" precision="FP32">
					<dim>1</dim>
					<dim>1</dim>
					<dim>128</dim>
				</port>
			</output>
		</layer>
		<layer id="19" name="Constant_9122796" type="Const" version="opset1">
			<data element_type="f32" shape="1, 1, 231" offset="11408" size="924" />
			<output>
				<port id="0" precision="FP32">
					<dim>1</dim>
					<dim>1</dim>
					<dim>231</dim>
				</port>
			</output>
		</layer>
		<layer id="20" name="Constant_9082718" type="Const" version="opset1">
			<data element_type="f32" shape="1, 1, 128" offset="12332" size="512" />
			<output>
				<port id="0" precision="FP32">
					<dim>1</dim>
					<dim>1</dim>
					<dim>128</dim>
				</port>
			</output>
		</layer>
		<layer id="21" name="Constant_9122803" type="Const" version="opset1">
			<data element_type="f32" shape="1, 1, 176" offset="12844" size="704" />
			<output>
				<port id="0" precision="FP32">
					<dim>1</dim>
					<dim>1</dim>
					<dim>176</dim>
				</port>
			</output>
		</layer>
		<layer id="22" name="Constant_9082702" type="Const" version="opset1">
			<data element_type="f32" shape="1, 1, 128" offset="13548" size="512" />
			<output>
				<port id="0" precision="FP32">
					<dim>1</dim>
					<dim>1</dim>
					<dim>128</dim>
				</port>
			</output>
		</layer>
		<layer id="23" name="Constant_9122810" type="Const" version="opset1">
			<data element_type="f32" shape="1, 1, 199" offset="14060" size="796" />
			<output>
				<port id="0" precision="FP32">
					<dim>1</dim>
					<dim>1</dim>
					<dim>199</dim>
				</port>
			</output>
		</layer>
		<layer id="24" name="Constant_9082681" type="Const" version="opset1">
			<data element_type="f32" shape="1, 1, 128" offset="14856" size="512" />
			<output>
				<port id="0" precision="FP32">
					<dim>1</dim>
					<dim>1</dim>
					<dim>128</dim>
				</port>
			</output>
		</layer>
		<layer id="25" name="Constant_9082653" type="Const" version="opset1">
			<data element_type="f32" shape="1, 1, 128" offset="15368" size="512" />
			<output>
				<port id="0" precision="FP32">
					<dim>1</dim>
					<dim>1</dim>
					<dim>128</dim>
				</port>
			</output>
		</layer>
		<layer id="26" name="Constant_9082637" type="Const" version="opset1">
			<data element_type="f32" shape="1, 1, 512" offset="15880" size="2048" />
			<output>
				<port id="0" precision="FP32">
					<dim>1</dim>
					<dim>1</dim>
					<dim>512</dim>
				</port>
			</output>
		</layer>
		<layer id="27" name="Constant_9082626" type="Const" version="opset1">
			<data element_type="f32" shape="1, 1, 128" offset="17928" size="512" />
			<output>
				<port id="0" precision="FP32">
					<dim>1</dim>
					<dim>1</dim>
					<dim>128</dim>
				</port>
			</output>
		</layer>
		<layer id="28" name="Constant_9122817" type="Const" version="opset1">
			<data element_type="f32" shape="1, 1, 205" offset="18440" size="820" />
			<output>
				<port id="0" precision="FP32">
					<dim>1</dim>
					<dim>1</dim>
					<dim>205</dim>
				</port>
			</output>
		</layer>
		<layer id="29" name="Constant_9082610" type="Const" version="opset1">
			<data element_type="f32" shape="1, 1, 128" offset="19260" size="512" />
			<output>
				<port id="0" precision="FP32">
					<dim>1</dim>
					<dim>1</dim>
					<dim>128</dim>
				</port>
			</output>
		</layer>
		<layer id="30" name="Constant_9122824" type="Const" version="opset1">
			<data element_type="f32" shape="1, 1, 199" offset="19772" size="796" />
			<output>
				<port id="0" precision="FP32">
					<dim>1</dim>
					<dim>1</dim>
					<dim>199</dim>
				</port>
			</output>
		</layer>
		<layer id="31" name="Constant_9082594" type="Const" version="opset1">
			<data element_type="f32" shape="1, 1, 128" offset="20568" size="512" />
			<output>
				<port id="0" precision="FP32">
					<dim>1</dim>
					<dim>1</dim>
					<dim>128</dim>
				</port>
			</output>
		</layer>
		<layer id="32" name="Constant_9122831" type="Const" version="opset1">
			<data element_type="f32" shape="1, 1, 193" offset="21080" size="772" />
			<output>
				<port id="0" precision="FP32">
					<dim>1</dim>
					<dim>1</dim>
					<dim>193</dim>
				</port>
			</output>
		</layer>
		<layer id="33" name="Constant_9082578" type="Const" version="opset1">
			<data element_type="f32" shape="1, 1, 128" offset="21852" size="512" />
			<output>
				<port id="0" precision="FP32">
					<dim>1</dim>
					<dim>1</dim>
					<dim>128</dim>
				</port>
			</output>
		</layer>
		<layer id="34" name="Constant_9122838" type="Const" version="opset1">
			<data element_type="f32" shape="1, 1, 201" offset="22364" size="804" />
			<output>
				<port id="0" precision="FP32">
					<dim>1</dim>
					<dim>1</dim>
					<dim>201</dim>
				</port>
			</output>
		</layer>
		<layer id="35" name="Constant_9082557" type="Const" version="opset1">
			<data element_type="f32" shape="1, 1, 128" offset="23168" size="512" />
			<output>
				<port id="0" precision="FP32">
					<dim>1</dim>
					<dim>1</dim>
					<dim>128</dim>
				</port>
			</output>
		</layer>
		<layer id="36" name="Constant_9082529" type="Const" version="opset1">
			<data element_type="f32" shape="1, 1, 128" offset="23680" size="512" />
			<output>
				<port id="0" precision="FP32">
					<dim>1</dim>
					<dim>1</dim>
					<dim>128</dim>
				</port>
			</output>
		</layer>
		<layer id="37" name="Constant_9082513" type="Const" version="opset1">
			<data element_type="f32" shape="1, 1, 512" offset="24192" size="2048" />
			<output>
				<port id="0" precision="FP32">
					<dim>1</dim>
					<dim>1</dim>
					<dim>512</dim>
				</port>
			</output>
		</layer>
		<layer id="38" name="Constant_9082502" type="Const" version="opset1">
			<data element_type="f32" shape="1, 1, 128" offset="26240" size="512" />
			<output>
				<port id="0" precision="FP32">
					<dim>1</dim>
					<dim>1</dim>
					<dim>128</dim>
				</port>
			</output>
		</layer>
		<layer id="39" name="Constant_9122845" type="Const" version="opset1">
			<data element_type="f32" shape="1, 1, 224" offset="26752" size="896" />
			<output>
				<port id="0" precision="FP32">
					<dim>1</dim>
					<dim>1</dim>
					<dim>224</dim>
				</port>
			</output>
		</layer>
		<layer id="40" name="Constant_9082486" type="Const" version="opset1">
			<data element_type="f32" shape="1, 1, 128" offset="27648" size="512" />
			<output>
				<port id="0" precision="FP32">
					<dim>1</dim>
					<dim>1</dim>
					<dim>128</dim>
				</port>
			</output>
		</layer>
		<layer id="41" name="Constant_9122852" type="Const" version="opset1">
			<data element_type="f32" shape="1, 1, 237" offset="28160" size="948" />
			<output>
				<port id="0" precision="FP32">
					<dim>1</dim>
					<dim>1</dim>
					<dim>237</dim>
				</port>
			</output>
		</layer>
		<layer id="42" name="Constant_9082470" type="Const" version="opset1">
			<data element_type="f32" shape="1, 1, 128" offset="29108" size="512" />
			<output>
				<port id="0" precision="FP32">
					<dim>1</dim>
					<dim>1</dim>
					<dim>128</dim>
				</port>
			</output>
		</layer>
		<layer id="43" name="Constant_9122859" type="Const" version="opset1">
			<data element_type="f32" shape="1, 1, 206" offset="29620" size="824" />
			<output>
				<port id="0" precision="FP32">
					<dim>1</dim>
					<dim>1</dim>
					<dim>206</dim>
				</port>
			</output>
		</layer>
		<layer id="44" name="Constant_9082454" type="Const" version="opset1">
			<data element_type="f32" shape="1, 1, 128" offset="30444" size="512" />
			<output>
				<port id="0" precision="FP32">
					<dim>1</dim>
					<dim>1</dim>
					<dim>128</dim>
				</port>
			</output>
		</layer>
		<layer id="45" name="Constant_9122866" type="Const" version="opset1">
			<data element_type="f32" shape="1, 1, 213" offset="30956" size="852" />
			<output>
				<port id="0" precision="FP32">
					<dim>1</dim>
					<dim>1</dim>
					<dim>213</dim>
				</port>
			</output>
		</layer>
		<layer id="46" name="Constant_9082433" type="Const" version="opset1">
			<data element_type="f32" shape="1, 1, 128" offset="31808" size="512" />
			<output>
				<port id="0" precision="FP32">
					<dim>1</dim>
					<dim>1</dim>
					<dim>128</dim>
				</port>
			</output>
		</layer>
		<layer id="47" name="Constant_9082405" type="Const" version="opset1">
			<data element_type="f32" shape="1, 1, 128" offset="32320" size="512" />
			<output>
				<port id="0" precision="FP32">
					<dim>1</dim>
					<dim>1</dim>
					<dim>128</dim>
				</port>
			</output>
		</layer>
		<layer id="48" name="Constant_9082389" type="Const" version="opset1">
			<data element_type="f32" shape="1, 1, 512" offset="32832" size="2048" />
			<output>
				<port id="0" precision="FP32">
					<dim>1</dim>
					<dim>1</dim>
					<dim>512</dim>
				</port>
			</output>
		</layer>
		<layer id="49" name="Constant_9082378" type="Const" version="opset1">
			<data element_type="f32" shape="1, 1, 128" offset="34880" size="512" />
			<output>
				<port id="0" precision="FP32">
					<dim>1</dim>
					<dim>1</dim>
					<dim>128</dim>
				</port>
			</output>
		</layer>
		<layer id="50" name="Constant_9122873" type="Const" version="opset1">
			<data element_type="f32" shape="1, 1, 328" offset="35392" size="1312" />
			<output>
				<port id="0" precision="FP32">
					<dim>1</dim>
					<dim>1</dim>
					<dim>328</dim>
				</port>
			</output>
		</layer>
		<layer id="51" name="Constant_9082362" type="Const" version="opset1">
			<data element_type="f32" shape="1, 1, 128" offset="36704" size="512" />
			<output>
				<port id="0" precision="FP32">
					<dim>1</dim>
					<dim>1</dim>
					<dim>128</dim>
				</port>
			</output>
		</layer>
		<layer id="52" name="Constant_9122880" type="Const" version="opset1">
			<data element_type="f32" shape="1, 1, 293" offset="37216" size="1172" />
			<output>
				<port id="0" precision="FP32">
					<dim>1</dim>
					<dim>1</dim>
					<dim>293</dim>
				</port>
			</output>
		</layer>
		<layer id="53" name="Constant_9082346" type="Const" version="opset1">
			<data element_type="f32" shape="1, 1, 128" offset="38388" size="512" />
			<output>
				<port id="0" precision="FP32">
					<dim>1</dim>
					<dim>1</dim>
					<dim>128</dim>
				</port>
			</output>
		</layer>
		<layer id="54" name="Constant_9122887" type="Const" version="opset1">
			<data element_type="f32" shape="1, 1, 250" offset="38900" size="1000" />
			<output>
				<port id="0" precision="FP32">
					<dim>1</dim>
					<dim>1</dim>
					<dim>250</dim>
				</port>
			</output>
		</layer>
		<layer id="55" name="Constant_9082330" type="Const" version="opset1">
			<data element_type="f32" shape="1, 1, 128" offset="39900" size="512" />
			<output>
				<port id="0" precision="FP32">
					<dim>1</dim>
					<dim>1</dim>
					<dim>128</dim>
				</port>
			</output>
		</layer>
		<layer id="56" name="Constant_9122894" type="Const" version="opset1">
			<data element_type="f32" shape="1, 1, 263" offset="40412" size="1052" />
			<output>
				<port id="0" precision="FP32">
					<dim>1</dim>
					<dim>1</dim>
					<dim>263</dim>
				</port>
			</output>
		</layer>
		<layer id="57" name="Constant_9082309" type="Const" version="opset1">
			<data element_type="f32" shape="1, 1, 128" offset="41464" size="512" />
			<output>
				<port id="0" precision="FP32">
					<dim>1</dim>
					<dim>1</dim>
					<dim>128</dim>
				</port>
			</output>
		</layer>
		<layer id="58" name="Constant_9082281" type="Const" version="opset1">
			<data element_type="f32" shape="1, 1, 128" offset="41976" size="512" />
			<output>
				<port id="0" precision="FP32">
					<dim>1</dim>
					<dim>1</dim>
					<dim>128</dim>
				</port>
			</output>
		</layer>
		<layer id="59" name="Constant_9082265" type="Const" version="opset1">
			<data element_type="f32" shape="1, 1, 512" offset="42488" size="2048" />
			<output>
				<port id="0" precision="FP32">
					<dim>1</dim>
					<dim>1</dim>
					<dim>512</dim>
				</port>
			</output>
		</layer>
		<layer id="60" name="Constant_9082254" type="Const" version="opset1">
			<data element_type="f32" shape="1, 1, 128" offset="44536" size="512" />
			<output>
				<port id="0" precision="FP32">
					<dim>1</dim>
					<dim>1</dim>
					<dim>128</dim>
				</port>
			</output>
		</layer>
		<layer id="61" name="Constant_9122901" type="Const" version="opset1">
			<data element_type="f32" shape="1, 1, 372" offset="45048" size="1488" />
			<output>
				<port id="0" precision="FP32">
					<dim>1</dim>
					<dim>1</dim>
					<dim>372</dim>
				</port>
			</output>
		</layer>
		<layer id="62" name="Constant_9082238" type="Const" version="opset1">
			<data element_type="f32" shape="1, 1, 128" offset="46536" size="512" />
			<output>
				<port id="0" precision="FP32">
					<dim>1</dim>
					<dim>1</dim>
					<dim>128</dim>
				</port>
			</output>
		</layer>
		<layer id="63" name="Constant_9122908" type="Const" version="opset1">
			<data element_type="f32" shape="1, 1, 344" offset="47048" size="1376" />
			<output>
				<port id="0" precision="FP32">
					<dim>1</dim>
					<dim>1</dim>
					<dim>344</dim>
				</port>
			</output>
		</layer>
		<layer id="64" name="Constant_9082222" type="Const" version="opset1">
			<data element_type="f32" shape="1, 1, 128" offset="48424" size="512" />
			<output>
				<port id="0" precision="FP32">
					<dim>1</dim>
					<dim>1</dim>
					<dim>128</dim>
				</port>
			</output>
		</layer>
		<layer id="65" name="Constant_9122915" type="Const" version="opset1">
			<data element_type="f32" shape="1, 1, 282" offset="48936" size="1128" />
			<output>
				<port id="0" precision="FP32">
					<dim>1</dim>
					<dim>1</dim>
					<dim>282</dim>
				</port>
			</output>
		</layer>
		<layer id="66" name="Constant_9082206" type="Const" version="opset1">
			<data element_type="f32" shape="1, 1, 128" offset="50064" size="512" />
			<output>
				<port id="0" precision="FP32">
					<dim>1</dim>
					<dim>1</dim>
					<dim>128</dim>
				</port>
			</output>
		</layer>
		<layer id="67" name="Constant_9122922" type="Const" version="opset1">
			<data element_type="f32" shape="1, 1, 307" offset="50576" size="1228" />
			<output>
				<port id="0" precision="FP32">
					<dim>1</dim>
					<dim>1</dim>
					<dim>307</dim>
				</port>
			</output>
		</layer>
		<layer id="68" name="Constant_9082185" type="Const" version="opset1">
			<data element_type="f32" shape="1, 1, 128" offset="51804" size="512" />
			<output>
				<port id="0" precision="FP32">
					<dim>1</dim>
					<dim>1</dim>
					<dim>128</dim>
				</port>
			</output>
		</layer>
		<layer id="69" name="Constant_9082157" type="Const" version="opset1">
			<data element_type="f32" shape="1, 1, 128" offset="52316" size="512" />
			<output>
				<port id="0" precision="FP32">
					<dim>1</dim>
					<dim>1</dim>
					<dim>128</dim>
				</port>
			</output>
		</layer>
		<layer id="70" name="Constant_9082141" type="Const" version="opset1">
			<data element_type="f32" shape="1, 1, 512" offset="52828" size="2048" />
			<output>
				<port id="0" precision="FP32">
					<dim>1</dim>
					<dim>1</dim>
					<dim>512</dim>
				</port>
			</output>
		</layer>
		<layer id="71" name="Constant_9082130" type="Const" version="opset1">
			<data element_type="f32" shape="1, 1, 128" offset="54876" size="512" />
			<output>
				<port id="0" precision="FP32">
					<dim>1</dim>
					<dim>1</dim>
					<dim>128</dim>
				</port>
			</output>
		</layer>
		<layer id="72" name="Constant_9122929" type="Const" version="opset1">
			<data element_type="f32" shape="1, 1, 360" offset="55388" size="1440" />
			<output>
				<port id="0" precision="FP32">
					<dim>1</dim>
					<dim>1</dim>
					<dim>360</dim>
				</port>
			</output>
		</layer>
		<layer id="73" name="Constant_9082114" type="Const" version="opset1">
			<data element_type="f32" shape="1, 1, 128" offset="56828" size="512" />
			<output>
				<port id="0" precision="FP32">
					<dim>1</dim>
					<dim>1</dim>
					<dim>128</dim>
				</port>
			</output>
		</layer>
		<layer id="74" name="Constant_9122936" type="Const" version="opset1">
			<data element_type="f32" shape="1, 1, 294" offset="57340" size="1176" />
			<output>
				<port id="0" precision="FP32">
					<dim>1</dim>
					<dim>1</dim>
					<dim>294</dim>
				</port>
			</output>
		</layer>
		<layer id="75" name="Constant_9082098" type="Const" version="opset1">
			<data element_type="f32" shape="1, 1, 128" offset="58516" size="512" />
			<output>
				<port id="0" precision="FP32">
					<dim>1</dim>
					<dim>1</dim>
					<dim>128</dim>
				</port>
			</output>
		</layer>
		<layer id="76" name="Constant_9122943" type="Const" version="opset1">
			<data element_type="f32" shape="1, 1, 280" offset="59028" size="1120" />
			<output>
				<port id="0" precision="FP32">
					<dim>1</dim>
					<dim>1</dim>
					<dim>280</dim>
				</port>
			</output>
		</layer>
		<layer id="77" name="Constant_9082082" type="Const" version="opset1">
			<data element_type="f32" shape="1, 1, 128" offset="60148" size="512" />
			<output>
				<port id="0" precision="FP32">
					<dim>1</dim>
					<dim>1</dim>
					<dim>128</dim>
				</port>
			</output>
		</layer>
		<layer id="78" name="Constant_9122950" type="Const" version="opset1">
			<data element_type="f32" shape="1, 1, 293" offset="60660" size="1172" />
			<output>
				<port id="0" precision="FP32">
					<dim>1</dim>
					<dim>1</dim>
					<dim>293</dim>
				</port>
			</output>
		</layer>
		<layer id="79" name="Constant_9082061" type="Const" version="opset1">
			<data element_type="f32" shape="1, 1, 128" offset="61832" size="512" />
			<output>
				<port id="0" precision="FP32">
					<dim>1</dim>
					<dim>1</dim>
					<dim>128</dim>
				</port>
			</output>
		</layer>
		<layer id="80" name="Constant_9082033" type="Const" version="opset1">
			<data element_type="f32" shape="1, 1, 128" offset="62344" size="512" />
			<output>
				<port id="0" precision="FP32">
					<dim>1</dim>
					<dim>1</dim>
					<dim>128</dim>
				</port>
			</output>
		</layer>
		<layer id="81" name="Constant_9082017" type="Const" version="opset1">
			<data element_type="f32" shape="1, 1, 512" offset="62856" size="2048" />
			<output>
				<port id="0" precision="FP32">
					<dim>1</dim>
					<dim>1</dim>
					<dim>512</dim>
				</port>
			</output>
		</layer>
		<layer id="82" name="Constant_9082006" type="Const" version="opset1">
			<data element_type="f32" shape="1, 1, 128" offset="64904" size="512" />
			<output>
				<port id="0" precision="FP32">
					<dim>1</dim>
					<dim>1</dim>
					<dim>128</dim>
				</port>
			</output>
		</layer>
		<layer id="83" name="Constant_9122957" type="Const" version="opset1">
			<data element_type="f32" shape="1, 1, 364" offset="65416" size="1456" />
			<output>
				<port id="0" precision="FP32">
					<dim>1</dim>
					<dim>1</dim>
					<dim>364</dim>
				</port>
			</output>
		</layer>
		<layer id="84" name="Constant_9081990" type="Const" version="opset1">
			<data element_type="f32" shape="1, 1, 128" offset="66872" size="512" />
			<output>
				<port id="0" precision="FP32">
					<dim>1</dim>
					<dim>1</dim>
					<dim>128</dim>
				</port>
			</output>
		</layer>
		<layer id="85" name="Constant_9122964" type="Const" version="opset1">
			<data element_type="f32" shape="1, 1, 326" offset="67384" size="1304" />
			<output>
				<port id="0" precision="FP32">
					<dim>1</dim>
					<dim>1</dim>
					<dim>326</dim>
				</port>
			</output>
		</layer>
		<layer id="86" name="Constant_9081974" type="Const" version="opset1">
			<data element_type="f32" shape="1, 1, 128" offset="68688" size="512" />
			<output>
				<port id="0" precision="FP32">
					<dim>1</dim>
					<dim>1</dim>
					<dim>128</dim>
				</port>
			</output>
		</layer>
		<layer id="87" name="Constant_9122971" type="Const" version="opset1">
			<data element_type="f32" shape="1, 1, 288" offset="69200" size="1152" />
			<output>
				<port id="0" precision="FP32">
					<dim>1</dim>
					<dim>1</dim>
					<dim>288</dim>
				</port>
			</output>
		</layer>
		<layer id="88" name="Constant_9081958" type="Const" version="opset1">
			<data element_type="f32" shape="1, 1, 128" offset="70352" size="512" />
			<output>
				<port id="0" precision="FP32">
					<dim>1</dim>
					<dim>1</dim>
					<dim>128</dim>
				</port>
			</output>
		</layer>
		<layer id="89" name="Constant_9122978" type="Const" version="opset1">
			<data element_type="f32" shape="1, 1, 268" offset="70864" size="1072" />
			<output>
				<port id="0" precision="FP32">
					<dim>1</dim>
					<dim>1</dim>
					<dim>268</dim>
				</port>
			</output>
		</layer>
		<layer id="90" name="Constant_9081937" type="Const" version="opset1">
			<data element_type="f32" shape="1, 1, 128" offset="71936" size="512" />
			<output>
				<port id="0" precision="FP32">
					<dim>1</dim>
					<dim>1</dim>
					<dim>128</dim>
				</port>
			</output>
		</layer>
		<layer id="91" name="Constant_9081909" type="Const" version="opset1">
			<data element_type="f32" shape="1, 1, 128" offset="72448" size="512" />
			<output>
				<port id="0" precision="FP32">
					<dim>1</dim>
					<dim>1</dim>
					<dim>128</dim>
				</port>
			</output>
		</layer>
		<layer id="92" name="Constant_9081893" type="Const" version="opset1">
			<data element_type="f32" shape="1, 1, 512" offset="72960" size="2048" />
			<output>
				<port id="0" precision="FP32">
					<dim>1</dim>
					<dim>1</dim>
					<dim>512</dim>
				</port>
			</output>
		</layer>
		<layer id="93" name="Constant_9081882" type="Const" version="opset1">
			<data element_type="f32" shape="1, 1, 128" offset="75008" size="512" />
			<output>
				<port id="0" precision="FP32">
					<dim>1</dim>
					<dim>1</dim>
					<dim>128</dim>
				</port>
			</output>
		</layer>
		<layer id="94" name="Constant_9122985" type="Const" version="opset1">
			<data element_type="f32" shape="1, 1, 389" offset="75520" size="1556" />
			<output>
				<port id="0" precision="FP32">
					<dim>1</dim>
					<dim>1</dim>
					<dim>389</dim>
				</port>
			</output>
		</layer>
		<layer id="95" name="Constant_9081866" type="Const" version="opset1">
			<data element_type="f32" shape="1, 1, 128" offset="77076" size="512" />
			<output>
				<port id="0" precision="FP32">
					<dim>1</dim>
					<dim>1</dim>
					<dim>128</dim>
				</port>
			</output>
		</layer>
		<layer id="96" name="Constant_9122992" type="Const" version="opset1">
			<data element_type="f32" shape="1, 1, 314" offset="77588" size="1256" />
			<output>
				<port id="0" precision="FP32">
					<dim>1</dim>
					<dim>1</dim>
					<dim>314</dim>
				</port>
			</output>
		</layer>
		<layer id="97" name="Constant_9081850" type="Const" version="opset1">
			<data element_type="f32" shape="1, 1, 128" offset="78844" size="512" />
			<output>
				<port id="0" precision="FP32">
					<dim>1</dim>
					<dim>1</dim>
					<dim>128</dim>
				</port>
			</output>
		</layer>
		<layer id="98" name="Constant_9122999" type="Const" version="opset1">
			<data element_type="f32" shape="1, 1, 288" offset="79356" size="1152" />
			<output>
				<port id="0" precision="FP32">
					<dim>1</dim>
					<dim>1</dim>
					<dim>288</dim>
				</port>
			</output>
		</layer>
		<layer id="99" name="Constant_9081834" type="Const" version="opset1">
			<data element_type="f32" shape="1, 1, 128" offset="80508" size="512" />
			<output>
				<port id="0" precision="FP32">
					<dim>1</dim>
					<dim>1</dim>
					<dim>128</dim>
				</port>
			</output>
		</layer>
		<layer id="100" name="Constant_9123006" type="Const" version="opset1">
			<data element_type="f32" shape="1, 1, 290" offset="81020" size="1160" />
			<output>
				<port id="0" precision="FP32">
					<dim>1</dim>
					<dim>1</dim>
					<dim>290</dim>
				</port>
			</output>
		</layer>
		<layer id="101" name="Constant_9081813" type="Const" version="opset1">
			<data element_type="f32" shape="1, 1, 128" offset="82180" size="512" />
			<output>
				<port id="0" precision="FP32">
					<dim>1</dim>
					<dim>1</dim>
					<dim>128</dim>
				</port>
			</output>
		</layer>
		<layer id="102" name="Constant_9081785" type="Const" version="opset1">
			<data element_type="f32" shape="1, 1, 128" offset="82692" size="512" />
			<output>
				<port id="0" precision="FP32">
					<dim>1</dim>
					<dim>1</dim>
					<dim>128</dim>
				</port>
			</output>
		</layer>
		<layer id="103" name="Constant_9081769" type="Const" version="opset1">
			<data element_type="f32" shape="1, 1, 512" offset="83204" size="2048" />
			<output>
				<port id="0" precision="FP32">
					<dim>1</dim>
					<dim>1</dim>
					<dim>512</dim>
				</port>
			</output>
		</layer>
		<layer id="104" name="Constant_9081758" type="Const" version="opset1">
			<data element_type="f32" shape="1, 1, 128" offset="85252" size="512" />
			<output>
				<port id="0" precision="FP32">
					<dim>1</dim>
					<dim>1</dim>
					<dim>128</dim>
				</port>
			</output>
		</layer>
		<layer id="105" name="Constant_9123013" type="Const" version="opset1">
			<data element_type="f32" shape="1, 1, 360" offset="85764" size="1440" />
			<output>
				<port id="0" precision="FP32">
					<dim>1</dim>
					<dim>1</dim>
					<dim>360</dim>
				</port>
			</output>
		</layer>
		<layer id="106" name="Constant_9081742" type="Const" version="opset1">
			<data element_type="f32" shape="1, 1, 128" offset="87204" size="512" />
			<output>
				<port id="0" precision="FP32">
					<dim>1</dim>
					<dim>1</dim>
					<dim>128</dim>
				</port>
			</output>
		</layer>
		<layer id="107" name="Constant_9123020" type="Const" version="opset1">
			<data element_type="f32" shape="1, 1, 357" offset="87716" size="1428" />
			<output>
				<port id="0" precision="FP32">
					<dim>1</dim>
					<dim>1</dim>
					<dim>357</dim>
				</port>
			</output>
		</layer>
		<layer id="108" name="Constant_9081726" type="Const" version="opset1">
			<data element_type="f32" shape="1, 1, 128" offset="89144" size="512" />
			<output>
				<port id="0" precision="FP32">
					<dim>1</dim>
					<dim>1</dim>
					<dim>128</dim>
				</port>
			</output>
		</layer>
		<layer id="109" name="Constant_9123027" type="Const" version="opset1">
			<data element_type="f32" shape="1, 1, 311" offset="89656" size="1244" />
			<output>
				<port id="0" precision="FP32">
					<dim>1</dim>
					<dim>1</dim>
					<dim>311</dim>
				</port>
			</output>
		</layer>
		<layer id="110" name="Constant_9081710" type="Const" version="opset1">
			<data element_type="f32" shape="1, 1, 128" offset="90900" size="512" />
			<output>
				<port id="0" precision="FP32">
					<dim>1</dim>
					<dim>1</dim>
					<dim>128</dim>
				</port>
			</output>
		</layer>
		<layer id="111" name="Constant_9123034" type="Const" version="opset1">
			<data element_type="f32" shape="1, 1, 332" offset="91412" size="1328" />
			<output>
				<port id="0" precision="FP32">
					<dim>1</dim>
					<dim>1</dim>
					<dim>332</dim>
				</port>
			</output>
		</layer>
		<layer id="112" name="Constant_9081689" type="Const" version="opset1">
			<data element_type="f32" shape="1, 1, 128" offset="92740" size="512" />
			<output>
				<port id="0" precision="FP32">
					<dim>1</dim>
					<dim>1</dim>
					<dim>128</dim>
				</port>
			</output>
		</layer>
		<layer id="113" name="Constant_9081661" type="Const" version="opset1">
			<data element_type="f32" shape="1, 1, 128" offset="93252" size="512" />
			<output>
				<port id="0" precision="FP32">
					<dim>1</dim>
					<dim>1</dim>
					<dim>128</dim>
				</port>
			</output>
		</layer>
		<layer id="114" name="Constant_9081645" type="Const" version="opset1">
			<data element_type="f32" shape="1, 1, 512" offset="93764" size="2048" />
			<output>
				<port id="0" precision="FP32">
					<dim>1</dim>
					<dim>1</dim>
					<dim>512</dim>
				</port>
			</output>
		</layer>
		<layer id="115" name="Constant_9081634" type="Const" version="opset1">
			<data element_type="f32" shape="1, 1, 128" offset="95812" size="512" />
			<output>
				<port id="0" precision="FP32">
					<dim>1</dim>
					<dim>1</dim>
					<dim>128</dim>
				</port>
			</output>
		</layer>
		<layer id="116" name="Constant_9123041" type="Const" version="opset1">
			<data element_type="f32" shape="1, 1, 397" offset="96324" size="1588" />
			<output>
				<port id="0" precision="FP32">
					<dim>1</dim>
					<dim>1</dim>
					<dim>397</dim>
				</port>
			</output>
		</layer>
		<layer id="117" name="Constant_9081618" type="Const" version="opset1">
			<data element_type="f32" shape="1, 1, 128" offset="97912" size="512" />
			<output>
				<port id="0" precision="FP32">
					<dim>1</dim>
					<dim>1</dim>
					<dim>128</dim>
				</port>
			</output>
		</layer>
		<layer id="118" name="Constant_9123048" type="Const" version="opset1">
			<data element_type="f32" shape="1, 1, 389" offset="98424" size="1556" />
			<output>
				<port id="0" precision="FP32">
					<dim>1</dim>
					<dim>1</dim>
					<dim>389</dim>
				</port>
			</output>
		</layer>
		<layer id="119" name="Constant_9081602" type="Const" version="opset1">
			<data element_type="f32" shape="1, 1, 128" offset="99980" size="512" />
			<output>
				<port id="0" precision="FP32">
					<dim>1</dim>
					<dim>1</dim>
					<dim>128</dim>
				</port>
			</output>
		</layer>
		<layer id="120" name="Constant_9123055" type="Const" version="opset1">
			<data element_type="f32" shape="1, 1, 384" offset="100492" size="1536" />
			<output>
				<port id="0" precision="FP32">
					<dim>1</dim>
					<dim>1</dim>
					<dim>384</dim>
				</port>
			</output>
		</layer>
		<layer id="121" name="Constant_9081586" type="Const" version="opset1">
			<data element_type="f32" shape="1, 1, 128" offset="102028" size="512" />
			<output>
				<port id="0" precision="FP32">
					<dim>1</dim>
					<dim>1</dim>
					<dim>128</dim>
				</port>
			</output>
		</layer>
		<layer id="122" name="Constant_9123062" type="Const" version="opset1">
			<data element_type="f32" shape="1, 1, 356" offset="102540" size="1424" />
			<output>
				<port id="0" precision="FP32">
					<dim>1</dim>
					<dim>1</dim>
					<dim>356</dim>
				</port>
			</output>
		</layer>
		<layer id="123" name="Constant_9081565" type="Const" version="opset1">
			<data element_type="f32" shape="1, 1, 128" offset="103964" size="512" />
			<output>
				<port id="0" precision="FP32">
					<dim>1</dim>
					<dim>1</dim>
					<dim>128</dim>
				</port>
			</output>
		</layer>
		<layer id="124" name="Constant_9081537" type="Const" version="opset1">
			<data element_type="f32" shape="1, 1, 128" offset="104476" size="512" />
			<output>
				<port id="0" precision="FP32">
					<dim>1</dim>
					<dim>1</dim>
					<dim>128</dim>
				</port>
			</output>
		</layer>
		<layer id="125" name="Constant_9081521" type="Const" version="opset1">
			<data element_type="f32" shape="1, 1, 512" offset="104988" size="2048" />
			<output>
				<port id="0" precision="FP32">
					<dim>1</dim>
					<dim>1</dim>
					<dim>512</dim>
				</port>
			</output>
		</layer>
		<layer id="126" name="Constant_9081510" type="Const" version="opset1">
			<data element_type="f32" shape="1, 1, 128" offset="107036" size="512" />
			<output>
				<port id="0" precision="FP32">
					<dim>1</dim>
					<dim>1</dim>
					<dim>128</dim>
				</port>
			</output>
		</layer>
		<layer id="127" name="Constant_9123069" type="Const" version="opset1">
			<data element_type="f32" shape="1, 1, 372" offset="107548" size="1488" />
			<output>
				<port id="0" precision="FP32">
					<dim>1</dim>
					<dim>1</dim>
					<dim>372</dim>
				</port>
			</output>
		</layer>
		<layer id="128" name="Constant_9081494" type="Const" version="opset1">
			<data element_type="f32" shape="1, 1, 128" offset="109036" size="512" />
			<output>
				<port id="0" precision="FP32">
					<dim>1</dim>
					<dim>1</dim>
					<dim>128</dim>
				</port>
			</output>
		</layer>
		<layer id="129" name="Constant_9123076" type="Const" version="opset1">
			<data element_type="f32" shape="1, 1, 339" offset="109548" size="1356" />
			<output>
				<port id="0" precision="FP32">
					<dim>1</dim>
					<dim>1</dim>
					<dim>339</dim>
				</port>
			</output>
		</layer>
		<layer id="130" name="Constant_9081478" type="Const" version="opset1">
			<data element_type="f32" shape="1, 1, 128" offset="110904" size="512" />
			<output>
				<port id="0" precision="FP32">
					<dim>1</dim>
					<dim>1</dim>
					<dim>128</dim>
				</port>
			</output>
		</layer>
		<layer id="131" name="Constant_9123083" type="Const" version="opset1">
			<data element_type="f32" shape="1, 1, 301" offset="111416" size="1204" />
			<output>
				<port id="0" precision="FP32">
					<dim>1</dim>
					<dim>1</dim>
					<dim>301</dim>
				</port>
			</output>
		</layer>
		<layer id="132" name="Constant_9081462" type="Const" version="opset1">
			<data element_type="f32" shape="1, 1, 128" offset="112620" size="512" />
			<output>
				<port id="0" precision="FP32">
					<dim>1</dim>
					<dim>1</dim>
					<dim>128</dim>
				</port>
			</output>
		</layer>
		<layer id="133" name="Constant_9123090" type="Const" version="opset1">
			<data element_type="f32" shape="1, 1, 297" offset="113132" size="1188" />
			<output>
				<port id="0" precision="FP32">
					<dim>1</dim>
					<dim>1</dim>
					<dim>297</dim>
				</port>
			</output>
		</layer>
		<layer id="134" name="Constant_9081441" type="Const" version="opset1">
			<data element_type="f32" shape="1, 1, 128" offset="114320" size="512" />
			<output>
				<port id="0" precision="FP32">
					<dim>1</dim>
					<dim>1</dim>
					<dim>128</dim>
				</port>
			</output>
		</layer>
		<layer id="135" name="Constant_9081413" type="Const" version="opset1">
			<data element_type="f32" shape="1, 1, 128" offset="114832" size="512" />
			<output>
				<port id="0" precision="FP32">
					<dim>1</dim>
					<dim>1</dim>
					<dim>128</dim>
				</port>
			</output>
		</layer>
		<layer id="136" name="Constant_9081397" type="Const" version="opset1">
			<data element_type="f32" shape="1, 1, 512" offset="115344" size="2048" />
			<output>
				<port id="0" precision="FP32">
					<dim>1</dim>
					<dim>1</dim>
					<dim>512</dim>
				</port>
			</output>
		</layer>
		<layer id="137" name="Constant_9081386" type="Const" version="opset1">
			<data element_type="f32" shape="1, 1, 128" offset="117392" size="512" />
			<output>
				<port id="0" precision="FP32">
					<dim>1</dim>
					<dim>1</dim>
					<dim>128</dim>
				</port>
			</output>
		</layer>
		<layer id="138" name="Constant_9123097" type="Const" version="opset1">
			<data element_type="f32" shape="1, 1, 411" offset="117904" size="1644" />
			<output>
				<port id="0" precision="FP32">
					<dim>1</dim>
					<dim>1</dim>
					<dim>411</dim>
				</port>
			</output>
		</layer>
		<layer id="139" name="Constant_9081370" type="Const" version="opset1">
			<data element_type="f32" shape="1, 1, 128" offset="119548" size="512" />
			<output>
				<port id="0" precision="FP32">
					<dim>1</dim>
					<dim>1</dim>
					<dim>128</dim>
				</port>
			</output>
		</layer>
		<layer id="140" name="Constant_9123104" type="Const" version="opset1">
			<data element_type="f32" shape="1, 1, 396" offset="120060" size="1584" />
			<output>
				<port id="0" precision="FP32">
					<dim>1</dim>
					<dim>1</dim>
					<dim>396</dim>
				</port>
			</output>
		</layer>
		<layer id="141" name="Constant_9081354" type="Const" version="opset1">
			<data element_type="f32" shape="1, 1, 128" offset="121644" size="512" />
			<output>
				<port id="0" precision="FP32">
					<dim>1</dim>
					<dim>1</dim>
					<dim>128</dim>
				</port>
			</output>
		</layer>
		<layer id="142" name="Constant_9123111" type="Const" version="opset1">
			<data element_type="f32" shape="1, 1, 369" offset="122156" size="1476" />
			<output>
				<port id="0" precision="FP32">
					<dim>1</dim>
					<dim>1</dim>
					<dim>369</dim>
				</port>
			</output>
		</layer>
		<layer id="143" name="Constant_9081338" type="Const" version="opset1">
			<data element_type="f32" shape="1, 1, 128" offset="123632" size="512" />
			<output>
				<port id="0" precision="FP32">
					<dim>1</dim>
					<dim>1</dim>
					<dim>128</dim>
				</port>
			</output>
		</layer>
		<layer id="144" name="Constant_9123118" type="Const" version="opset1">
			<data element_type="f32" shape="1, 1, 332" offset="124144" size="1328" />
			<output>
				<port id="0" precision="FP32">
					<dim>1</dim>
					<dim>1</dim>
					<dim>332</dim>
				</port>
			</output>
		</layer>
		<layer id="145" name="Constant_9081317" type="Const" version="opset1">
			<data element_type="f32" shape="1, 1, 128" offset="125472" size="512" />
			<output>
				<port id="0" precision="FP32">
					<dim>1</dim>
					<dim>1</dim>
					<dim>128</dim>
				</port>
			</output>
		</layer>
		<layer id="146" name="Constant_9081289" type="Const" version="opset1">
			<data element_type="f32" shape="1, 1, 128" offset="125984" size="512" />
			<output>
				<port id="0" precision="FP32">
					<dim>1</dim>
					<dim>1</dim>
					<dim>128</dim>
				</port>
			</output>
		</layer>
		<layer id="147" name="Constant_9081273" type="Const" version="opset1">
			<data element_type="f32" shape="1, 1, 512" offset="126496" size="2048" />
			<output>
				<port id="0" precision="FP32">
					<dim>1</dim>
					<dim>1</dim>
					<dim>512</dim>
				</port>
			</output>
		</layer>
		<layer id="148" name="Constant_9081262" type="Const" version="opset1">
			<data element_type="f32" shape="1, 1, 128" offset="128544" size="512" />
			<output>
				<port id="0" precision="FP32">
					<dim>1</dim>
					<dim>1</dim>
					<dim>128</dim>
				</port>
			</output>
		</layer>
		<layer id="149" name="Constant_9123125" type="Const" version="opset1">
			<data element_type="f32" shape="1, 1, 377" offset="129056" size="1508" />
			<output>
				<port id="0" precision="FP32">
					<dim>1</dim>
					<dim>1</dim>
					<dim>377</dim>
				</port>
			</output>
		</layer>
		<layer id="150" name="Constant_9081246" type="Const" version="opset1">
			<data element_type="f32" shape="1, 1, 128" offset="130564" size="512" />
			<output>
				<port id="0" precision="FP32">
					<dim>1</dim>
					<dim>1</dim>
					<dim>128</dim>
				</port>
			</output>
		</layer>
		<layer id="151" name="Constant_9123132" type="Const" version="opset1">
			<data element_type="f32" shape="1, 1, 348" offset="131076" size="1392" />
			<output>
				<port id="0" precision="FP32">
					<dim>1</dim>
					<dim>1</dim>
					<dim>348</dim>
				</port>
			</output>
		</layer>
		<layer id="152" name="Constant_9081230" type="Const" version="opset1">
			<data element_type="f32" shape="1, 1, 128" offset="132468" size="512" />
			<output>
				<port id="0" precision="FP32">
					<dim>1</dim>
					<dim>1</dim>
					<dim>128</dim>
				</port>
			</output>
		</layer>
		<layer id="153" name="Constant_9123139" type="Const" version="opset1">
			<data element_type="f32" shape="1, 1, 316" offset="132980" size="1264" />
			<output>
				<port id="0" precision="FP32">
					<dim>1</dim>
					<dim>1</dim>
					<dim>316</dim>
				</port>
			</output>
		</layer>
		<layer id="154" name="Constant_9081214" type="Const" version="opset1">
			<data element_type="f32" shape="1, 1, 128" offset="134244" size="512" />
			<output>
				<port id="0" precision="FP32">
					<dim>1</dim>
					<dim>1</dim>
					<dim>128</dim>
				</port>
			</output>
		</layer>
		<layer id="155" name="Constant_9123146" type="Const" version="opset1">
			<data element_type="f32" shape="1, 1, 350" offset="134756" size="1400" />
			<output>
				<port id="0" precision="FP32">
					<dim>1</dim>
					<dim>1</dim>
					<dim>350</dim>
				</port>
			</output>
		</layer>
		<layer id="156" name="Constant_9081193" type="Const" version="opset1">
			<data element_type="f32" shape="1, 1, 128" offset="136156" size="512" />
			<output>
				<port id="0" precision="FP32">
					<dim>1</dim>
					<dim>1</dim>
					<dim>128</dim>
				</port>
			</output>
		</layer>
		<layer id="157" name="Constant_9081165" type="Const" version="opset1">
			<data element_type="f32" shape="1, 1, 128" offset="136668" size="512" />
			<output>
				<port id="0" precision="FP32">
					<dim>1</dim>
					<dim>1</dim>
					<dim>128</dim>
				</port>
			</output>
		</layer>
		<layer id="158" name="Constant_9081149" type="Const" version="opset1">
			<data element_type="f32" shape="1, 1, 512" offset="137180" size="2048" />
			<output>
				<port id="0" precision="FP32">
					<dim>1</dim>
					<dim>1</dim>
					<dim>512</dim>
				</port>
			</output>
		</layer>
		<layer id="159" name="Constant_9081138" type="Const" version="opset1">
			<data element_type="f32" shape="1, 1, 128" offset="139228" size="512" />
			<output>
				<port id="0" precision="FP32">
					<dim>1</dim>
					<dim>1</dim>
					<dim>128</dim>
				</port>
			</output>
		</layer>
		<layer id="160" name="Constant_9123153" type="Const" version="opset1">
			<data element_type="f32" shape="1, 1, 392" offset="139740" size="1568" />
			<output>
				<port id="0" precision="FP32">
					<dim>1</dim>
					<dim>1</dim>
					<dim>392</dim>
				</port>
			</output>
		</layer>
		<layer id="161" name="Constant_9081122" type="Const" version="opset1">
			<data element_type="f32" shape="1, 1, 128" offset="141308" size="512" />
			<output>
				<port id="0" precision="FP32">
					<dim>1</dim>
					<dim>1</dim>
					<dim>128</dim>
				</port>
			</output>
		</layer>
		<layer id="162" name="Constant_9123160" type="Const" version="opset1">
			<data element_type="f32" shape="1, 1, 382" offset="141820" size="1528" />
			<output>
				<port id="0" precision="FP32">
					<dim>1</dim>
					<dim>1</dim>
					<dim>382</dim>
				</port>
			</output>
		</layer>
		<layer id="163" name="Constant_9081106" type="Const" version="opset1">
			<data element_type="f32" shape="1, 1, 128" offset="143348" size="512" />
			<output>
				<port id="0" precision="FP32">
					<dim>1</dim>
					<dim>1</dim>
					<dim>128</dim>
				</port>
			</output>
		</layer>
		<layer id="164" name="Constant_9123167" type="Const" version="opset1">
			<data element_type="f32" shape="1, 1, 352" offset="143860" size="1408" />
			<output>
				<port id="0" precision="FP32">
					<dim>1</dim>
					<dim>1</dim>
					<dim>352</dim>
				</port>
			</output>
		</layer>
		<layer id="165" name="Constant_9081090" type="Const" version="opset1">
			<data element_type="f32" shape="1, 1, 128" offset="145268" size="512" />
			<output>
				<port id="0" precision="FP32">
					<dim>1</dim>
					<dim>1</dim>
					<dim>128</dim>
				</port>
			</output>
		</layer>
		<layer id="166" name="Constant_9123174" type="Const" version="opset1">
			<data element_type="f32" shape="1, 1, 365" offset="145780" size="1460" />
			<output>
				<port id="0" precision="FP32">
					<dim>1</dim>
					<dim>1</dim>
					<dim>365</dim>
				</port>
			</output>
		</layer>
		<layer id="167" name="Constant_9081069" type="Const" version="opset1">
			<data element_type="f32" shape="1, 1, 128" offset="147240" size="512" />
			<output>
				<port id="0" precision="FP32">
					<dim>1</dim>
					<dim>1</dim>
					<dim>128</dim>
				</port>
			</output>
		</layer>
		<layer id="168" name="Constant_9081039" type="Const" version="opset1">
			<data element_type="f32" shape="1, 1, 128" offset="147752" size="512" />
			<output>
				<port id="0" precision="FP32">
					<dim>1</dim>
					<dim>1</dim>
					<dim>128</dim>
				</port>
			</output>
		</layer>
		<layer id="169" name="Constant_9081015" type="Const" version="opset1">
			<data element_type="f32" shape="1, 1, 512" offset="148264" size="2048" />
			<output>
				<port id="0" precision="FP32">
					<dim>1</dim>
					<dim>1</dim>
					<dim>512</dim>
				</port>
			</output>
		</layer>
		<layer id="170" name="/nncf_module/mobilebert/embeddings/word_embeddings/pre_ops.0/op/Constant" type="Const" version="opset1">
			<data element_type="i8" shape="30522, 128" offset="150312" size="3906816" />
			<output>
				<port id="0" precision="I8">
					<dim>30522</dim>
					<dim>128</dim>
				</port>
			</output>
		</layer>
		<layer id="171" name="Convert_9084296" type="Convert" version="opset1">
			<data destination_type="f32" />
			<input>
				<port id="0" precision="I8">
					<dim>30522</dim>
					<dim>128</dim>
				</port>
			</input>
			<output>
				<port id="1" precision="FP32">
					<dim>30522</dim>
					<dim>128</dim>
				</port>
			</output>
		</layer>
		<layer id="172" name="Constant_9084203" type="Const" version="opset1">
			<data element_type="f32" shape="1, 1" offset="4057128" size="4" />
			<output>
				<port id="0" precision="FP32">
					<dim>1</dim>
					<dim>1</dim>
				</port>
			</output>
		</layer>
		<layer id="173" name="/nncf_module/mobilebert/embeddings/word_embeddings/pre_ops.0/op/FakeQuantize" type="Multiply" version="opset1">
			<data auto_broadcast="numpy" />
			<input>
				<port id="0" precision="FP32">
					<dim>30522</dim>
					<dim>128</dim>
				</port>
				<port id="1" precision="FP32">
					<dim>1</dim>
					<dim>1</dim>
				</port>
			</input>
			<output>
				<port id="2" precision="FP32" names="/nncf_module/mobilebert/embeddings/word_embeddings/pre_ops.0/op/FakeQuantize_output_0">
					<dim>30522</dim>
					<dim>128</dim>
				</port>
			</output>
		</layer>
		<layer id="174" name="Constant_9024455" type="Const" version="opset1">
			<data element_type="i64" shape="" offset="4057132" size="8" />
			<output>
				<port id="0" precision="I64" />
			</output>
		</layer>
		<layer id="175" name="/nncf_module/mobilebert/embeddings/word_embeddings/Gather" type="Gather" version="opset8">
			<data batch_dims="0" />
			<input>
				<port id="0" precision="FP32">
					<dim>30522</dim>
					<dim>128</dim>
				</port>
				<port id="1" precision="I64">
					<dim>1</dim>
					<dim>384</dim>
				</port>
				<port id="2" precision="I64" />
			</input>
			<output>
				<port id="3" precision="FP32" names="/nncf_module/mobilebert/embeddings/word_embeddings/Gather_output_0">
					<dim>1</dim>
					<dim>384</dim>
					<dim>128</dim>
				</port>
			</output>
		</layer>
		<layer id="176" name="Constant_9081011" type="Const" version="opset1">
			<data element_type="f32" shape="1, 1, 1" offset="4057140" size="4" />
			<output>
				<port id="0" precision="FP32">
					<dim>1</dim>
					<dim>1</dim>
					<dim>1</dim>
				</port>
			</output>
		</layer>
		<layer id="177" name="Constant_9081012" type="Const" version="opset1">
			<data element_type="f32" shape="1, 1, 1" offset="4057144" size="4" />
			<output>
				<port id="0" precision="FP32">
					<dim>1</dim>
					<dim>1</dim>
					<dim>1</dim>
				</port>
			</output>
		</layer>
		<layer id="178" name="Constant_9081013" type="Const" version="opset1">
			<data element_type="f32" shape="1, 1, 1" offset="4057140" size="4" />
			<output>
				<port id="0" precision="FP32">
					<dim>1</dim>
					<dim>1</dim>
					<dim>1</dim>
				</port>
			</output>
		</layer>
		<layer id="179" name="Constant_9081014" type="Const" version="opset1">
			<data element_type="f32" shape="1, 1, 1" offset="4057144" size="4" />
			<output>
				<port id="0" precision="FP32">
					<dim>1</dim>
					<dim>1</dim>
					<dim>1</dim>
				</port>
			</output>
		</layer>
		<layer id="180" name="/nncf_module/mobilebert/embeddings/word_embeddings/MobileBertForQuestionAnswering/MobileBertModel[mobilebert]/MobileBertEmbeddings[embeddings]/NNCFEmbedding[word_embeddings]/embedding_0|OUTPUT/FakeQuantize" type="FakeQuantize" version="opset1">
			<data levels="256" auto_broadcast="numpy" />
			<input>
				<port id="0" precision="FP32">
					<dim>1</dim>
					<dim>384</dim>
					<dim>128</dim>
				</port>
				<port id="1" precision="FP32">
					<dim>1</dim>
					<dim>1</dim>
					<dim>1</dim>
				</port>
				<port id="2" precision="FP32">
					<dim>1</dim>
					<dim>1</dim>
					<dim>1</dim>
				</port>
				<port id="3" precision="FP32">
					<dim>1</dim>
					<dim>1</dim>
					<dim>1</dim>
				</port>
				<port id="4" precision="FP32">
					<dim>1</dim>
					<dim>1</dim>
					<dim>1</dim>
				</port>
			</input>
			<output>
				<port id="5" precision="FP32" names="/nncf_module/mobilebert/embeddings/word_embeddings/MobileBertForQuestionAnswering/MobileBertModel[mobilebert]/MobileBertEmbeddings[embeddings]/NNCFEmbedding[word_embeddings]/embedding_0|OUTPUT/FakeQuantize_output_0">
					<dim>1</dim>
					<dim>384</dim>
					<dim>128</dim>
				</port>
			</output>
		</layer>
		<layer id="181" name="Constant_9073874" type="Const" version="opset1">
			<data element_type="i64" shape="2" offset="4057148" size="16" />
			<output>
				<port id="0" precision="I64">
					<dim>2</dim>
				</port>
			</output>
		</layer>
		<layer id="182" name="Constant_9073877" type="Const" version="opset1">
			<data element_type="i64" shape="2" offset="4057164" size="16" />
			<output>
				<port id="0" precision="I64">
					<dim>2</dim>
				</port>
			</output>
		</layer>
		<layer id="183" name="Constant_9073880" type="Const" version="opset1">
			<data element_type="i64" shape="2" offset="4057180" size="16" />
			<output>
				<port id="0" precision="I64">
					<dim>2</dim>
				</port>
			</output>
		</layer>
		<layer id="184" name="/nncf_module/mobilebert/embeddings/Slice" type="StridedSlice" version="opset1">
			<data begin_mask="1, 0" end_mask="1, 0" new_axis_mask="" shrink_axis_mask="" ellipsis_mask="" />
			<input>
				<port id="0" precision="FP32">
					<dim>1</dim>
					<dim>384</dim>
					<dim>128</dim>
				</port>
				<port id="1" precision="I64">
					<dim>2</dim>
				</port>
				<port id="2" precision="I64">
					<dim>2</dim>
				</port>
				<port id="3" precision="I64">
					<dim>2</dim>
				</port>
			</input>
			<output>
				<port id="4" precision="FP32" names="/nncf_module/mobilebert/embeddings/Slice_output_0">
					<dim>1</dim>
					<dim>383</dim>
					<dim>128</dim>
				</port>
			</output>
		</layer>
		<layer id="185" name="Split_9024500.0" type="Const" version="opset1">
			<data element_type="i64" shape="3" offset="4057196" size="24" />
			<output>
				<port id="0" precision="I64">
					<dim>3</dim>
				</port>
			</output>
		</layer>
		<layer id="186" name="Split_9024500.1" type="Const" version="opset1">
			<data element_type="i64" shape="3" offset="4057220" size="24" />
			<output>
				<port id="0" precision="I64">
					<dim>3</dim>
				</port>
			</output>
		</layer>
		<layer id="187" name="/nncf_module/mobilebert/embeddings/Constant_12" type="Const" version="opset1">
			<data element_type="f32" shape="" offset="4057244" size="4" />
			<output>
				<port id="0" precision="FP32" names="/nncf_module/mobilebert/embeddings/Constant_12_output_0" />
			</output>
		</layer>
		<layer id="188" name="/nncf_module/mobilebert/embeddings/Pad" type="Pad" version="opset1">
			<data pad_mode="constant" />
			<input>
				<port id="0" precision="FP32">
					<dim>1</dim>
					<dim>383</dim>
					<dim>128</dim>
				</port>
				<port id="1" precision="I64">
					<dim>3</dim>
				</port>
				<port id="2" precision="I64">
					<dim>3</dim>
				</port>
				<port id="3" precision="FP32" />
			</input>
			<output>
				<port id="4" precision="FP32" names="/nncf_module/mobilebert/embeddings/Pad_output_0">
					<dim>1</dim>
					<dim>384</dim>
					<dim>128</dim>
				</port>
			</output>
		</layer>
		<layer id="189" name="Constant_9073886" type="Const" version="opset1">
			<data element_type="i64" shape="2" offset="4057248" size="16" />
			<output>
				<port id="0" precision="I64">
					<dim>2</dim>
				</port>
			</output>
		</layer>
		<layer id="190" name="Constant_9073889" type="Const" version="opset1">
			<data element_type="i64" shape="2" offset="4057264" size="16" />
			<output>
				<port id="0" precision="I64">
					<dim>2</dim>
				</port>
			</output>
		</layer>
		<layer id="191" name="Constant_9073892" type="Const" version="opset1">
			<data element_type="i64" shape="2" offset="4057180" size="16" />
			<output>
				<port id="0" precision="I64">
					<dim>2</dim>
				</port>
			</output>
		</layer>
		<layer id="192" name="/nncf_module/mobilebert/embeddings/Slice_2" type="StridedSlice" version="opset1">
			<data begin_mask="1, 0" end_mask="1, 0" new_axis_mask="" shrink_axis_mask="" ellipsis_mask="" />
			<input>
				<port id="0" precision="FP32">
					<dim>1</dim>
					<dim>384</dim>
					<dim>128</dim>
				</port>
				<port id="1" precision="I64">
					<dim>2</dim>
				</port>
				<port id="2" precision="I64">
					<dim>2</dim>
				</port>
				<port id="3" precision="I64">
					<dim>2</dim>
				</port>
			</input>
			<output>
				<port id="4" precision="FP32" names="/nncf_module/mobilebert/embeddings/Slice_2_output_0">
					<dim>1</dim>
					<dim>383</dim>
					<dim>128</dim>
				</port>
			</output>
		</layer>
		<layer id="193" name="Split_9024609.0" type="Const" version="opset1">
			<data element_type="i64" shape="3" offset="4057220" size="24" />
			<output>
				<port id="0" precision="I64">
					<dim>3</dim>
				</port>
			</output>
		</layer>
		<layer id="194" name="Split_9024609.1" type="Const" version="opset1">
			<data element_type="i64" shape="3" offset="4057196" size="24" />
			<output>
				<port id="0" precision="I64">
					<dim>3</dim>
				</port>
			</output>
		</layer>
		<layer id="195" name="/nncf_module/mobilebert/embeddings/Constant_25" type="Const" version="opset1">
			<data element_type="f32" shape="" offset="4057244" size="4" />
			<output>
				<port id="0" precision="FP32" names="/nncf_module/mobilebert/embeddings/Constant_25_output_0" />
			</output>
		</layer>
		<layer id="196" name="/nncf_module/mobilebert/embeddings/Pad_1" type="Pad" version="opset1">
			<data pad_mode="constant" />
			<input>
				<port id="0" precision="FP32">
					<dim>1</dim>
					<dim>383</dim>
					<dim>128</dim>
				</port>
				<port id="1" precision="I64">
					<dim>3</dim>
				</port>
				<port id="2" precision="I64">
					<dim>3</dim>
				</port>
				<port id="3" precision="FP32" />
			</input>
			<output>
				<port id="4" precision="FP32" names="/nncf_module/mobilebert/embeddings/Pad_1_output_0">
					<dim>1</dim>
					<dim>384</dim>
					<dim>128</dim>
				</port>
			</output>
		</layer>
		<layer id="197" name="/nncf_module/mobilebert/embeddings/Concat_2" type="Concat" version="opset1">
			<data axis="2" />
			<input>
				<port id="0" precision="FP32">
					<dim>1</dim>
					<dim>384</dim>
					<dim>128</dim>
				</port>
				<port id="1" precision="FP32">
					<dim>1</dim>
					<dim>384</dim>
					<dim>128</dim>
				</port>
				<port id="2" precision="FP32">
					<dim>1</dim>
					<dim>384</dim>
					<dim>128</dim>
				</port>
			</input>
			<output>
				<port id="3" precision="FP32" names="/nncf_module/mobilebert/embeddings/Concat_2_output_0">
					<dim>1</dim>
					<dim>384</dim>
					<dim>384</dim>
				</port>
			</output>
		</layer>
		<layer id="198" name="/nncf_module/mobilebert/embeddings/embedding_transformation/pre_ops.0/op/Constant" type="Const" version="opset1">
			<data element_type="i8" shape="512, 384" offset="4057280" size="196608" />
			<output>
				<port id="0" precision="I8">
					<dim>512</dim>
					<dim>384</dim>
				</port>
			</output>
		</layer>
		<layer id="199" name="Convert_9084417" type="Convert" version="opset1">
			<data destination_type="f32" />
			<input>
				<port id="0" precision="I8">
					<dim>512</dim>
					<dim>384</dim>
				</port>
			</input>
			<output>
				<port id="1" precision="FP32">
					<dim>512</dim>
					<dim>384</dim>
				</port>
			</output>
		</layer>
		<layer id="200" name="Constant_9084354" type="Const" version="opset1">
			<data element_type="f32" shape="512, 1" offset="4253888" size="2048" />
			<output>
				<port id="0" precision="FP32">
					<dim>512</dim>
					<dim>1</dim>
				</port>
			</output>
		</layer>
		<layer id="201" name="/nncf_module/mobilebert/embeddings/embedding_transformation/pre_ops.0/op/FakeQuantize" type="Multiply" version="opset1">
			<data auto_broadcast="numpy" />
			<input>
				<port id="0" precision="FP32">
					<dim>512</dim>
					<dim>384</dim>
				</port>
				<port id="1" precision="FP32">
					<dim>512</dim>
					<dim>1</dim>
				</port>
			</input>
			<output>
				<port id="2" precision="FP32" names="/nncf_module/mobilebert/embeddings/embedding_transformation/pre_ops.0/op/FakeQuantize_output_0">
					<dim>512</dim>
					<dim>384</dim>
				</port>
			</output>
		</layer>
		<layer id="202" name="/nncf_module/mobilebert/embeddings/embedding_transformation/MatMul" type="MatMul" version="opset1">
			<data transpose_a="false" transpose_b="true" />
			<input>
				<port id="0" precision="FP32">
					<dim>1</dim>
					<dim>384</dim>
					<dim>384</dim>
				</port>
				<port id="1" precision="FP32">
					<dim>512</dim>
					<dim>384</dim>
				</port>
			</input>
			<output>
				<port id="2" precision="FP32" names="/nncf_module/mobilebert/embeddings/embedding_transformation/MatMul_output_0">
					<dim>1</dim>
					<dim>384</dim>
					<dim>512</dim>
				</port>
			</output>
		</layer>
		<layer id="203" name="/nncf_module/mobilebert/embeddings/embedding_transformation/Add" type="Add" version="opset1">
			<data auto_broadcast="numpy" />
			<input>
				<port id="0" precision="FP32">
					<dim>1</dim>
					<dim>1</dim>
					<dim>512</dim>
				</port>
				<port id="1" precision="FP32">
					<dim>1</dim>
					<dim>384</dim>
					<dim>512</dim>
				</port>
			</input>
			<output>
				<port id="2" precision="FP32" names="/nncf_module/mobilebert/embeddings/embedding_transformation/Add_output_0">
					<dim>1</dim>
					<dim>384</dim>
					<dim>512</dim>
				</port>
			</output>
		</layer>
		<layer id="204" name="/nncf_module/mobilebert/embeddings/position_embeddings/pre_ops.0/op/Constant" type="Const" version="opset1">
			<data element_type="i8" shape="512, 512" offset="4255936" size="262144" />
			<output>
				<port id="0" precision="I8">
					<dim>512</dim>
					<dim>512</dim>
				</port>
			</output>
		</layer>
		<layer id="205" name="Convert_9084586" type="Convert" version="opset1">
			<data destination_type="f32" />
			<input>
				<port id="0" precision="I8">
					<dim>512</dim>
					<dim>512</dim>
				</port>
			</input>
			<output>
				<port id="1" precision="FP32">
					<dim>512</dim>
					<dim>512</dim>
				</port>
			</output>
		</layer>
		<layer id="206" name="Constant_9084493" type="Const" version="opset1">
			<data element_type="f32" shape="1, 1" offset="4518080" size="4" />
			<output>
				<port id="0" precision="FP32">
					<dim>1</dim>
					<dim>1</dim>
				</port>
			</output>
		</layer>
		<layer id="207" name="/nncf_module/mobilebert/embeddings/position_embeddings/pre_ops.0/op/FakeQuantize" type="Multiply" version="opset1">
			<data auto_broadcast="numpy" />
			<input>
				<port id="0" precision="FP32">
					<dim>512</dim>
					<dim>512</dim>
				</port>
				<port id="1" precision="FP32">
					<dim>1</dim>
					<dim>1</dim>
				</port>
			</input>
			<output>
				<port id="2" precision="FP32" names="/nncf_module/mobilebert/embeddings/position_embeddings/pre_ops.0/op/FakeQuantize_output_0">
					<dim>512</dim>
					<dim>512</dim>
				</port>
			</output>
		</layer>
		<layer id="208" name="onnx::Gather_8178" type="Const" version="opset1">
			<data element_type="i64" shape="1, 384" offset="4518084" size="3072" />
			<output>
				<port id="0" precision="I64" names="onnx::Gather_8178">
					<dim>1</dim>
					<dim>384</dim>
				</port>
			</output>
		</layer>
		<layer id="209" name="Constant_9024691" type="Const" version="opset1">
			<data element_type="i64" shape="" offset="4057132" size="8" />
			<output>
				<port id="0" precision="I64" />
			</output>
		</layer>
		<layer id="210" name="/nncf_module/mobilebert/embeddings/position_embeddings/Gather" type="Gather" version="opset8">
			<data batch_dims="0" />
			<input>
				<port id="0" precision="FP32">
					<dim>512</dim>
					<dim>512</dim>
				</port>
				<port id="1" precision="I64">
					<dim>1</dim>
					<dim>384</dim>
				</port>
				<port id="2" precision="I64" />
			</input>
			<output>
				<port id="3" precision="FP32" names="/nncf_module/mobilebert/embeddings/position_embeddings/Gather_output_0">
					<dim>1</dim>
					<dim>384</dim>
					<dim>512</dim>
				</port>
			</output>
		</layer>
		<layer id="211" name="/nncf_module/mobilebert/embeddings/Add" type="Add" version="opset1">
			<data auto_broadcast="numpy" />
			<input>
				<port id="0" precision="FP32">
					<dim>1</dim>
					<dim>384</dim>
					<dim>512</dim>
				</port>
				<port id="1" precision="FP32">
					<dim>1</dim>
					<dim>384</dim>
					<dim>512</dim>
				</port>
			</input>
			<output>
				<port id="2" precision="FP32" names="/nncf_module/mobilebert/embeddings/Add_output_0">
					<dim>1</dim>
					<dim>384</dim>
					<dim>512</dim>
				</port>
			</output>
		</layer>
		<layer id="212" name="/nncf_module/mobilebert/embeddings/token_type_embeddings/pre_ops.0/op/Constant" type="Const" version="opset1">
			<data element_type="i8" shape="2, 512" offset="4521156" size="1024" />
			<output>
				<port id="0" precision="I8">
					<dim>2</dim>
					<dim>512</dim>
				</port>
			</output>
		</layer>
		<layer id="213" name="Convert_9084755" type="Convert" version="opset1">
			<data destination_type="f32" />
			<input>
				<port id="0" precision="I8">
					<dim>2</dim>
					<dim>512</dim>
				</port>
			</input>
			<output>
				<port id="1" precision="FP32">
					<dim>2</dim>
					<dim>512</dim>
				</port>
			</output>
		</layer>
		<layer id="214" name="Constant_9084662" type="Const" version="opset1">
			<data element_type="f32" shape="1, 1" offset="4522180" size="4" />
			<output>
				<port id="0" precision="FP32">
					<dim>1</dim>
					<dim>1</dim>
				</port>
			</output>
		</layer>
		<layer id="215" name="/nncf_module/mobilebert/embeddings/token_type_embeddings/pre_ops.0/op/FakeQuantize" type="Multiply" version="opset1">
			<data auto_broadcast="numpy" />
			<input>
				<port id="0" precision="FP32">
					<dim>2</dim>
					<dim>512</dim>
				</port>
				<port id="1" precision="FP32">
					<dim>1</dim>
					<dim>1</dim>
				</port>
			</input>
			<output>
				<port id="2" precision="FP32" names="/nncf_module/mobilebert/embeddings/token_type_embeddings/pre_ops.0/op/FakeQuantize_output_0">
					<dim>2</dim>
					<dim>512</dim>
				</port>
			</output>
		</layer>
		<layer id="216" name="Constant_9024697" type="Const" version="opset1">
			<data element_type="i64" shape="" offset="4057132" size="8" />
			<output>
				<port id="0" precision="I64" />
			</output>
		</layer>
		<layer id="217" name="/nncf_module/mobilebert/embeddings/token_type_embeddings/Gather" type="Gather" version="opset8">
			<data batch_dims="0" />
			<input>
				<port id="0" precision="FP32">
					<dim>2</dim>
					<dim>512</dim>
				</port>
				<port id="1" precision="I64">
					<dim>1</dim>
					<dim>384</dim>
				</port>
				<port id="2" precision="I64" />
			</input>
			<output>
				<port id="3" precision="FP32" names="/nncf_module/mobilebert/embeddings/token_type_embeddings/Gather_output_0">
					<dim>1</dim>
					<dim>384</dim>
					<dim>512</dim>
				</port>
			</output>
		</layer>
		<layer id="218" name="/nncf_module/mobilebert/embeddings/Add_1" type="Add" version="opset1">
			<data auto_broadcast="numpy" />
			<input>
				<port id="0" precision="FP32">
					<dim>1</dim>
					<dim>384</dim>
					<dim>512</dim>
				</port>
				<port id="1" precision="FP32">
					<dim>1</dim>
					<dim>384</dim>
					<dim>512</dim>
				</port>
			</input>
			<output>
				<port id="2" precision="FP32" names="/nncf_module/mobilebert/embeddings/Add_1_output_0">
					<dim>1</dim>
					<dim>384</dim>
					<dim>512</dim>
				</port>
			</output>
		</layer>
		<layer id="219" name="Constant_9081024" type="Const" version="opset1">
			<data element_type="f32" shape="1, 1, 1" offset="4522184" size="4" />
			<output>
				<port id="0" precision="FP32">
					<dim>1</dim>
					<dim>1</dim>
					<dim>1</dim>
				</port>
			</output>
		</layer>
		<layer id="220" name="Constant_9081025" type="Const" version="opset1">
			<data element_type="f32" shape="1, 1, 1" offset="4522188" size="4" />
			<output>
				<port id="0" precision="FP32">
					<dim>1</dim>
					<dim>1</dim>
					<dim>1</dim>
				</port>
			</output>
		</layer>
		<layer id="221" name="Constant_9081026" type="Const" version="opset1">
			<data element_type="f32" shape="1, 1, 1" offset="4522184" size="4" />
			<output>
				<port id="0" precision="FP32">
					<dim>1</dim>
					<dim>1</dim>
					<dim>1</dim>
				</port>
			</output>
		</layer>
		<layer id="222" name="Constant_9081027" type="Const" version="opset1">
			<data element_type="f32" shape="1, 1, 1" offset="4522188" size="4" />
			<output>
				<port id="0" precision="FP32">
					<dim>1</dim>
					<dim>1</dim>
					<dim>1</dim>
				</port>
			</output>
		</layer>
		<layer id="223" name="/nncf_module/mobilebert/embeddings/MobileBertForQuestionAnswering/MobileBertModel[mobilebert]/MobileBertEmbeddings[embeddings]/__add___1|OUTPUT/FakeQuantize" type="FakeQuantize" version="opset1">
			<data levels="256" auto_broadcast="numpy" />
			<input>
				<port id="0" precision="FP32">
					<dim>1</dim>
					<dim>384</dim>
					<dim>512</dim>
				</port>
				<port id="1" precision="FP32">
					<dim>1</dim>
					<dim>1</dim>
					<dim>1</dim>
				</port>
				<port id="2" precision="FP32">
					<dim>1</dim>
					<dim>1</dim>
					<dim>1</dim>
				</port>
				<port id="3" precision="FP32">
					<dim>1</dim>
					<dim>1</dim>
					<dim>1</dim>
				</port>
				<port id="4" precision="FP32">
					<dim>1</dim>
					<dim>1</dim>
					<dim>1</dim>
				</port>
			</input>
			<output>
				<port id="5" precision="FP32" names="/nncf_module/mobilebert/embeddings/MobileBertForQuestionAnswering/MobileBertModel[mobilebert]/MobileBertEmbeddings[embeddings]/__add___1|OUTPUT/FakeQuantize_output_0">
					<dim>1</dim>
					<dim>384</dim>
					<dim>512</dim>
				</port>
			</output>
		</layer>
		<layer id="224" name="Constant_9081028" type="Const" version="opset1">
			<data element_type="f32" shape="1, 1, 512" offset="4522192" size="2048" />
			<output>
				<port id="0" precision="FP32">
					<dim>1</dim>
					<dim>1</dim>
					<dim>512</dim>
				</port>
			</output>
		</layer>
		<layer id="225" name="/nncf_module/mobilebert/embeddings/LayerNorm/Mul" type="Multiply" version="opset1">
			<data auto_broadcast="numpy" />
			<input>
				<port id="0" precision="FP32">
					<dim>1</dim>
					<dim>384</dim>
					<dim>512</dim>
				</port>
				<port id="1" precision="FP32">
					<dim>1</dim>
					<dim>1</dim>
					<dim>512</dim>
				</port>
			</input>
			<output>
				<port id="2" precision="FP32" names="/nncf_module/mobilebert/embeddings/LayerNorm/Mul_output_0">
					<dim>1</dim>
					<dim>384</dim>
					<dim>512</dim>
				</port>
			</output>
		</layer>
		<layer id="226" name="Constant_9081029" type="Const" version="opset1">
			<data element_type="f32" shape="1, 1, 512" offset="4524240" size="2048" />
			<output>
				<port id="0" precision="FP32">
					<dim>1</dim>
					<dim>1</dim>
					<dim>512</dim>
				</port>
			</output>
		</layer>
		<layer id="227" name="/nncf_module/mobilebert/embeddings/LayerNorm/Add" type="Add" version="opset1">
			<data auto_broadcast="numpy" />
			<input>
				<port id="0" precision="FP32">
					<dim>1</dim>
					<dim>384</dim>
					<dim>512</dim>
				</port>
				<port id="1" precision="FP32">
					<dim>1</dim>
					<dim>1</dim>
					<dim>512</dim>
				</port>
			</input>
			<output>
				<port id="2" precision="FP32" names="/nncf_module/mobilebert/embeddings/LayerNorm/Add_output_0">
					<dim>1</dim>
					<dim>384</dim>
					<dim>512</dim>
				</port>
			</output>
		</layer>
		<layer id="228" name="Constant_9081030" type="Const" version="opset1">
			<data element_type="f32" shape="1, 1, 1" offset="4526288" size="4" />
			<output>
				<port id="0" precision="FP32">
					<dim>1</dim>
					<dim>1</dim>
					<dim>1</dim>
				</port>
			</output>
		</layer>
		<layer id="229" name="Constant_9081031" type="Const" version="opset1">
			<data element_type="f32" shape="1, 1, 1" offset="4526292" size="4" />
			<output>
				<port id="0" precision="FP32">
					<dim>1</dim>
					<dim>1</dim>
					<dim>1</dim>
				</port>
			</output>
		</layer>
		<layer id="230" name="Constant_9081032" type="Const" version="opset1">
			<data element_type="f32" shape="1, 1, 1" offset="4526288" size="4" />
			<output>
				<port id="0" precision="FP32">
					<dim>1</dim>
					<dim>1</dim>
					<dim>1</dim>
				</port>
			</output>
		</layer>
		<layer id="231" name="Constant_9081033" type="Const" version="opset1">
			<data element_type="f32" shape="1, 1, 1" offset="4526292" size="4" />
			<output>
				<port id="0" precision="FP32">
					<dim>1</dim>
					<dim>1</dim>
					<dim>1</dim>
				</port>
			</output>
		</layer>
		<layer id="232" name="/nncf_module/mobilebert/encoder/layer.0/bottleneck/attention/dense/MobileBertForQuestionAnswering/MobileBertModel[mobilebert]/MobileBertEncoder[encoder]/ModuleList[layer]/MobileBertLayer[0]/Bottleneck[bottleneck]/BottleneckLayer[attention]/NNCFLinear[dense]/linear_0|INPUT0/FakeQuantize" type="FakeQuantize" version="opset1">
			<data levels="256" auto_broadcast="numpy" />
			<input>
				<port id="0" precision="FP32">
					<dim>1</dim>
					<dim>384</dim>
					<dim>512</dim>
				</port>
				<port id="1" precision="FP32">
					<dim>1</dim>
					<dim>1</dim>
					<dim>1</dim>
				</port>
				<port id="2" precision="FP32">
					<dim>1</dim>
					<dim>1</dim>
					<dim>1</dim>
				</port>
				<port id="3" precision="FP32">
					<dim>1</dim>
					<dim>1</dim>
					<dim>1</dim>
				</port>
				<port id="4" precision="FP32">
					<dim>1</dim>
					<dim>1</dim>
					<dim>1</dim>
				</port>
			</input>
			<output>
				<port id="5" precision="FP32" names="/nncf_module/mobilebert/encoder/layer.0/bottleneck/attention/dense/MobileBertForQuestionAnswering/MobileBertModel[mobilebert]/MobileBertEncoder[encoder]/ModuleList[layer]/MobileBertLayer[0]/Bottleneck[bottleneck]/BottleneckLayer[attention]/NNCFLinear[dense]/linear_0|INPUT0/FakeQuantize_output_0">
					<dim>1</dim>
					<dim>384</dim>
					<dim>512</dim>
				</port>
			</output>
		</layer>
		<layer id="233" name="/nncf_module/mobilebert/encoder/layer.0/bottleneck/attention/dense/pre_ops.0/op/Constant" type="Const" version="opset1">
			<data element_type="i8" shape="128, 512" offset="4526296" size="65536" />
			<output>
				<port id="0" precision="I8">
					<dim>128</dim>
					<dim>512</dim>
				</port>
			</output>
		</layer>
		<layer id="234" name="Convert_9084876" type="Convert" version="opset1">
			<data destination_type="f32" />
			<input>
				<port id="0" precision="I8">
					<dim>128</dim>
					<dim>512</dim>
				</port>
			</input>
			<output>
				<port id="1" precision="FP32">
					<dim>128</dim>
					<dim>512</dim>
				</port>
			</output>
		</layer>
		<layer id="235" name="Constant_9084813" type="Const" version="opset1">
			<data element_type="f32" shape="128, 1" offset="4591832" size="512" />
			<output>
				<port id="0" precision="FP32">
					<dim>128</dim>
					<dim>1</dim>
				</port>
			</output>
		</layer>
		<layer id="236" name="Multiply_9077064" type="Multiply" version="opset1">
			<data auto_broadcast="numpy" />
			<input>
				<port id="0" precision="FP32">
					<dim>128</dim>
					<dim>512</dim>
				</port>
				<port id="1" precision="FP32">
					<dim>128</dim>
					<dim>1</dim>
				</port>
			</input>
			<output>
				<port id="2" precision="FP32">
					<dim>128</dim>
					<dim>512</dim>
				</port>
			</output>
		</layer>
		<layer id="237" name="Multiply_9076838" type="MatMul" version="opset1">
			<data transpose_a="false" transpose_b="true" />
			<input>
				<port id="0" precision="FP32">
					<dim>1</dim>
					<dim>384</dim>
					<dim>512</dim>
				</port>
				<port id="1" precision="FP32">
					<dim>128</dim>
					<dim>512</dim>
				</port>
			</input>
			<output>
				<port id="2" precision="FP32">
					<dim>1</dim>
					<dim>384</dim>
					<dim>128</dim>
				</port>
			</output>
		</layer>
		<layer id="238" name="Constant_9081034" type="Const" version="opset1">
			<data element_type="f32" shape="1, 1, 128" offset="4592344" size="512" />
			<output>
				<port id="0" precision="FP32">
					<dim>1</dim>
					<dim>1</dim>
					<dim>128</dim>
				</port>
			</output>
		</layer>
		<layer id="239" name="/nncf_module/mobilebert/encoder/layer.0/bottleneck/attention/LayerNorm/Add" type="Add" version="opset1">
			<data auto_broadcast="numpy" />
			<input>
				<port id="0" precision="FP32">
					<dim>1</dim>
					<dim>384</dim>
					<dim>128</dim>
				</port>
				<port id="1" precision="FP32">
					<dim>1</dim>
					<dim>1</dim>
					<dim>128</dim>
				</port>
			</input>
			<output>
				<port id="2" precision="FP32" names="/nncf_module/mobilebert/encoder/layer.0/bottleneck/attention/LayerNorm/Add_output_0">
					<dim>1</dim>
					<dim>384</dim>
					<dim>128</dim>
				</port>
			</output>
		</layer>
		<layer id="240" name="Constant_9081035" type="Const" version="opset1">
			<data element_type="f32" shape="1, 1, 1" offset="4592856" size="4" />
			<output>
				<port id="0" precision="FP32">
					<dim>1</dim>
					<dim>1</dim>
					<dim>1</dim>
				</port>
			</output>
		</layer>
		<layer id="241" name="Constant_9081036" type="Const" version="opset1">
			<data element_type="f32" shape="1, 1, 1" offset="4592860" size="4" />
			<output>
				<port id="0" precision="FP32">
					<dim>1</dim>
					<dim>1</dim>
					<dim>1</dim>
				</port>
			</output>
		</layer>
		<layer id="242" name="Constant_9081037" type="Const" version="opset1">
			<data element_type="f32" shape="1, 1, 1" offset="4592856" size="4" />
			<output>
				<port id="0" precision="FP32">
					<dim>1</dim>
					<dim>1</dim>
					<dim>1</dim>
				</port>
			</output>
		</layer>
		<layer id="243" name="Constant_9081038" type="Const" version="opset1">
			<data element_type="f32" shape="1, 1, 1" offset="4592860" size="4" />
			<output>
				<port id="0" precision="FP32">
					<dim>1</dim>
					<dim>1</dim>
					<dim>1</dim>
				</port>
			</output>
		</layer>
		<layer id="244" name="/nncf_module/mobilebert/encoder/layer.0/bottleneck/attention/LayerNorm/MobileBertForQuestionAnswering/MobileBertModel[mobilebert]/MobileBertEncoder[encoder]/ModuleList[layer]/MobileBertLayer[0]/Bottleneck[bottleneck]/BottleneckLayer[attention]/NoNorm[LayerNorm]/__add___0|OUTPUT/FakeQuantize" type="FakeQuantize" version="opset1">
			<data levels="256" auto_broadcast="numpy" />
			<input>
				<port id="0" precision="FP32">
					<dim>1</dim>
					<dim>384</dim>
					<dim>128</dim>
				</port>
				<port id="1" precision="FP32">
					<dim>1</dim>
					<dim>1</dim>
					<dim>1</dim>
				</port>
				<port id="2" precision="FP32">
					<dim>1</dim>
					<dim>1</dim>
					<dim>1</dim>
				</port>
				<port id="3" precision="FP32">
					<dim>1</dim>
					<dim>1</dim>
					<dim>1</dim>
				</port>
				<port id="4" precision="FP32">
					<dim>1</dim>
					<dim>1</dim>
					<dim>1</dim>
				</port>
			</input>
			<output>
				<port id="5" precision="FP32" names="/nncf_module/mobilebert/encoder/layer.0/bottleneck/attention/LayerNorm/MobileBertForQuestionAnswering/MobileBertModel[mobilebert]/MobileBertEncoder[encoder]/ModuleList[layer]/MobileBertLayer[0]/Bottleneck[bottleneck]/BottleneckLayer[attention]/NoNorm[LayerNorm]/__add___0|OUTPUT/FakeQuantize_output_0">
					<dim>1</dim>
					<dim>384</dim>
					<dim>128</dim>
				</port>
			</output>
		</layer>
		<layer id="245" name="/nncf_module/mobilebert/encoder/layer.0/attention/self/query/pre_ops.1/op/Constant" type="Const" version="opset1">
			<data element_type="i8" shape="128, 128" offset="4592864" size="16384" />
			<output>
				<port id="0" precision="I8">
					<dim>128</dim>
					<dim>128</dim>
				</port>
			</output>
		</layer>
		<layer id="246" name="Convert_9084997" type="Convert" version="opset1">
			<data destination_type="f32" />
			<input>
				<port id="0" precision="I8">
					<dim>128</dim>
					<dim>128</dim>
				</port>
			</input>
			<output>
				<port id="1" precision="FP32">
					<dim>128</dim>
					<dim>128</dim>
				</port>
			</output>
		</layer>
		<layer id="247" name="Constant_9084934" type="Const" version="opset1">
			<data element_type="f32" shape="128, 1" offset="4609248" size="512" />
			<output>
				<port id="0" precision="FP32">
					<dim>128</dim>
					<dim>1</dim>
				</port>
			</output>
		</layer>
		<layer id="248" name="/nncf_module/mobilebert/encoder/layer.0/attention/self/query/pre_ops.1/op/FakeQuantize" type="Multiply" version="opset1">
			<data auto_broadcast="numpy" />
			<input>
				<port id="0" precision="FP32">
					<dim>128</dim>
					<dim>128</dim>
				</port>
				<port id="1" precision="FP32">
					<dim>128</dim>
					<dim>1</dim>
				</port>
			</input>
			<output>
				<port id="2" precision="FP32" names="/nncf_module/mobilebert/encoder/layer.0/attention/self/query/pre_ops.1/op/FakeQuantize_output_0">
					<dim>128</dim>
					<dim>128</dim>
				</port>
			</output>
		</layer>
		<layer id="249" name="/nncf_module/mobilebert/encoder/layer.0/attention/self/query/MatMul" type="MatMul" version="opset1">
			<data transpose_a="false" transpose_b="true" />
			<input>
				<port id="0" precision="FP32">
					<dim>1</dim>
					<dim>384</dim>
					<dim>128</dim>
				</port>
				<port id="1" precision="FP32">
					<dim>128</dim>
					<dim>128</dim>
				</port>
			</input>
			<output>
				<port id="2" precision="FP32" names="/nncf_module/mobilebert/encoder/layer.0/attention/self/query/MatMul_output_0">
					<dim>1</dim>
					<dim>384</dim>
					<dim>128</dim>
				</port>
			</output>
		</layer>
		<layer id="250" name="/nncf_module/mobilebert/encoder/layer.0/attention/self/query/Add" type="Add" version="opset1">
			<data auto_broadcast="numpy" />
			<input>
				<port id="0" precision="FP32">
					<dim>1</dim>
					<dim>1</dim>
					<dim>128</dim>
				</port>
				<port id="1" precision="FP32">
					<dim>1</dim>
					<dim>384</dim>
					<dim>128</dim>
				</port>
			</input>
			<output>
				<port id="2" precision="FP32" names="/nncf_module/mobilebert/encoder/layer.0/attention/self/query/Add_output_0">
					<dim>1</dim>
					<dim>384</dim>
					<dim>128</dim>
				</port>
			</output>
		</layer>
		<layer id="251" name="Constant_9081040" type="Const" version="opset1">
			<data element_type="f32" shape="1, 1, 1" offset="4609760" size="4" />
			<output>
				<port id="0" precision="FP32">
					<dim>1</dim>
					<dim>1</dim>
					<dim>1</dim>
				</port>
			</output>
		</layer>
		<layer id="252" name="Constant_9081041" type="Const" version="opset1">
			<data element_type="f32" shape="1, 1, 1" offset="4609764" size="4" />
			<output>
				<port id="0" precision="FP32">
					<dim>1</dim>
					<dim>1</dim>
					<dim>1</dim>
				</port>
			</output>
		</layer>
		<layer id="253" name="Constant_9081042" type="Const" version="opset1">
			<data element_type="f32" shape="1, 1, 1" offset="4609760" size="4" />
			<output>
				<port id="0" precision="FP32">
					<dim>1</dim>
					<dim>1</dim>
					<dim>1</dim>
				</port>
			</output>
		</layer>
		<layer id="254" name="Constant_9081043" type="Const" version="opset1">
			<data element_type="f32" shape="1, 1, 1" offset="4609764" size="4" />
			<output>
				<port id="0" precision="FP32">
					<dim>1</dim>
					<dim>1</dim>
					<dim>1</dim>
				</port>
			</output>
		</layer>
		<layer id="255" name="/nncf_module/mobilebert/encoder/layer.0/attention/self/query/MobileBertForQuestionAnswering/MobileBertModel[mobilebert]/MobileBertEncoder[encoder]/ModuleList[layer]/MobileBertLayer[0]/MobileBertAttention[attention]/MobileBertSelfAttention[self]/NNCFLinear[query]/linear_0|OUTPUT/FakeQuantize" type="FakeQuantize" version="opset1">
			<data levels="256" auto_broadcast="numpy" />
			<input>
				<port id="0" precision="FP32">
					<dim>1</dim>
					<dim>384</dim>
					<dim>128</dim>
				</port>
				<port id="1" precision="FP32">
					<dim>1</dim>
					<dim>1</dim>
					<dim>1</dim>
				</port>
				<port id="2" precision="FP32">
					<dim>1</dim>
					<dim>1</dim>
					<dim>1</dim>
				</port>
				<port id="3" precision="FP32">
					<dim>1</dim>
					<dim>1</dim>
					<dim>1</dim>
				</port>
				<port id="4" precision="FP32">
					<dim>1</dim>
					<dim>1</dim>
					<dim>1</dim>
				</port>
			</input>
			<output>
				<port id="5" precision="FP32" names="/nncf_module/mobilebert/encoder/layer.0/attention/self/query/MobileBertForQuestionAnswering/MobileBertModel[mobilebert]/MobileBertEncoder[encoder]/ModuleList[layer]/MobileBertLayer[0]/MobileBertAttention[attention]/MobileBertSelfAttention[self]/NNCFLinear[query]/linear_0|OUTPUT/FakeQuantize_output_0">
					<dim>1</dim>
					<dim>384</dim>
					<dim>128</dim>
				</port>
			</output>
		</layer>
		<layer id="256" name="/nncf_module/mobilebert/encoder/layer.0/attention/self/Shape" type="ShapeOf" version="opset3">
			<data output_type="i64" />
			<input>
				<port id="0" precision="FP32">
					<dim>1</dim>
					<dim>384</dim>
					<dim>128</dim>
				</port>
			</input>
			<output>
				<port id="1" precision="I64" names="/nncf_module/mobilebert/encoder/layer.0/attention/self/Shape_1_output_0,/nncf_module/mobilebert/encoder/layer.0/attention/self/Shape_output_0">
					<dim>3</dim>
				</port>
			</output>
		</layer>
		<layer id="257" name="Constant_9067277" type="Const" version="opset1">
			<data element_type="i64" shape="2" offset="4057148" size="16" />
			<output>
				<port id="0" precision="I64">
					<dim>2</dim>
				</port>
			</output>
		</layer>
		<layer id="258" name="Constant_9067278" type="Const" version="opset1">
			<data element_type="i64" shape="" offset="4057132" size="8" />
			<output>
				<port id="0" precision="I64" />
			</output>
		</layer>
		<layer id="259" name="Gather_9067279" type="Gather" version="opset8">
			<data batch_dims="0" />
			<input>
				<port id="0" precision="I64">
					<dim>3</dim>
				</port>
				<port id="1" precision="I64">
					<dim>2</dim>
				</port>
				<port id="2" precision="I64" />
			</input>
			<output>
				<port id="3" precision="I64">
					<dim>2</dim>
				</port>
			</output>
		</layer>
		<layer id="260" name="/nncf_module/mobilebert/encoder/layer.0/attention/self/Constant_2" type="Const" version="opset1">
			<data element_type="i64" shape="1" offset="4609768" size="8" />
			<output>
				<port id="0" precision="I64" names="/nncf_module/mobilebert/encoder/layer.0/attention/self/Constant_2_output_0">
					<dim>1</dim>
				</port>
			</output>
		</layer>
		<layer id="261" name="/nncf_module/mobilebert/encoder/layer.0/attention/self/Constant_3" type="Const" version="opset1">
			<data element_type="i64" shape="1" offset="4609776" size="8" />
			<output>
				<port id="0" precision="I64" names="/nncf_module/mobilebert/encoder/layer.0/attention/self/Constant_3_output_0">
					<dim>1</dim>
				</port>
			</output>
		</layer>
		<layer id="262" name="/nncf_module/mobilebert/encoder/layer.0/attention/self/Concat" type="Concat" version="opset1">
			<data axis="0" />
			<input>
				<port id="0" precision="I64">
					<dim>2</dim>
				</port>
				<port id="1" precision="I64">
					<dim>1</dim>
				</port>
				<port id="2" precision="I64">
					<dim>1</dim>
				</port>
			</input>
			<output>
				<port id="3" precision="I64" names="/nncf_module/mobilebert/encoder/layer.0/attention/self/Concat_output_0">
					<dim>4</dim>
				</port>
			</output>
		</layer>
		<layer id="263" name="/nncf_module/mobilebert/encoder/layer.0/attention/self/Reshape" type="Reshape" version="opset1">
			<data special_zero="true" />
			<input>
				<port id="0" precision="FP32">
					<dim>1</dim>
					<dim>384</dim>
					<dim>128</dim>
				</port>
				<port id="1" precision="I64">
					<dim>4</dim>
				</port>
			</input>
			<output>
				<port id="2" precision="FP32" names="/nncf_module/mobilebert/encoder/layer.0/attention/self/Reshape_output_0">
					<dim>1</dim>
					<dim>384</dim>
					<dim>4</dim>
					<dim>32</dim>
				</port>
			</output>
		</layer>
		<layer id="264" name="Constant_9024834" type="Const" version="opset1">
			<data element_type="i64" shape="4" offset="4609784" size="32" />
			<output>
				<port id="0" precision="I64">
					<dim>4</dim>
				</port>
			</output>
		</layer>
		<layer id="265" name="/nncf_module/mobilebert/encoder/layer.0/attention/self/Transpose" type="Transpose" version="opset1">
			<input>
				<port id="0" precision="FP32">
					<dim>1</dim>
					<dim>384</dim>
					<dim>4</dim>
					<dim>32</dim>
				</port>
				<port id="1" precision="I64">
					<dim>4</dim>
				</port>
			</input>
			<output>
				<port id="2" precision="FP32" names="/nncf_module/mobilebert/encoder/layer.0/attention/self/Transpose_output_0">
					<dim>1</dim>
					<dim>4</dim>
					<dim>384</dim>
					<dim>32</dim>
				</port>
			</output>
		</layer>
		<layer id="266" name="Constant_9081044" type="Const" version="opset1">
			<data element_type="f32" shape="1, 1, 128" offset="4609816" size="512" />
			<output>
				<port id="0" precision="FP32">
					<dim>1</dim>
					<dim>1</dim>
					<dim>128</dim>
				</port>
			</output>
		</layer>
		<layer id="267" name="/nncf_module/mobilebert/encoder/layer.0/attention/self/key/pre_ops.1/op/Constant" type="Const" version="opset1">
			<data element_type="i8" shape="128, 128" offset="4610328" size="16384" />
			<output>
				<port id="0" precision="I8">
					<dim>128</dim>
					<dim>128</dim>
				</port>
			</output>
		</layer>
		<layer id="268" name="Convert_9085118" type="Convert" version="opset1">
			<data destination_type="f32" />
			<input>
				<port id="0" precision="I8">
					<dim>128</dim>
					<dim>128</dim>
				</port>
			</input>
			<output>
				<port id="1" precision="FP32">
					<dim>128</dim>
					<dim>128</dim>
				</port>
			</output>
		</layer>
		<layer id="269" name="Constant_9085055" type="Const" version="opset1">
			<data element_type="f32" shape="128, 1" offset="4626712" size="512" />
			<output>
				<port id="0" precision="FP32">
					<dim>128</dim>
					<dim>1</dim>
				</port>
			</output>
		</layer>
		<layer id="270" name="/nncf_module/mobilebert/encoder/layer.0/attention/self/key/pre_ops.1/op/FakeQuantize" type="Multiply" version="opset1">
			<data auto_broadcast="numpy" />
			<input>
				<port id="0" precision="FP32">
					<dim>128</dim>
					<dim>128</dim>
				</port>
				<port id="1" precision="FP32">
					<dim>128</dim>
					<dim>1</dim>
				</port>
			</input>
			<output>
				<port id="2" precision="FP32" names="/nncf_module/mobilebert/encoder/layer.0/attention/self/key/pre_ops.1/op/FakeQuantize_output_0">
					<dim>128</dim>
					<dim>128</dim>
				</port>
			</output>
		</layer>
		<layer id="271" name="/nncf_module/mobilebert/encoder/layer.0/attention/self/key/MatMul" type="MatMul" version="opset1">
			<data transpose_a="false" transpose_b="true" />
			<input>
				<port id="0" precision="FP32">
					<dim>1</dim>
					<dim>384</dim>
					<dim>128</dim>
				</port>
				<port id="1" precision="FP32">
					<dim>128</dim>
					<dim>128</dim>
				</port>
			</input>
			<output>
				<port id="2" precision="FP32" names="/nncf_module/mobilebert/encoder/layer.0/attention/self/key/MatMul_output_0">
					<dim>1</dim>
					<dim>384</dim>
					<dim>128</dim>
				</port>
			</output>
		</layer>
		<layer id="272" name="/nncf_module/mobilebert/encoder/layer.0/attention/self/key/Add" type="Add" version="opset1">
			<data auto_broadcast="numpy" />
			<input>
				<port id="0" precision="FP32">
					<dim>1</dim>
					<dim>1</dim>
					<dim>128</dim>
				</port>
				<port id="1" precision="FP32">
					<dim>1</dim>
					<dim>384</dim>
					<dim>128</dim>
				</port>
			</input>
			<output>
				<port id="2" precision="FP32" names="/nncf_module/mobilebert/encoder/layer.0/attention/self/key/Add_output_0">
					<dim>1</dim>
					<dim>384</dim>
					<dim>128</dim>
				</port>
			</output>
		</layer>
		<layer id="273" name="Constant_9081045" type="Const" version="opset1">
			<data element_type="f32" shape="1, 1, 1" offset="4627224" size="4" />
			<output>
				<port id="0" precision="FP32">
					<dim>1</dim>
					<dim>1</dim>
					<dim>1</dim>
				</port>
			</output>
		</layer>
		<layer id="274" name="Constant_9081046" type="Const" version="opset1">
			<data element_type="f32" shape="1, 1, 1" offset="4627228" size="4" />
			<output>
				<port id="0" precision="FP32">
					<dim>1</dim>
					<dim>1</dim>
					<dim>1</dim>
				</port>
			</output>
		</layer>
		<layer id="275" name="Constant_9081047" type="Const" version="opset1">
			<data element_type="f32" shape="1, 1, 1" offset="4627224" size="4" />
			<output>
				<port id="0" precision="FP32">
					<dim>1</dim>
					<dim>1</dim>
					<dim>1</dim>
				</port>
			</output>
		</layer>
		<layer id="276" name="Constant_9081048" type="Const" version="opset1">
			<data element_type="f32" shape="1, 1, 1" offset="4627228" size="4" />
			<output>
				<port id="0" precision="FP32">
					<dim>1</dim>
					<dim>1</dim>
					<dim>1</dim>
				</port>
			</output>
		</layer>
		<layer id="277" name="/nncf_module/mobilebert/encoder/layer.0/attention/self/key/MobileBertForQuestionAnswering/MobileBertModel[mobilebert]/MobileBertEncoder[encoder]/ModuleList[layer]/MobileBertLayer[0]/MobileBertAttention[attention]/MobileBertSelfAttention[self]/NNCFLinear[key]/linear_0|OUTPUT/FakeQuantize" type="FakeQuantize" version="opset1">
			<data levels="256" auto_broadcast="numpy" />
			<input>
				<port id="0" precision="FP32">
					<dim>1</dim>
					<dim>384</dim>
					<dim>128</dim>
				</port>
				<port id="1" precision="FP32">
					<dim>1</dim>
					<dim>1</dim>
					<dim>1</dim>
				</port>
				<port id="2" precision="FP32">
					<dim>1</dim>
					<dim>1</dim>
					<dim>1</dim>
				</port>
				<port id="3" precision="FP32">
					<dim>1</dim>
					<dim>1</dim>
					<dim>1</dim>
				</port>
				<port id="4" precision="FP32">
					<dim>1</dim>
					<dim>1</dim>
					<dim>1</dim>
				</port>
			</input>
			<output>
				<port id="5" precision="FP32" names="/nncf_module/mobilebert/encoder/layer.0/attention/self/key/MobileBertForQuestionAnswering/MobileBertModel[mobilebert]/MobileBertEncoder[encoder]/ModuleList[layer]/MobileBertLayer[0]/MobileBertAttention[attention]/MobileBertSelfAttention[self]/NNCFLinear[key]/linear_0|OUTPUT/FakeQuantize_output_0">
					<dim>1</dim>
					<dim>384</dim>
					<dim>128</dim>
				</port>
			</output>
		</layer>
		<layer id="278" name="/nncf_module/mobilebert/encoder/layer.0/attention/self/Shape_2" type="ShapeOf" version="opset3">
			<data output_type="i64" />
			<input>
				<port id="0" precision="FP32">
					<dim>1</dim>
					<dim>384</dim>
					<dim>128</dim>
				</port>
			</input>
			<output>
				<port id="1" precision="I64" names="/nncf_module/mobilebert/encoder/layer.0/attention/self/Shape_2_output_0,/nncf_module/mobilebert/encoder/layer.0/attention/self/Shape_3_output_0">
					<dim>3</dim>
				</port>
			</output>
		</layer>
		<layer id="279" name="Constant_9067282" type="Const" version="opset1">
			<data element_type="i64" shape="2" offset="4057148" size="16" />
			<output>
				<port id="0" precision="I64">
					<dim>2</dim>
				</port>
			</output>
		</layer>
		<layer id="280" name="Constant_9067283" type="Const" version="opset1">
			<data element_type="i64" shape="" offset="4057132" size="8" />
			<output>
				<port id="0" precision="I64" />
			</output>
		</layer>
		<layer id="281" name="Gather_9067284" type="Gather" version="opset8">
			<data batch_dims="0" />
			<input>
				<port id="0" precision="I64">
					<dim>3</dim>
				</port>
				<port id="1" precision="I64">
					<dim>2</dim>
				</port>
				<port id="2" precision="I64" />
			</input>
			<output>
				<port id="3" precision="I64">
					<dim>2</dim>
				</port>
			</output>
		</layer>
		<layer id="282" name="/nncf_module/mobilebert/encoder/layer.0/attention/self/Constant_6" type="Const" version="opset1">
			<data element_type="i64" shape="1" offset="4609768" size="8" />
			<output>
				<port id="0" precision="I64" names="/nncf_module/mobilebert/encoder/layer.0/attention/self/Constant_6_output_0">
					<dim>1</dim>
				</port>
			</output>
		</layer>
		<layer id="283" name="/nncf_module/mobilebert/encoder/layer.0/attention/self/Constant_7" type="Const" version="opset1">
			<data element_type="i64" shape="1" offset="4609776" size="8" />
			<output>
				<port id="0" precision="I64" names="/nncf_module/mobilebert/encoder/layer.0/attention/self/Constant_7_output_0">
					<dim>1</dim>
				</port>
			</output>
		</layer>
		<layer id="284" name="/nncf_module/mobilebert/encoder/layer.0/attention/self/Concat_1" type="Concat" version="opset1">
			<data axis="0" />
			<input>
				<port id="0" precision="I64">
					<dim>2</dim>
				</port>
				<port id="1" precision="I64">
					<dim>1</dim>
				</port>
				<port id="2" precision="I64">
					<dim>1</dim>
				</port>
			</input>
			<output>
				<port id="3" precision="I64" names="/nncf_module/mobilebert/encoder/layer.0/attention/self/Concat_1_output_0">
					<dim>4</dim>
				</port>
			</output>
		</layer>
		<layer id="285" name="/nncf_module/mobilebert/encoder/layer.0/attention/self/Reshape_1" type="Reshape" version="opset1">
			<data special_zero="true" />
			<input>
				<port id="0" precision="FP32">
					<dim>1</dim>
					<dim>384</dim>
					<dim>128</dim>
				</port>
				<port id="1" precision="I64">
					<dim>4</dim>
				</port>
			</input>
			<output>
				<port id="2" precision="FP32" names="/nncf_module/mobilebert/encoder/layer.0/attention/self/Reshape_1_output_0">
					<dim>1</dim>
					<dim>384</dim>
					<dim>4</dim>
					<dim>32</dim>
				</port>
			</output>
		</layer>
		<layer id="286" name="Constant_9024964" type="Const" version="opset1">
			<data element_type="i64" shape="4" offset="4627232" size="32" />
			<output>
				<port id="0" precision="I64">
					<dim>4</dim>
				</port>
			</output>
		</layer>
		<layer id="287" name="/nncf_module/mobilebert/encoder/layer.0/attention/self/Transpose_2" type="Transpose" version="opset1">
			<input>
				<port id="0" precision="FP32">
					<dim>1</dim>
					<dim>384</dim>
					<dim>4</dim>
					<dim>32</dim>
				</port>
				<port id="1" precision="I64">
					<dim>4</dim>
				</port>
			</input>
			<output>
				<port id="2" precision="FP32" names="/nncf_module/mobilebert/encoder/layer.0/attention/self/Transpose_2_output_0">
					<dim>1</dim>
					<dim>4</dim>
					<dim>32</dim>
					<dim>384</dim>
				</port>
			</output>
		</layer>
		<layer id="288" name="Constant_9081049" type="Const" version="opset1">
			<data element_type="f32" shape="1, 1, 1, 1" offset="4627264" size="4" />
			<output>
				<port id="0" precision="FP32">
					<dim>1</dim>
					<dim>1</dim>
					<dim>1</dim>
					<dim>1</dim>
				</port>
			</output>
		</layer>
		<layer id="289" name="Multiply_9077066" type="Multiply" version="opset1">
			<data auto_broadcast="numpy" />
			<input>
				<port id="0" precision="FP32">
					<dim>1</dim>
					<dim>4</dim>
					<dim>32</dim>
					<dim>384</dim>
				</port>
				<port id="1" precision="FP32">
					<dim>1</dim>
					<dim>1</dim>
					<dim>1</dim>
					<dim>1</dim>
				</port>
			</input>
			<output>
				<port id="2" precision="FP32">
					<dim>1</dim>
					<dim>4</dim>
					<dim>32</dim>
					<dim>384</dim>
				</port>
			</output>
		</layer>
		<layer id="290" name="/nncf_module/mobilebert/encoder/layer.0/attention/self/Div" type="MatMul" version="opset1">
			<data transpose_a="false" transpose_b="false" />
			<input>
				<port id="0" precision="FP32">
					<dim>1</dim>
					<dim>4</dim>
					<dim>384</dim>
					<dim>32</dim>
				</port>
				<port id="1" precision="FP32">
					<dim>1</dim>
					<dim>4</dim>
					<dim>32</dim>
					<dim>384</dim>
				</port>
			</input>
			<output>
				<port id="2" precision="FP32" names="/nncf_module/mobilebert/encoder/layer.0/attention/self/Div_output_0">
					<dim>1</dim>
					<dim>4</dim>
					<dim>384</dim>
					<dim>384</dim>
				</port>
			</output>
		</layer>
		<layer id="291" name="Constant_9081050" type="Const" version="opset1">
			<data element_type="f32" shape="1, 1, 1, 1" offset="4627268" size="4" />
			<output>
				<port id="0" precision="FP32">
					<dim>1</dim>
					<dim>1</dim>
					<dim>1</dim>
					<dim>1</dim>
				</port>
			</output>
		</layer>
		<layer id="292" name="/nncf_module/mobilebert/Constant" type="Const" version="opset1">
			<data element_type="i64" shape="1" offset="4627272" size="8" />
			<output>
				<port id="0" precision="I64" names="/nncf_module/mobilebert/Constant_output_0">
					<dim>1</dim>
				</port>
			</output>
		</layer>
		<layer id="293" name="/nncf_module/mobilebert/Unsqueeze" type="Unsqueeze" version="opset1">
			<input>
				<port id="0" precision="I64">
					<dim>1</dim>
					<dim>384</dim>
				</port>
				<port id="1" precision="I64">
					<dim>1</dim>
				</port>
			</input>
			<output>
				<port id="2" precision="I64" names="/nncf_module/mobilebert/Unsqueeze_output_0">
					<dim>1</dim>
					<dim>1</dim>
					<dim>384</dim>
				</port>
			</output>
		</layer>
		<layer id="294" name="/nncf_module/mobilebert/Constant_1" type="Const" version="opset1">
			<data element_type="i64" shape="1" offset="4627280" size="8" />
			<output>
				<port id="0" precision="I64" names="/nncf_module/mobilebert/Constant_1_output_0">
					<dim>1</dim>
				</port>
			</output>
		</layer>
		<layer id="295" name="/nncf_module/mobilebert/Unsqueeze_1" type="Unsqueeze" version="opset1">
			<input>
				<port id="0" precision="I64">
					<dim>1</dim>
					<dim>1</dim>
					<dim>384</dim>
				</port>
				<port id="1" precision="I64">
					<dim>1</dim>
				</port>
			</input>
			<output>
				<port id="2" precision="I64" names="/nncf_module/mobilebert/Unsqueeze_1_output_0">
					<dim>1</dim>
					<dim>1</dim>
					<dim>1</dim>
					<dim>384</dim>
				</port>
			</output>
		</layer>
		<layer id="296" name="/nncf_module/mobilebert/Cast" type="Convert" version="opset1">
			<data destination_type="f32" />
			<input>
				<port id="0" precision="I64">
					<dim>1</dim>
					<dim>1</dim>
					<dim>1</dim>
					<dim>384</dim>
				</port>
			</input>
			<output>
				<port id="1" precision="FP32" names="/nncf_module/mobilebert/Cast_output_0">
					<dim>1</dim>
					<dim>1</dim>
					<dim>1</dim>
					<dim>384</dim>
				</port>
			</output>
		</layer>
		<layer id="297" name="/nncf_module/mobilebert/Sub" type="Subtract" version="opset1">
			<data auto_broadcast="numpy" />
			<input>
				<port id="0" precision="FP32">
					<dim>1</dim>
					<dim>1</dim>
					<dim>1</dim>
					<dim>1</dim>
				</port>
				<port id="1" precision="FP32">
					<dim>1</dim>
					<dim>1</dim>
					<dim>1</dim>
					<dim>384</dim>
				</port>
			</input>
			<output>
				<port id="2" precision="FP32" names="/nncf_module/mobilebert/Sub_output_0">
					<dim>1</dim>
					<dim>1</dim>
					<dim>1</dim>
					<dim>384</dim>
				</port>
			</output>
		</layer>
		<layer id="298" name="Constant_9081051" type="Const" version="opset1">
			<data element_type="f32" shape="1, 1, 1, 1" offset="4627288" size="4" />
			<output>
				<port id="0" precision="FP32">
					<dim>1</dim>
					<dim>1</dim>
					<dim>1</dim>
					<dim>1</dim>
				</port>
			</output>
		</layer>
		<layer id="299" name="/nncf_module/mobilebert/Mul" type="Multiply" version="opset1">
			<data auto_broadcast="numpy" />
			<input>
				<port id="0" precision="FP32">
					<dim>1</dim>
					<dim>1</dim>
					<dim>1</dim>
					<dim>384</dim>
				</port>
				<port id="1" precision="FP32">
					<dim>1</dim>
					<dim>1</dim>
					<dim>1</dim>
					<dim>1</dim>
				</port>
			</input>
			<output>
				<port id="2" precision="FP32" names="/nncf_module/mobilebert/Mul_output_0">
					<dim>1</dim>
					<dim>1</dim>
					<dim>1</dim>
					<dim>384</dim>
				</port>
			</output>
		</layer>
		<layer id="300" name="/nncf_module/mobilebert/encoder/layer.0/attention/self/Add" type="Add" version="opset1">
			<data auto_broadcast="numpy" />
			<input>
				<port id="0" precision="FP32">
					<dim>1</dim>
					<dim>4</dim>
					<dim>384</dim>
					<dim>384</dim>
				</port>
				<port id="1" precision="FP32">
					<dim>1</dim>
					<dim>1</dim>
					<dim>1</dim>
					<dim>384</dim>
				</port>
			</input>
			<output>
				<port id="2" precision="FP32" names="/nncf_module/mobilebert/encoder/layer.0/attention/self/Add_output_0">
					<dim>1</dim>
					<dim>4</dim>
					<dim>384</dim>
					<dim>384</dim>
				</port>
			</output>
		</layer>
		<layer id="301" name="/nncf_module/mobilebert/encoder/layer.0/attention/self/Softmax" type="SoftMax" version="opset8">
			<data axis="-1" />
			<input>
				<port id="0" precision="FP32">
					<dim>1</dim>
					<dim>4</dim>
					<dim>384</dim>
					<dim>384</dim>
				</port>
			</input>
			<output>
				<port id="1" precision="FP32" names="/nncf_module/mobilebert/encoder/layer.0/attention/self/Softmax_output_0">
					<dim>1</dim>
					<dim>4</dim>
					<dim>384</dim>
					<dim>384</dim>
				</port>
			</output>
		</layer>
		<layer id="302" name="Constant_9081052" type="Const" version="opset1">
			<data element_type="f32" shape="1, 1, 1, 1" offset="4627292" size="4" />
			<output>
				<port id="0" precision="FP32">
					<dim>1</dim>
					<dim>1</dim>
					<dim>1</dim>
					<dim>1</dim>
				</port>
			</output>
		</layer>
		<layer id="303" name="Constant_9081053" type="Const" version="opset1">
			<data element_type="f32" shape="1, 1, 1, 1" offset="4627296" size="4" />
			<output>
				<port id="0" precision="FP32">
					<dim>1</dim>
					<dim>1</dim>
					<dim>1</dim>
					<dim>1</dim>
				</port>
			</output>
		</layer>
		<layer id="304" name="Constant_9081054" type="Const" version="opset1">
			<data element_type="f32" shape="1, 1, 1, 1" offset="4627292" size="4" />
			<output>
				<port id="0" precision="FP32">
					<dim>1</dim>
					<dim>1</dim>
					<dim>1</dim>
					<dim>1</dim>
				</port>
			</output>
		</layer>
		<layer id="305" name="Constant_9081055" type="Const" version="opset1">
			<data element_type="f32" shape="1, 1, 1, 1" offset="4627296" size="4" />
			<output>
				<port id="0" precision="FP32">
					<dim>1</dim>
					<dim>1</dim>
					<dim>1</dim>
					<dim>1</dim>
				</port>
			</output>
		</layer>
		<layer id="306" name="/nncf_module/mobilebert/encoder/layer.0/attention/self/MobileBertForQuestionAnswering/MobileBertModel[mobilebert]/MobileBertEncoder[encoder]/ModuleList[layer]/MobileBertLayer[0]/MobileBertAttention[attention]/MobileBertSelfAttention[self]/softmax_0|OUTPUT/FakeQuantize" type="FakeQuantize" version="opset1">
			<data levels="256" auto_broadcast="numpy" />
			<input>
				<port id="0" precision="FP32">
					<dim>1</dim>
					<dim>4</dim>
					<dim>384</dim>
					<dim>384</dim>
				</port>
				<port id="1" precision="FP32">
					<dim>1</dim>
					<dim>1</dim>
					<dim>1</dim>
					<dim>1</dim>
				</port>
				<port id="2" precision="FP32">
					<dim>1</dim>
					<dim>1</dim>
					<dim>1</dim>
					<dim>1</dim>
				</port>
				<port id="3" precision="FP32">
					<dim>1</dim>
					<dim>1</dim>
					<dim>1</dim>
					<dim>1</dim>
				</port>
				<port id="4" precision="FP32">
					<dim>1</dim>
					<dim>1</dim>
					<dim>1</dim>
					<dim>1</dim>
				</port>
			</input>
			<output>
				<port id="5" precision="FP32" names="/nncf_module/mobilebert/encoder/layer.0/attention/self/MobileBertForQuestionAnswering/MobileBertModel[mobilebert]/MobileBertEncoder[encoder]/ModuleList[layer]/MobileBertLayer[0]/MobileBertAttention[attention]/MobileBertSelfAttention[self]/softmax_0|OUTPUT/FakeQuantize_output_0">
					<dim>1</dim>
					<dim>4</dim>
					<dim>384</dim>
					<dim>384</dim>
				</port>
			</output>
		</layer>
		<layer id="307" name="Constant_9081060" type="Const" version="opset1">
			<data element_type="f32" shape="1, 1, 128" offset="4627300" size="512" />
			<output>
				<port id="0" precision="FP32">
					<dim>1</dim>
					<dim>1</dim>
					<dim>128</dim>
				</port>
			</output>
		</layer>
		<layer id="308" name="Constant_9081056" type="Const" version="opset1">
			<data element_type="f32" shape="1, 1, 1" offset="4627812" size="4" />
			<output>
				<port id="0" precision="FP32">
					<dim>1</dim>
					<dim>1</dim>
					<dim>1</dim>
				</port>
			</output>
		</layer>
		<layer id="309" name="Constant_9081057" type="Const" version="opset1">
			<data element_type="f32" shape="1, 1, 1" offset="4627816" size="4" />
			<output>
				<port id="0" precision="FP32">
					<dim>1</dim>
					<dim>1</dim>
					<dim>1</dim>
				</port>
			</output>
		</layer>
		<layer id="310" name="Constant_9081058" type="Const" version="opset1">
			<data element_type="f32" shape="1, 1, 1" offset="4627812" size="4" />
			<output>
				<port id="0" precision="FP32">
					<dim>1</dim>
					<dim>1</dim>
					<dim>1</dim>
				</port>
			</output>
		</layer>
		<layer id="311" name="Constant_9081059" type="Const" version="opset1">
			<data element_type="f32" shape="1, 1, 1" offset="4627816" size="4" />
			<output>
				<port id="0" precision="FP32">
					<dim>1</dim>
					<dim>1</dim>
					<dim>1</dim>
				</port>
			</output>
		</layer>
		<layer id="312" name="/nncf_module/mobilebert/encoder/layer.0/attention/self/value/MobileBertForQuestionAnswering/MobileBertModel[mobilebert]/MobileBertEncoder[encoder]/ModuleList[layer]/MobileBertLayer[0]/MobileBertAttention[attention]/MobileBertSelfAttention[self]/NNCFLinear[value]/linear_0|INPUT0/FakeQuantize" type="FakeQuantize" version="opset1">
			<data levels="256" auto_broadcast="numpy" />
			<input>
				<port id="0" precision="FP32">
					<dim>1</dim>
					<dim>384</dim>
					<dim>512</dim>
				</port>
				<port id="1" precision="FP32">
					<dim>1</dim>
					<dim>1</dim>
					<dim>1</dim>
				</port>
				<port id="2" precision="FP32">
					<dim>1</dim>
					<dim>1</dim>
					<dim>1</dim>
				</port>
				<port id="3" precision="FP32">
					<dim>1</dim>
					<dim>1</dim>
					<dim>1</dim>
				</port>
				<port id="4" precision="FP32">
					<dim>1</dim>
					<dim>1</dim>
					<dim>1</dim>
				</port>
			</input>
			<output>
				<port id="5" precision="FP32" names="/nncf_module/mobilebert/encoder/layer.0/attention/self/value/MobileBertForQuestionAnswering/MobileBertModel[mobilebert]/MobileBertEncoder[encoder]/ModuleList[layer]/MobileBertLayer[0]/MobileBertAttention[attention]/MobileBertSelfAttention[self]/NNCFLinear[value]/linear_0|INPUT0/FakeQuantize_output_0">
					<dim>1</dim>
					<dim>384</dim>
					<dim>512</dim>
				</port>
			</output>
		</layer>
		<layer id="313" name="/nncf_module/mobilebert/encoder/layer.0/attention/self/value/pre_ops.1/op/Constant" type="Const" version="opset1">
			<data element_type="i8" shape="128, 512" offset="4627820" size="65536" />
			<output>
				<port id="0" precision="I8">
					<dim>128</dim>
					<dim>512</dim>
				</port>
			</output>
		</layer>
		<layer id="314" name="Convert_9085239" type="Convert" version="opset1">
			<data destination_type="f32" />
			<input>
				<port id="0" precision="I8">
					<dim>128</dim>
					<dim>512</dim>
				</port>
			</input>
			<output>
				<port id="1" precision="FP32">
					<dim>128</dim>
					<dim>512</dim>
				</port>
			</output>
		</layer>
		<layer id="315" name="Constant_9085176" type="Const" version="opset1">
			<data element_type="f32" shape="128, 1" offset="4693356" size="512" />
			<output>
				<port id="0" precision="FP32">
					<dim>128</dim>
					<dim>1</dim>
				</port>
			</output>
		</layer>
		<layer id="316" name="/nncf_module/mobilebert/encoder/layer.0/attention/self/value/pre_ops.1/op/FakeQuantize" type="Multiply" version="opset1">
			<data auto_broadcast="numpy" />
			<input>
				<port id="0" precision="FP32">
					<dim>128</dim>
					<dim>512</dim>
				</port>
				<port id="1" precision="FP32">
					<dim>128</dim>
					<dim>1</dim>
				</port>
			</input>
			<output>
				<port id="2" precision="FP32" names="/nncf_module/mobilebert/encoder/layer.0/attention/self/value/pre_ops.1/op/FakeQuantize_output_0">
					<dim>128</dim>
					<dim>512</dim>
				</port>
			</output>
		</layer>
		<layer id="317" name="/nncf_module/mobilebert/encoder/layer.0/attention/self/value/MatMul" type="MatMul" version="opset1">
			<data transpose_a="false" transpose_b="true" />
			<input>
				<port id="0" precision="FP32">
					<dim>1</dim>
					<dim>384</dim>
					<dim>512</dim>
				</port>
				<port id="1" precision="FP32">
					<dim>128</dim>
					<dim>512</dim>
				</port>
			</input>
			<output>
				<port id="2" precision="FP32" names="/nncf_module/mobilebert/encoder/layer.0/attention/self/value/MatMul_output_0">
					<dim>1</dim>
					<dim>384</dim>
					<dim>128</dim>
				</port>
			</output>
		</layer>
		<layer id="318" name="/nncf_module/mobilebert/encoder/layer.0/attention/self/value/Add" type="Add" version="opset1">
			<data auto_broadcast="numpy" />
			<input>
				<port id="0" precision="FP32">
					<dim>1</dim>
					<dim>1</dim>
					<dim>128</dim>
				</port>
				<port id="1" precision="FP32">
					<dim>1</dim>
					<dim>384</dim>
					<dim>128</dim>
				</port>
			</input>
			<output>
				<port id="2" precision="FP32" names="/nncf_module/mobilebert/encoder/layer.0/attention/self/value/Add_output_0">
					<dim>1</dim>
					<dim>384</dim>
					<dim>128</dim>
				</port>
			</output>
		</layer>
		<layer id="319" name="Constant_9081061" type="Const" version="opset1">
			<data element_type="f32" shape="1, 1, 1" offset="4693868" size="4" />
			<output>
				<port id="0" precision="FP32">
					<dim>1</dim>
					<dim>1</dim>
					<dim>1</dim>
				</port>
			</output>
		</layer>
		<layer id="320" name="Constant_9081062" type="Const" version="opset1">
			<data element_type="f32" shape="1, 1, 1" offset="4693872" size="4" />
			<output>
				<port id="0" precision="FP32">
					<dim>1</dim>
					<dim>1</dim>
					<dim>1</dim>
				</port>
			</output>
		</layer>
		<layer id="321" name="Constant_9081063" type="Const" version="opset1">
			<data element_type="f32" shape="1, 1, 1" offset="4693868" size="4" />
			<output>
				<port id="0" precision="FP32">
					<dim>1</dim>
					<dim>1</dim>
					<dim>1</dim>
				</port>
			</output>
		</layer>
		<layer id="322" name="Constant_9081064" type="Const" version="opset1">
			<data element_type="f32" shape="1, 1, 1" offset="4693872" size="4" />
			<output>
				<port id="0" precision="FP32">
					<dim>1</dim>
					<dim>1</dim>
					<dim>1</dim>
				</port>
			</output>
		</layer>
		<layer id="323" name="/nncf_module/mobilebert/encoder/layer.0/attention/self/value/MobileBertForQuestionAnswering/MobileBertModel[mobilebert]/MobileBertEncoder[encoder]/ModuleList[layer]/MobileBertLayer[0]/MobileBertAttention[attention]/MobileBertSelfAttention[self]/NNCFLinear[value]/linear_0|OUTPUT/FakeQuantize" type="FakeQuantize" version="opset1">
			<data levels="256" auto_broadcast="numpy" />
			<input>
				<port id="0" precision="FP32">
					<dim>1</dim>
					<dim>384</dim>
					<dim>128</dim>
				</port>
				<port id="1" precision="FP32">
					<dim>1</dim>
					<dim>1</dim>
					<dim>1</dim>
				</port>
				<port id="2" precision="FP32">
					<dim>1</dim>
					<dim>1</dim>
					<dim>1</dim>
				</port>
				<port id="3" precision="FP32">
					<dim>1</dim>
					<dim>1</dim>
					<dim>1</dim>
				</port>
				<port id="4" precision="FP32">
					<dim>1</dim>
					<dim>1</dim>
					<dim>1</dim>
				</port>
			</input>
			<output>
				<port id="5" precision="FP32" names="/nncf_module/mobilebert/encoder/layer.0/attention/self/value/MobileBertForQuestionAnswering/MobileBertModel[mobilebert]/MobileBertEncoder[encoder]/ModuleList[layer]/MobileBertLayer[0]/MobileBertAttention[attention]/MobileBertSelfAttention[self]/NNCFLinear[value]/linear_0|OUTPUT/FakeQuantize_output_0">
					<dim>1</dim>
					<dim>384</dim>
					<dim>128</dim>
				</port>
			</output>
		</layer>
		<layer id="324" name="/nncf_module/mobilebert/encoder/layer.0/attention/self/Shape_4" type="ShapeOf" version="opset3">
			<data output_type="i64" />
			<input>
				<port id="0" precision="FP32">
					<dim>1</dim>
					<dim>384</dim>
					<dim>128</dim>
				</port>
			</input>
			<output>
				<port id="1" precision="I64" names="/nncf_module/mobilebert/encoder/layer.0/attention/self/Shape_4_output_0,/nncf_module/mobilebert/encoder/layer.0/attention/self/Shape_5_output_0">
					<dim>3</dim>
				</port>
			</output>
		</layer>
		<layer id="325" name="Constant_9067287" type="Const" version="opset1">
			<data element_type="i64" shape="2" offset="4057148" size="16" />
			<output>
				<port id="0" precision="I64">
					<dim>2</dim>
				</port>
			</output>
		</layer>
		<layer id="326" name="Constant_9067288" type="Const" version="opset1">
			<data element_type="i64" shape="" offset="4057132" size="8" />
			<output>
				<port id="0" precision="I64" />
			</output>
		</layer>
		<layer id="327" name="Gather_9067289" type="Gather" version="opset8">
			<data batch_dims="0" />
			<input>
				<port id="0" precision="I64">
					<dim>3</dim>
				</port>
				<port id="1" precision="I64">
					<dim>2</dim>
				</port>
				<port id="2" precision="I64" />
			</input>
			<output>
				<port id="3" precision="I64">
					<dim>2</dim>
				</port>
			</output>
		</layer>
		<layer id="328" name="/nncf_module/mobilebert/encoder/layer.0/attention/self/Constant_10" type="Const" version="opset1">
			<data element_type="i64" shape="1" offset="4609768" size="8" />
			<output>
				<port id="0" precision="I64" names="/nncf_module/mobilebert/encoder/layer.0/attention/self/Constant_10_output_0">
					<dim>1</dim>
				</port>
			</output>
		</layer>
		<layer id="329" name="/nncf_module/mobilebert/encoder/layer.0/attention/self/Constant_11" type="Const" version="opset1">
			<data element_type="i64" shape="1" offset="4609776" size="8" />
			<output>
				<port id="0" precision="I64" names="/nncf_module/mobilebert/encoder/layer.0/attention/self/Constant_11_output_0">
					<dim>1</dim>
				</port>
			</output>
		</layer>
		<layer id="330" name="/nncf_module/mobilebert/encoder/layer.0/attention/self/Concat_2" type="Concat" version="opset1">
			<data axis="0" />
			<input>
				<port id="0" precision="I64">
					<dim>2</dim>
				</port>
				<port id="1" precision="I64">
					<dim>1</dim>
				</port>
				<port id="2" precision="I64">
					<dim>1</dim>
				</port>
			</input>
			<output>
				<port id="3" precision="I64" names="/nncf_module/mobilebert/encoder/layer.0/attention/self/Concat_2_output_0">
					<dim>4</dim>
				</port>
			</output>
		</layer>
		<layer id="331" name="/nncf_module/mobilebert/encoder/layer.0/attention/self/Reshape_2" type="Reshape" version="opset1">
			<data special_zero="true" />
			<input>
				<port id="0" precision="FP32">
					<dim>1</dim>
					<dim>384</dim>
					<dim>128</dim>
				</port>
				<port id="1" precision="I64">
					<dim>4</dim>
				</port>
			</input>
			<output>
				<port id="2" precision="FP32" names="/nncf_module/mobilebert/encoder/layer.0/attention/self/Reshape_2_output_0">
					<dim>1</dim>
					<dim>384</dim>
					<dim>4</dim>
					<dim>32</dim>
				</port>
			</output>
		</layer>
		<layer id="332" name="Constant_9024962" type="Const" version="opset1">
			<data element_type="i64" shape="4" offset="4609784" size="32" />
			<output>
				<port id="0" precision="I64">
					<dim>4</dim>
				</port>
			</output>
		</layer>
		<layer id="333" name="/nncf_module/mobilebert/encoder/layer.0/attention/self/Transpose_1" type="Transpose" version="opset1">
			<input>
				<port id="0" precision="FP32">
					<dim>1</dim>
					<dim>384</dim>
					<dim>4</dim>
					<dim>32</dim>
				</port>
				<port id="1" precision="I64">
					<dim>4</dim>
				</port>
			</input>
			<output>
				<port id="2" precision="FP32" names="/nncf_module/mobilebert/encoder/layer.0/attention/self/Transpose_1_output_0">
					<dim>1</dim>
					<dim>4</dim>
					<dim>384</dim>
					<dim>32</dim>
				</port>
			</output>
		</layer>
		<layer id="334" name="/nncf_module/mobilebert/encoder/layer.0/attention/self/MatMul_1" type="MatMul" version="opset1">
			<data transpose_a="false" transpose_b="false" />
			<input>
				<port id="0" precision="FP32">
					<dim>1</dim>
					<dim>4</dim>
					<dim>384</dim>
					<dim>384</dim>
				</port>
				<port id="1" precision="FP32">
					<dim>1</dim>
					<dim>4</dim>
					<dim>384</dim>
					<dim>32</dim>
				</port>
			</input>
			<output>
				<port id="2" precision="FP32" names="/nncf_module/mobilebert/encoder/layer.0/attention/self/MatMul_1_output_0">
					<dim>1</dim>
					<dim>4</dim>
					<dim>384</dim>
					<dim>32</dim>
				</port>
			</output>
		</layer>
		<layer id="335" name="Constant_9081065" type="Const" version="opset1">
			<data element_type="f32" shape="1, 1, 1, 1" offset="4693876" size="4" />
			<output>
				<port id="0" precision="FP32">
					<dim>1</dim>
					<dim>1</dim>
					<dim>1</dim>
					<dim>1</dim>
				</port>
			</output>
		</layer>
		<layer id="336" name="Constant_9081066" type="Const" version="opset1">
			<data element_type="f32" shape="1, 1, 1, 1" offset="4693880" size="4" />
			<output>
				<port id="0" precision="FP32">
					<dim>1</dim>
					<dim>1</dim>
					<dim>1</dim>
					<dim>1</dim>
				</port>
			</output>
		</layer>
		<layer id="337" name="Constant_9081067" type="Const" version="opset1">
			<data element_type="f32" shape="1, 1, 1, 1" offset="4693876" size="4" />
			<output>
				<port id="0" precision="FP32">
					<dim>1</dim>
					<dim>1</dim>
					<dim>1</dim>
					<dim>1</dim>
				</port>
			</output>
		</layer>
		<layer id="338" name="Constant_9081068" type="Const" version="opset1">
			<data element_type="f32" shape="1, 1, 1, 1" offset="4693880" size="4" />
			<output>
				<port id="0" precision="FP32">
					<dim>1</dim>
					<dim>1</dim>
					<dim>1</dim>
					<dim>1</dim>
				</port>
			</output>
		</layer>
		<layer id="339" name="/nncf_module/mobilebert/encoder/layer.0/attention/self/MobileBertForQuestionAnswering/MobileBertModel[mobilebert]/MobileBertEncoder[encoder]/ModuleList[layer]/MobileBertLayer[0]/MobileBertAttention[attention]/MobileBertSelfAttention[self]/matmul_1|OUTPUT/FakeQuantize" type="FakeQuantize" version="opset1">
			<data levels="256" auto_broadcast="numpy" />
			<input>
				<port id="0" precision="FP32">
					<dim>1</dim>
					<dim>4</dim>
					<dim>384</dim>
					<dim>32</dim>
				</port>
				<port id="1" precision="FP32">
					<dim>1</dim>
					<dim>1</dim>
					<dim>1</dim>
					<dim>1</dim>
				</port>
				<port id="2" precision="FP32">
					<dim>1</dim>
					<dim>1</dim>
					<dim>1</dim>
					<dim>1</dim>
				</port>
				<port id="3" precision="FP32">
					<dim>1</dim>
					<dim>1</dim>
					<dim>1</dim>
					<dim>1</dim>
				</port>
				<port id="4" precision="FP32">
					<dim>1</dim>
					<dim>1</dim>
					<dim>1</dim>
					<dim>1</dim>
				</port>
			</input>
			<output>
				<port id="5" precision="FP32" names="/nncf_module/mobilebert/encoder/layer.0/attention/self/MobileBertForQuestionAnswering/MobileBertModel[mobilebert]/MobileBertEncoder[encoder]/ModuleList[layer]/MobileBertLayer[0]/MobileBertAttention[attention]/MobileBertSelfAttention[self]/matmul_1|OUTPUT/FakeQuantize_output_0">
					<dim>1</dim>
					<dim>4</dim>
					<dim>384</dim>
					<dim>32</dim>
				</port>
			</output>
		</layer>
		<layer id="340" name="Constant_9024978" type="Const" version="opset1">
			<data element_type="i64" shape="4" offset="4609784" size="32" />
			<output>
				<port id="0" precision="I64">
					<dim>4</dim>
				</port>
			</output>
		</layer>
		<layer id="341" name="/nncf_module/mobilebert/encoder/layer.0/attention/self/Transpose_3" type="Transpose" version="opset1">
			<input>
				<port id="0" precision="FP32">
					<dim>1</dim>
					<dim>4</dim>
					<dim>384</dim>
					<dim>32</dim>
				</port>
				<port id="1" precision="I64">
					<dim>4</dim>
				</port>
			</input>
			<output>
				<port id="2" precision="FP32" names="/nncf_module/mobilebert/encoder/layer.0/attention/self/Transpose_3_output_0">
					<dim>1</dim>
					<dim>384</dim>
					<dim>4</dim>
					<dim>32</dim>
				</port>
			</output>
		</layer>
		<layer id="342" name="/nncf_module/mobilebert/encoder/layer.0/attention/self/Concat_3" type="Const" version="opset1">
			<data element_type="i64" shape="3" offset="4693884" size="24" />
			<output>
				<port id="0" precision="I64">
					<dim>3</dim>
				</port>
			</output>
		</layer>
		<layer id="343" name="/nncf_module/mobilebert/encoder/layer.0/attention/self/Reshape_3" type="Reshape" version="opset1">
			<data special_zero="true" />
			<input>
				<port id="0" precision="FP32">
					<dim>1</dim>
					<dim>384</dim>
					<dim>4</dim>
					<dim>32</dim>
				</port>
				<port id="1" precision="I64">
					<dim>3</dim>
				</port>
			</input>
			<output>
				<port id="2" precision="FP32" names="/nncf_module/mobilebert/encoder/layer.0/attention/self/Reshape_3_output_0">
					<dim>1</dim>
					<dim>384</dim>
					<dim>128</dim>
				</port>
			</output>
		</layer>
		<layer id="344" name="/nncf_module/mobilebert/encoder/layer.0/attention/output/dense/pre_ops.1/op/Constant" type="Const" version="opset1">
			<data element_type="i8" shape="128, 128" offset="4693908" size="16384" />
			<output>
				<port id="0" precision="I8">
					<dim>128</dim>
					<dim>128</dim>
				</port>
			</output>
		</layer>
		<layer id="345" name="Convert_9085360" type="Convert" version="opset1">
			<data destination_type="f32" />
			<input>
				<port id="0" precision="I8">
					<dim>128</dim>
					<dim>128</dim>
				</port>
			</input>
			<output>
				<port id="1" precision="FP32">
					<dim>128</dim>
					<dim>128</dim>
				</port>
			</output>
		</layer>
		<layer id="346" name="Constant_9085297" type="Const" version="opset1">
			<data element_type="f32" shape="128, 1" offset="4710292" size="512" />
			<output>
				<port id="0" precision="FP32">
					<dim>128</dim>
					<dim>1</dim>
				</port>
			</output>
		</layer>
		<layer id="347" name="/nncf_module/mobilebert/encoder/layer.0/attention/output/dense/pre_ops.1/op/FakeQuantize" type="Multiply" version="opset1">
			<data auto_broadcast="numpy" />
			<input>
				<port id="0" precision="FP32">
					<dim>128</dim>
					<dim>128</dim>
				</port>
				<port id="1" precision="FP32">
					<dim>128</dim>
					<dim>1</dim>
				</port>
			</input>
			<output>
				<port id="2" precision="FP32" names="/nncf_module/mobilebert/encoder/layer.0/attention/output/dense/pre_ops.1/op/FakeQuantize_output_0">
					<dim>128</dim>
					<dim>128</dim>
				</port>
			</output>
		</layer>
		<layer id="348" name="/nncf_module/mobilebert/encoder/layer.0/attention/output/dense/MatMul" type="MatMul" version="opset1">
			<data transpose_a="false" transpose_b="true" />
			<input>
				<port id="0" precision="FP32">
					<dim>1</dim>
					<dim>384</dim>
					<dim>128</dim>
				</port>
				<port id="1" precision="FP32">
					<dim>128</dim>
					<dim>128</dim>
				</port>
			</input>
			<output>
				<port id="2" precision="FP32" names="/nncf_module/mobilebert/encoder/layer.0/attention/output/dense/MatMul_output_0">
					<dim>1</dim>
					<dim>384</dim>
					<dim>128</dim>
				</port>
			</output>
		</layer>
		<layer id="349" name="/nncf_module/mobilebert/encoder/layer.0/attention/output/dense/Add" type="Add" version="opset1">
			<data auto_broadcast="numpy" />
			<input>
				<port id="0" precision="FP32">
					<dim>1</dim>
					<dim>1</dim>
					<dim>128</dim>
				</port>
				<port id="1" precision="FP32">
					<dim>1</dim>
					<dim>384</dim>
					<dim>128</dim>
				</port>
			</input>
			<output>
				<port id="2" precision="FP32" names="/nncf_module/mobilebert/encoder/layer.0/attention/output/dense/Add_output_0">
					<dim>1</dim>
					<dim>384</dim>
					<dim>128</dim>
				</port>
			</output>
		</layer>
		<layer id="350" name="Constant_9081070" type="Const" version="opset1">
			<data element_type="f32" shape="1, 1, 1" offset="4710804" size="4" />
			<output>
				<port id="0" precision="FP32">
					<dim>1</dim>
					<dim>1</dim>
					<dim>1</dim>
				</port>
			</output>
		</layer>
		<layer id="351" name="Constant_9081071" type="Const" version="opset1">
			<data element_type="f32" shape="1, 1, 1" offset="4710808" size="4" />
			<output>
				<port id="0" precision="FP32">
					<dim>1</dim>
					<dim>1</dim>
					<dim>1</dim>
				</port>
			</output>
		</layer>
		<layer id="352" name="Constant_9081072" type="Const" version="opset1">
			<data element_type="f32" shape="1, 1, 1" offset="4710804" size="4" />
			<output>
				<port id="0" precision="FP32">
					<dim>1</dim>
					<dim>1</dim>
					<dim>1</dim>
				</port>
			</output>
		</layer>
		<layer id="353" name="Constant_9081073" type="Const" version="opset1">
			<data element_type="f32" shape="1, 1, 1" offset="4710808" size="4" />
			<output>
				<port id="0" precision="FP32">
					<dim>1</dim>
					<dim>1</dim>
					<dim>1</dim>
				</port>
			</output>
		</layer>
		<layer id="354" name="/nncf_module/mobilebert/encoder/layer.0/bottleneck/input/dense/MobileBertForQuestionAnswering/MobileBertModel[mobilebert]/MobileBertEncoder[encoder]/ModuleList[layer]/MobileBertLayer[0]/Bottleneck[bottleneck]/BottleneckLayer[input]/NNCFLinear[dense]/linear_0|INPUT0/FakeQuantize" type="FakeQuantize" version="opset1">
			<data levels="256" auto_broadcast="numpy" />
			<input>
				<port id="0" precision="FP32">
					<dim>1</dim>
					<dim>384</dim>
					<dim>512</dim>
				</port>
				<port id="1" precision="FP32">
					<dim>1</dim>
					<dim>1</dim>
					<dim>1</dim>
				</port>
				<port id="2" precision="FP32">
					<dim>1</dim>
					<dim>1</dim>
					<dim>1</dim>
				</port>
				<port id="3" precision="FP32">
					<dim>1</dim>
					<dim>1</dim>
					<dim>1</dim>
				</port>
				<port id="4" precision="FP32">
					<dim>1</dim>
					<dim>1</dim>
					<dim>1</dim>
				</port>
			</input>
			<output>
				<port id="5" precision="FP32" names="/nncf_module/mobilebert/encoder/layer.0/bottleneck/input/dense/MobileBertForQuestionAnswering/MobileBertModel[mobilebert]/MobileBertEncoder[encoder]/ModuleList[layer]/MobileBertLayer[0]/Bottleneck[bottleneck]/BottleneckLayer[input]/NNCFLinear[dense]/linear_0|INPUT0/FakeQuantize_output_0">
					<dim>1</dim>
					<dim>384</dim>
					<dim>512</dim>
				</port>
			</output>
		</layer>
		<layer id="355" name="/nncf_module/mobilebert/encoder/layer.0/bottleneck/input/dense/pre_ops.0/op/Constant" type="Const" version="opset1">
			<data element_type="i8" shape="128, 512" offset="4710812" size="65536" />
			<output>
				<port id="0" precision="I8">
					<dim>128</dim>
					<dim>512</dim>
				</port>
			</output>
		</layer>
		<layer id="356" name="Convert_9085481" type="Convert" version="opset1">
			<data destination_type="f32" />
			<input>
				<port id="0" precision="I8">
					<dim>128</dim>
					<dim>512</dim>
				</port>
			</input>
			<output>
				<port id="1" precision="FP32">
					<dim>128</dim>
					<dim>512</dim>
				</port>
			</output>
		</layer>
		<layer id="357" name="Constant_9085418" type="Const" version="opset1">
			<data element_type="f32" shape="128, 1" offset="4776348" size="512" />
			<output>
				<port id="0" precision="FP32">
					<dim>128</dim>
					<dim>1</dim>
				</port>
			</output>
		</layer>
		<layer id="358" name="Multiply_9077084" type="Multiply" version="opset1">
			<data auto_broadcast="numpy" />
			<input>
				<port id="0" precision="FP32">
					<dim>128</dim>
					<dim>512</dim>
				</port>
				<port id="1" precision="FP32">
					<dim>128</dim>
					<dim>1</dim>
				</port>
			</input>
			<output>
				<port id="2" precision="FP32">
					<dim>128</dim>
					<dim>512</dim>
				</port>
			</output>
		</layer>
		<layer id="359" name="Multiply_9076845" type="MatMul" version="opset1">
			<data transpose_a="false" transpose_b="true" />
			<input>
				<port id="0" precision="FP32">
					<dim>1</dim>
					<dim>384</dim>
					<dim>512</dim>
				</port>
				<port id="1" precision="FP32">
					<dim>128</dim>
					<dim>512</dim>
				</port>
			</input>
			<output>
				<port id="2" precision="FP32">
					<dim>1</dim>
					<dim>384</dim>
					<dim>128</dim>
				</port>
			</output>
		</layer>
		<layer id="360" name="Constant_9081074" type="Const" version="opset1">
			<data element_type="f32" shape="1, 1, 128" offset="4776860" size="512" />
			<output>
				<port id="0" precision="FP32">
					<dim>1</dim>
					<dim>1</dim>
					<dim>128</dim>
				</port>
			</output>
		</layer>
		<layer id="361" name="/nncf_module/mobilebert/encoder/layer.0/bottleneck/input/LayerNorm/Add" type="Add" version="opset1">
			<data auto_broadcast="numpy" />
			<input>
				<port id="0" precision="FP32">
					<dim>1</dim>
					<dim>384</dim>
					<dim>128</dim>
				</port>
				<port id="1" precision="FP32">
					<dim>1</dim>
					<dim>1</dim>
					<dim>128</dim>
				</port>
			</input>
			<output>
				<port id="2" precision="FP32" names="/nncf_module/mobilebert/encoder/layer.0/bottleneck/input/LayerNorm/Add_output_0">
					<dim>1</dim>
					<dim>384</dim>
					<dim>128</dim>
				</port>
			</output>
		</layer>
		<layer id="362" name="/nncf_module/mobilebert/encoder/layer.0/attention/output/Add" type="Add" version="opset1">
			<data auto_broadcast="numpy" />
			<input>
				<port id="0" precision="FP32">
					<dim>1</dim>
					<dim>384</dim>
					<dim>128</dim>
				</port>
				<port id="1" precision="FP32">
					<dim>1</dim>
					<dim>384</dim>
					<dim>128</dim>
				</port>
			</input>
			<output>
				<port id="2" precision="FP32" names="/nncf_module/mobilebert/encoder/layer.0/attention/output/Add_output_0">
					<dim>1</dim>
					<dim>384</dim>
					<dim>128</dim>
				</port>
			</output>
		</layer>
		<layer id="363" name="Constant_9081075" type="Const" version="opset1">
			<data element_type="f32" shape="1, 1, 1" offset="4777372" size="4" />
			<output>
				<port id="0" precision="FP32">
					<dim>1</dim>
					<dim>1</dim>
					<dim>1</dim>
				</port>
			</output>
		</layer>
		<layer id="364" name="Constant_9081076" type="Const" version="opset1">
			<data element_type="f32" shape="1, 1, 1" offset="4777376" size="4" />
			<output>
				<port id="0" precision="FP32">
					<dim>1</dim>
					<dim>1</dim>
					<dim>1</dim>
				</port>
			</output>
		</layer>
		<layer id="365" name="Constant_9081077" type="Const" version="opset1">
			<data element_type="f32" shape="1, 1, 1" offset="4777372" size="4" />
			<output>
				<port id="0" precision="FP32">
					<dim>1</dim>
					<dim>1</dim>
					<dim>1</dim>
				</port>
			</output>
		</layer>
		<layer id="366" name="Constant_9081078" type="Const" version="opset1">
			<data element_type="f32" shape="1, 1, 1" offset="4777376" size="4" />
			<output>
				<port id="0" precision="FP32">
					<dim>1</dim>
					<dim>1</dim>
					<dim>1</dim>
				</port>
			</output>
		</layer>
		<layer id="367" name="/nncf_module/mobilebert/encoder/layer.0/attention/output/MobileBertForQuestionAnswering/MobileBertModel[mobilebert]/MobileBertEncoder[encoder]/ModuleList[layer]/MobileBertLayer[0]/MobileBertAttention[attention]/MobileBertSelfOutput[output]/__add___0|OUTPUT/FakeQuantize" type="FakeQuantize" version="opset1">
			<data levels="256" auto_broadcast="numpy" />
			<input>
				<port id="0" precision="FP32">
					<dim>1</dim>
					<dim>384</dim>
					<dim>128</dim>
				</port>
				<port id="1" precision="FP32">
					<dim>1</dim>
					<dim>1</dim>
					<dim>1</dim>
				</port>
				<port id="2" precision="FP32">
					<dim>1</dim>
					<dim>1</dim>
					<dim>1</dim>
				</port>
				<port id="3" precision="FP32">
					<dim>1</dim>
					<dim>1</dim>
					<dim>1</dim>
				</port>
				<port id="4" precision="FP32">
					<dim>1</dim>
					<dim>1</dim>
					<dim>1</dim>
				</port>
			</input>
			<output>
				<port id="5" precision="FP32" names="/nncf_module/mobilebert/encoder/layer.0/attention/output/MobileBertForQuestionAnswering/MobileBertModel[mobilebert]/MobileBertEncoder[encoder]/ModuleList[layer]/MobileBertLayer[0]/MobileBertAttention[attention]/MobileBertSelfOutput[output]/__add___0|OUTPUT/FakeQuantize_output_0">
					<dim>1</dim>
					<dim>384</dim>
					<dim>128</dim>
				</port>
			</output>
		</layer>
		<layer id="368" name="Constant_9081079" type="Const" version="opset1">
			<data element_type="f32" shape="1, 1, 128" offset="4777380" size="512" />
			<output>
				<port id="0" precision="FP32">
					<dim>1</dim>
					<dim>1</dim>
					<dim>128</dim>
				</port>
			</output>
		</layer>
		<layer id="369" name="/nncf_module/mobilebert/encoder/layer.0/attention/output/LayerNorm/Mul" type="Multiply" version="opset1">
			<data auto_broadcast="numpy" />
			<input>
				<port id="0" precision="FP32">
					<dim>1</dim>
					<dim>384</dim>
					<dim>128</dim>
				</port>
				<port id="1" precision="FP32">
					<dim>1</dim>
					<dim>1</dim>
					<dim>128</dim>
				</port>
			</input>
			<output>
				<port id="2" precision="FP32" names="/nncf_module/mobilebert/encoder/layer.0/attention/output/LayerNorm/Mul_output_0">
					<dim>1</dim>
					<dim>384</dim>
					<dim>128</dim>
				</port>
			</output>
		</layer>
		<layer id="370" name="Constant_9081080" type="Const" version="opset1">
			<data element_type="f32" shape="1, 1, 128" offset="4777892" size="512" />
			<output>
				<port id="0" precision="FP32">
					<dim>1</dim>
					<dim>1</dim>
					<dim>128</dim>
				</port>
			</output>
		</layer>
		<layer id="371" name="/nncf_module/mobilebert/encoder/layer.0/attention/output/LayerNorm/Add" type="Add" version="opset1">
			<data auto_broadcast="numpy" />
			<input>
				<port id="0" precision="FP32">
					<dim>1</dim>
					<dim>384</dim>
					<dim>128</dim>
				</port>
				<port id="1" precision="FP32">
					<dim>1</dim>
					<dim>1</dim>
					<dim>128</dim>
				</port>
			</input>
			<output>
				<port id="2" precision="FP32" names="/nncf_module/mobilebert/encoder/layer.0/attention/output/LayerNorm/Add_output_0">
					<dim>1</dim>
					<dim>384</dim>
					<dim>128</dim>
				</port>
			</output>
		</layer>
		<layer id="372" name="Constant_9081081" type="Const" version="opset1">
			<data element_type="f32" shape="1, 1, 1" offset="4778404" size="4" />
			<output>
				<port id="0" precision="FP32">
					<dim>1</dim>
					<dim>1</dim>
					<dim>1</dim>
				</port>
			</output>
		</layer>
		<layer id="373" name="Constant_9081082" type="Const" version="opset1">
			<data element_type="f32" shape="1, 1, 1" offset="4778408" size="4" />
			<output>
				<port id="0" precision="FP32">
					<dim>1</dim>
					<dim>1</dim>
					<dim>1</dim>
				</port>
			</output>
		</layer>
		<layer id="374" name="Constant_9081083" type="Const" version="opset1">
			<data element_type="f32" shape="1, 1, 1" offset="4778404" size="4" />
			<output>
				<port id="0" precision="FP32">
					<dim>1</dim>
					<dim>1</dim>
					<dim>1</dim>
				</port>
			</output>
		</layer>
		<layer id="375" name="Constant_9081084" type="Const" version="opset1">
			<data element_type="f32" shape="1, 1, 1" offset="4778408" size="4" />
			<output>
				<port id="0" precision="FP32">
					<dim>1</dim>
					<dim>1</dim>
					<dim>1</dim>
				</port>
			</output>
		</layer>
		<layer id="376" name="/nncf_module/mobilebert/encoder/layer.0/ffn.0/intermediate/dense/MobileBertForQuestionAnswering/MobileBertModel[mobilebert]/MobileBertEncoder[encoder]/ModuleList[layer]/MobileBertLayer[0]/ModuleList[ffn]/FFNLayer[0]/MobileBertIntermediate[intermediate]/NNCFLinear[dense]/linear_0|INPUT0/FakeQuantize" type="FakeQuantize" version="opset1">
			<data levels="256" auto_broadcast="numpy" />
			<input>
				<port id="0" precision="FP32">
					<dim>1</dim>
					<dim>384</dim>
					<dim>128</dim>
				</port>
				<port id="1" precision="FP32">
					<dim>1</dim>
					<dim>1</dim>
					<dim>1</dim>
				</port>
				<port id="2" precision="FP32">
					<dim>1</dim>
					<dim>1</dim>
					<dim>1</dim>
				</port>
				<port id="3" precision="FP32">
					<dim>1</dim>
					<dim>1</dim>
					<dim>1</dim>
				</port>
				<port id="4" precision="FP32">
					<dim>1</dim>
					<dim>1</dim>
					<dim>1</dim>
				</port>
			</input>
			<output>
				<port id="5" precision="FP32" names="/nncf_module/mobilebert/encoder/layer.0/ffn.0/intermediate/dense/MobileBertForQuestionAnswering/MobileBertModel[mobilebert]/MobileBertEncoder[encoder]/ModuleList[layer]/MobileBertLayer[0]/ModuleList[ffn]/FFNLayer[0]/MobileBertIntermediate[intermediate]/NNCFLinear[dense]/linear_0|INPUT0/FakeQuantize_output_0">
					<dim>1</dim>
					<dim>384</dim>
					<dim>128</dim>
				</port>
			</output>
		</layer>
		<layer id="377" name="Constant_9123258" type="Const" version="opset1">
			<data element_type="i8" shape="365, 128" offset="4778412" size="46720" />
			<output>
				<port id="0" precision="I8">
					<dim>365</dim>
					<dim>128</dim>
				</port>
			</output>
		</layer>
		<layer id="378" name="Convert_9085602" type="Convert" version="opset1">
			<data destination_type="f32" />
			<input>
				<port id="0" precision="I8">
					<dim>365</dim>
					<dim>128</dim>
				</port>
			</input>
			<output>
				<port id="1" precision="FP32">
					<dim>365</dim>
					<dim>128</dim>
				</port>
			</output>
		</layer>
		<layer id="379" name="Constant_9123265" type="Const" version="opset1">
			<data element_type="f32" shape="365, 1" offset="4825132" size="1460" />
			<output>
				<port id="0" precision="FP32">
					<dim>365</dim>
					<dim>1</dim>
				</port>
			</output>
		</layer>
		<layer id="380" name="/nncf_module/mobilebert/encoder/layer.0/ffn.0/intermediate/dense/pre_ops.1/op/FakeQuantize" type="Multiply" version="opset1">
			<data auto_broadcast="numpy" />
			<input>
				<port id="0" precision="FP32">
					<dim>365</dim>
					<dim>128</dim>
				</port>
				<port id="1" precision="FP32">
					<dim>365</dim>
					<dim>1</dim>
				</port>
			</input>
			<output>
				<port id="2" precision="FP32" names="/nncf_module/mobilebert/encoder/layer.0/ffn.0/intermediate/dense/pre_ops.1/op/FakeQuantize_output_0">
					<dim>365</dim>
					<dim>128</dim>
				</port>
			</output>
		</layer>
		<layer id="381" name="/nncf_module/mobilebert/encoder/layer.0/ffn.0/intermediate/dense/MatMul" type="MatMul" version="opset1">
			<data transpose_a="false" transpose_b="true" />
			<input>
				<port id="0" precision="FP32">
					<dim>1</dim>
					<dim>384</dim>
					<dim>128</dim>
				</port>
				<port id="1" precision="FP32">
					<dim>365</dim>
					<dim>128</dim>
				</port>
			</input>
			<output>
				<port id="2" precision="FP32" names="/nncf_module/mobilebert/encoder/layer.0/ffn.0/intermediate/dense/MatMul_output_0">
					<dim>1</dim>
					<dim>384</dim>
					<dim>365</dim>
				</port>
			</output>
		</layer>
		<layer id="382" name="/nncf_module/mobilebert/encoder/layer.0/ffn.0/intermediate/dense/Add" type="Add" version="opset1">
			<data auto_broadcast="numpy" />
			<input>
				<port id="0" precision="FP32">
					<dim>1</dim>
					<dim>1</dim>
					<dim>365</dim>
				</port>
				<port id="1" precision="FP32">
					<dim>1</dim>
					<dim>384</dim>
					<dim>365</dim>
				</port>
			</input>
			<output>
				<port id="2" precision="FP32" names="/nncf_module/mobilebert/encoder/layer.0/ffn.0/intermediate/dense/Add_output_0">
					<dim>1</dim>
					<dim>384</dim>
					<dim>365</dim>
				</port>
			</output>
		</layer>
		<layer id="383" name="Constant_9081086" type="Const" version="opset1">
			<data element_type="f32" shape="1, 1, 1" offset="4057244" size="4" />
			<output>
				<port id="0" precision="FP32">
					<dim>1</dim>
					<dim>1</dim>
					<dim>1</dim>
				</port>
			</output>
		</layer>
		<layer id="384" name="Constant_9081087" type="Const" version="opset1">
			<data element_type="f32" shape="1, 1, 1" offset="4826592" size="4" />
			<output>
				<port id="0" precision="FP32">
					<dim>1</dim>
					<dim>1</dim>
					<dim>1</dim>
				</port>
			</output>
		</layer>
		<layer id="385" name="Constant_9081088" type="Const" version="opset1">
			<data element_type="f32" shape="1, 1, 1" offset="4057244" size="4" />
			<output>
				<port id="0" precision="FP32">
					<dim>1</dim>
					<dim>1</dim>
					<dim>1</dim>
				</port>
			</output>
		</layer>
		<layer id="386" name="Constant_9081089" type="Const" version="opset1">
			<data element_type="f32" shape="1, 1, 1" offset="4826592" size="4" />
			<output>
				<port id="0" precision="FP32">
					<dim>1</dim>
					<dim>1</dim>
					<dim>1</dim>
				</port>
			</output>
		</layer>
		<layer id="387" name="/nncf_module/mobilebert/encoder/layer.0/ffn.0/intermediate/intermediate_act_fn/MobileBertForQuestionAnswering/MobileBertModel[mobilebert]/MobileBertEncoder[encoder]/ModuleList[layer]/MobileBertLayer[0]/ModuleList[ffn]/FFNLayer[0]/MobileBertIntermediate[intermediate]/ReLU[intermediate_act_fn]/relu_0|OUTPUT/FakeQuantize" type="FakeQuantize" version="opset1">
			<data levels="256" auto_broadcast="numpy" />
			<input>
				<port id="0" precision="FP32">
					<dim>1</dim>
					<dim>384</dim>
					<dim>365</dim>
				</port>
				<port id="1" precision="FP32">
					<dim>1</dim>
					<dim>1</dim>
					<dim>1</dim>
				</port>
				<port id="2" precision="FP32">
					<dim>1</dim>
					<dim>1</dim>
					<dim>1</dim>
				</port>
				<port id="3" precision="FP32">
					<dim>1</dim>
					<dim>1</dim>
					<dim>1</dim>
				</port>
				<port id="4" precision="FP32">
					<dim>1</dim>
					<dim>1</dim>
					<dim>1</dim>
				</port>
			</input>
			<output>
				<port id="5" precision="FP32" names="/nncf_module/mobilebert/encoder/layer.0/ffn.0/intermediate/intermediate_act_fn/MobileBertForQuestionAnswering/MobileBertModel[mobilebert]/MobileBertEncoder[encoder]/ModuleList[layer]/MobileBertLayer[0]/ModuleList[ffn]/FFNLayer[0]/MobileBertIntermediate[intermediate]/ReLU[intermediate_act_fn]/relu_0|OUTPUT/FakeQuantize_output_0">
					<dim>1</dim>
					<dim>384</dim>
					<dim>365</dim>
				</port>
			</output>
		</layer>
		<layer id="388" name="Constant_9123272" type="Const" version="opset1">
			<data element_type="i8" shape="128, 365" offset="4826596" size="46720" />
			<output>
				<port id="0" precision="I8">
					<dim>128</dim>
					<dim>365</dim>
				</port>
			</output>
		</layer>
		<layer id="389" name="Convert_9085723" type="Convert" version="opset1">
			<data destination_type="f32" />
			<input>
				<port id="0" precision="I8">
					<dim>128</dim>
					<dim>365</dim>
				</port>
			</input>
			<output>
				<port id="1" precision="FP32">
					<dim>128</dim>
					<dim>365</dim>
				</port>
			</output>
		</layer>
		<layer id="390" name="Constant_9085660" type="Const" version="opset1">
			<data element_type="f32" shape="128, 1" offset="4873316" size="512" />
			<output>
				<port id="0" precision="FP32">
					<dim>128</dim>
					<dim>1</dim>
				</port>
			</output>
		</layer>
		<layer id="391" name="/nncf_module/mobilebert/encoder/layer.0/ffn.0/output/dense/pre_ops.1/op/FakeQuantize" type="Multiply" version="opset1">
			<data auto_broadcast="numpy" />
			<input>
				<port id="0" precision="FP32">
					<dim>128</dim>
					<dim>365</dim>
				</port>
				<port id="1" precision="FP32">
					<dim>128</dim>
					<dim>1</dim>
				</port>
			</input>
			<output>
				<port id="2" precision="FP32" names="/nncf_module/mobilebert/encoder/layer.0/ffn.0/output/dense/pre_ops.1/op/FakeQuantize_output_0">
					<dim>128</dim>
					<dim>365</dim>
				</port>
			</output>
		</layer>
		<layer id="392" name="/nncf_module/mobilebert/encoder/layer.0/ffn.0/output/dense/MatMul" type="MatMul" version="opset1">
			<data transpose_a="false" transpose_b="true" />
			<input>
				<port id="0" precision="FP32">
					<dim>1</dim>
					<dim>384</dim>
					<dim>365</dim>
				</port>
				<port id="1" precision="FP32">
					<dim>128</dim>
					<dim>365</dim>
				</port>
			</input>
			<output>
				<port id="2" precision="FP32" names="/nncf_module/mobilebert/encoder/layer.0/ffn.0/output/dense/MatMul_output_0">
					<dim>1</dim>
					<dim>384</dim>
					<dim>128</dim>
				</port>
			</output>
		</layer>
		<layer id="393" name="/nncf_module/mobilebert/encoder/layer.0/ffn.0/output/dense/Add" type="Add" version="opset1">
			<data auto_broadcast="numpy" />
			<input>
				<port id="0" precision="FP32">
					<dim>1</dim>
					<dim>1</dim>
					<dim>128</dim>
				</port>
				<port id="1" precision="FP32">
					<dim>1</dim>
					<dim>384</dim>
					<dim>128</dim>
				</port>
			</input>
			<output>
				<port id="2" precision="FP32" names="/nncf_module/mobilebert/encoder/layer.0/ffn.0/output/dense/Add_output_0">
					<dim>1</dim>
					<dim>384</dim>
					<dim>128</dim>
				</port>
			</output>
		</layer>
		<layer id="394" name="/nncf_module/mobilebert/encoder/layer.0/ffn.0/output/Add" type="Add" version="opset1">
			<data auto_broadcast="numpy" />
			<input>
				<port id="0" precision="FP32">
					<dim>1</dim>
					<dim>384</dim>
					<dim>128</dim>
				</port>
				<port id="1" precision="FP32">
					<dim>1</dim>
					<dim>384</dim>
					<dim>128</dim>
				</port>
			</input>
			<output>
				<port id="2" precision="FP32" names="/nncf_module/mobilebert/encoder/layer.0/ffn.0/output/Add_output_0">
					<dim>1</dim>
…
		<edge from-layer="3857" from-port="0" to-layer="3861" to-port="1" />
		<edge from-layer="3858" from-port="0" to-layer="3861" to-port="2" />
		<edge from-layer="3859" from-port="0" to-layer="3861" to-port="3" />
		<edge from-layer="3860" from-port="0" to-layer="3861" to-port="4" />
		<edge from-layer="3861" from-port="5" to-layer="3866" to-port="0" />
		<edge from-layer="3862" from-port="0" to-layer="3863" to-port="0" />
		<edge from-layer="3863" from-port="1" to-layer="3865" to-port="0" />
		<edge from-layer="3864" from-port="0" to-layer="3865" to-port="1" />
		<edge from-layer="3865" from-port="2" to-layer="3866" to-port="1" />
		<edge from-layer="3866" from-port="2" to-layer="3867" to-port="1" />
		<edge from-layer="3867" from-port="2" to-layer="3868" to-port="0" />
		<edge from-layer="3868" from-port="2" to-layer="3873" to-port="0" />
		<edge from-layer="3869" from-port="0" to-layer="3873" to-port="1" />
		<edge from-layer="3870" from-port="0" to-layer="3873" to-port="2" />
		<edge from-layer="3871" from-port="0" to-layer="3873" to-port="3" />
		<edge from-layer="3872" from-port="0" to-layer="3873" to-port="4" />
		<edge from-layer="3873" from-port="5" to-layer="3875" to-port="0" />
		<edge from-layer="3874" from-port="0" to-layer="3875" to-port="1" />
		<edge from-layer="3875" from-port="2" to-layer="3877" to-port="0" />
		<edge from-layer="3876" from-port="0" to-layer="3877" to-port="1" />
		<edge from-layer="3877" from-port="2" to-layer="3900" to-port="1" />
		<edge from-layer="3877" from-port="2" to-layer="3882" to-port="0" />
		<edge from-layer="3878" from-port="0" to-layer="3882" to-port="1" />
		<edge from-layer="3879" from-port="0" to-layer="3882" to-port="2" />
		<edge from-layer="3880" from-port="0" to-layer="3882" to-port="3" />
		<edge from-layer="3881" from-port="0" to-layer="3882" to-port="4" />
		<edge from-layer="3882" from-port="5" to-layer="3887" to-port="0" />
		<edge from-layer="3883" from-port="0" to-layer="3884" to-port="0" />
		<edge from-layer="3884" from-port="1" to-layer="3886" to-port="0" />
		<edge from-layer="3885" from-port="0" to-layer="3886" to-port="1" />
		<edge from-layer="3886" from-port="2" to-layer="3887" to-port="1" />
		<edge from-layer="3887" from-port="2" to-layer="3888" to-port="1" />
		<edge from-layer="3888" from-port="2" to-layer="3893" to-port="0" />
		<edge from-layer="3889" from-port="0" to-layer="3893" to-port="1" />
		<edge from-layer="3890" from-port="0" to-layer="3893" to-port="2" />
		<edge from-layer="3891" from-port="0" to-layer="3893" to-port="3" />
		<edge from-layer="3892" from-port="0" to-layer="3893" to-port="4" />
		<edge from-layer="3893" from-port="5" to-layer="3898" to-port="0" />
		<edge from-layer="3894" from-port="0" to-layer="3895" to-port="0" />
		<edge from-layer="3895" from-port="1" to-layer="3897" to-port="0" />
		<edge from-layer="3896" from-port="0" to-layer="3897" to-port="1" />
		<edge from-layer="3897" from-port="2" to-layer="3898" to-port="1" />
		<edge from-layer="3898" from-port="2" to-layer="3899" to-port="1" />
		<edge from-layer="3899" from-port="2" to-layer="3900" to-port="0" />
		<edge from-layer="3900" from-port="2" to-layer="3905" to-port="0" />
		<edge from-layer="3901" from-port="0" to-layer="3905" to-port="1" />
		<edge from-layer="3902" from-port="0" to-layer="3905" to-port="2" />
		<edge from-layer="3903" from-port="0" to-layer="3905" to-port="3" />
		<edge from-layer="3904" from-port="0" to-layer="3905" to-port="4" />
		<edge from-layer="3905" from-port="5" to-layer="3907" to-port="0" />
		<edge from-layer="3906" from-port="0" to-layer="3907" to-port="1" />
		<edge from-layer="3907" from-port="2" to-layer="3909" to-port="0" />
		<edge from-layer="3908" from-port="0" to-layer="3909" to-port="1" />
		<edge from-layer="3909" from-port="2" to-layer="3914" to-port="0" />
		<edge from-layer="3910" from-port="0" to-layer="3914" to-port="1" />
		<edge from-layer="3911" from-port="0" to-layer="3914" to-port="2" />
		<edge from-layer="3912" from-port="0" to-layer="3914" to-port="3" />
		<edge from-layer="3913" from-port="0" to-layer="3914" to-port="4" />
		<edge from-layer="3914" from-port="5" to-layer="3919" to-port="0" />
		<edge from-layer="3915" from-port="0" to-layer="3916" to-port="0" />
		<edge from-layer="3916" from-port="1" to-layer="3918" to-port="0" />
		<edge from-layer="3917" from-port="0" to-layer="3918" to-port="1" />
		<edge from-layer="3918" from-port="2" to-layer="3919" to-port="1" />
		<edge from-layer="3919" from-port="2" to-layer="3920" to-port="1" />
		<edge from-layer="3920" from-port="2" to-layer="3921" to-port="0" />
		<edge from-layer="3921" from-port="2" to-layer="3926" to-port="0" />
		<edge from-layer="3922" from-port="0" to-layer="3926" to-port="1" />
		<edge from-layer="3923" from-port="0" to-layer="3926" to-port="2" />
		<edge from-layer="3924" from-port="0" to-layer="3926" to-port="3" />
		<edge from-layer="3925" from-port="0" to-layer="3926" to-port="4" />
		<edge from-layer="3926" from-port="5" to-layer="3928" to-port="0" />
		<edge from-layer="3927" from-port="0" to-layer="3928" to-port="1" />
		<edge from-layer="3928" from-port="2" to-layer="3930" to-port="0" />
		<edge from-layer="3929" from-port="0" to-layer="3930" to-port="1" />
		<edge from-layer="3930" from-port="2" to-layer="4006" to-port="0" />
		<edge from-layer="3930" from-port="2" to-layer="3935" to-port="0" />
		<edge from-layer="3930" from-port="2" to-layer="4048" to-port="0" />
		<edge from-layer="3930" from-port="2" to-layer="4205" to-port="1" />
		<edge from-layer="3931" from-port="0" to-layer="3935" to-port="1" />
		<edge from-layer="3932" from-port="0" to-layer="3935" to-port="2" />
		<edge from-layer="3933" from-port="0" to-layer="3935" to-port="3" />
		<edge from-layer="3934" from-port="0" to-layer="3935" to-port="4" />
		<edge from-layer="3935" from-port="5" to-layer="3940" to-port="0" />
		<edge from-layer="3936" from-port="0" to-layer="3937" to-port="0" />
		<edge from-layer="3937" from-port="1" to-layer="3939" to-port="0" />
		<edge from-layer="3938" from-port="0" to-layer="3939" to-port="1" />
		<edge from-layer="3939" from-port="2" to-layer="3940" to-port="1" />
		<edge from-layer="3940" from-port="2" to-layer="3942" to-port="0" />
		<edge from-layer="3941" from-port="0" to-layer="3942" to-port="1" />
		<edge from-layer="3942" from-port="2" to-layer="3947" to-port="0" />
		<edge from-layer="3943" from-port="0" to-layer="3947" to-port="1" />
		<edge from-layer="3944" from-port="0" to-layer="3947" to-port="2" />
		<edge from-layer="3945" from-port="0" to-layer="3947" to-port="3" />
		<edge from-layer="3946" from-port="0" to-layer="3947" to-port="4" />
		<edge from-layer="3947" from-port="5" to-layer="3952" to-port="0" />
		<edge from-layer="3947" from-port="5" to-layer="3974" to-port="0" />
		<edge from-layer="3948" from-port="0" to-layer="3949" to-port="0" />
		<edge from-layer="3949" from-port="1" to-layer="3951" to-port="0" />
		<edge from-layer="3950" from-port="0" to-layer="3951" to-port="1" />
		<edge from-layer="3951" from-port="2" to-layer="3952" to-port="1" />
		<edge from-layer="3952" from-port="2" to-layer="3953" to-port="1" />
		<edge from-layer="3953" from-port="2" to-layer="3958" to-port="0" />
		<edge from-layer="3954" from-port="0" to-layer="3958" to-port="1" />
		<edge from-layer="3955" from-port="0" to-layer="3958" to-port="2" />
		<edge from-layer="3956" from-port="0" to-layer="3958" to-port="3" />
		<edge from-layer="3957" from-port="0" to-layer="3958" to-port="4" />
		<edge from-layer="3958" from-port="5" to-layer="3959" to-port="0" />
		<edge from-layer="3958" from-port="5" to-layer="3966" to-port="0" />
		<edge from-layer="3959" from-port="1" to-layer="3962" to-port="0" />
		<edge from-layer="3960" from-port="0" to-layer="3962" to-port="1" />
		<edge from-layer="3961" from-port="0" to-layer="3962" to-port="2" />
		<edge from-layer="3962" from-port="3" to-layer="3965" to-port="0" />
		<edge from-layer="3963" from-port="0" to-layer="3965" to-port="1" />
		<edge from-layer="3964" from-port="0" to-layer="3965" to-port="2" />
		<edge from-layer="3965" from-port="3" to-layer="3966" to-port="1" />
		<edge from-layer="3966" from-port="2" to-layer="3968" to-port="0" />
		<edge from-layer="3967" from-port="0" to-layer="3968" to-port="1" />
		<edge from-layer="3968" from-port="2" to-layer="3993" to-port="0" />
		<edge from-layer="3969" from-port="0" to-layer="3975" to-port="0" />
		<edge from-layer="3970" from-port="0" to-layer="3971" to-port="0" />
		<edge from-layer="3971" from-port="1" to-layer="3973" to-port="0" />
		<edge from-layer="3972" from-port="0" to-layer="3973" to-port="1" />
		<edge from-layer="3973" from-port="2" to-layer="3974" to-port="1" />
		<edge from-layer="3974" from-port="2" to-layer="3975" to-port="1" />
		<edge from-layer="3975" from-port="2" to-layer="3980" to-port="0" />
		<edge from-layer="3976" from-port="0" to-layer="3980" to-port="1" />
		<edge from-layer="3977" from-port="0" to-layer="3980" to-port="2" />
		<edge from-layer="3978" from-port="0" to-layer="3980" to-port="3" />
		<edge from-layer="3979" from-port="0" to-layer="3980" to-port="4" />
		<edge from-layer="3980" from-port="5" to-layer="3981" to-port="0" />
		<edge from-layer="3980" from-port="5" to-layer="3988" to-port="0" />
		<edge from-layer="3981" from-port="1" to-layer="3984" to-port="0" />
		<edge from-layer="3982" from-port="0" to-layer="3984" to-port="1" />
		<edge from-layer="3983" from-port="0" to-layer="3984" to-port="2" />
		<edge from-layer="3984" from-port="3" to-layer="3987" to-port="0" />
		<edge from-layer="3985" from-port="0" to-layer="3987" to-port="1" />
		<edge from-layer="3986" from-port="0" to-layer="3987" to-port="2" />
		<edge from-layer="3987" from-port="3" to-layer="3988" to-port="1" />
		<edge from-layer="3988" from-port="2" to-layer="3990" to-port="0" />
		<edge from-layer="3989" from-port="0" to-layer="3990" to-port="1" />
		<edge from-layer="3990" from-port="2" to-layer="3992" to-port="0" />
		<edge from-layer="3991" from-port="0" to-layer="3992" to-port="1" />
		<edge from-layer="3992" from-port="2" to-layer="3993" to-port="1" />
		<edge from-layer="3993" from-port="2" to-layer="3994" to-port="0" />
		<edge from-layer="3994" from-port="2" to-layer="3995" to-port="0" />
		<edge from-layer="3995" from-port="1" to-layer="4000" to-port="0" />
		<edge from-layer="3996" from-port="0" to-layer="4000" to-port="1" />
		<edge from-layer="3997" from-port="0" to-layer="4000" to-port="2" />
		<edge from-layer="3998" from-port="0" to-layer="4000" to-port="3" />
		<edge from-layer="3999" from-port="0" to-layer="4000" to-port="4" />
		<edge from-layer="4000" from-port="5" to-layer="4028" to-port="0" />
		<edge from-layer="4001" from-port="0" to-layer="4012" to-port="0" />
		<edge from-layer="4002" from-port="0" to-layer="4006" to-port="1" />
		<edge from-layer="4003" from-port="0" to-layer="4006" to-port="2" />
		<edge from-layer="4004" from-port="0" to-layer="4006" to-port="3" />
		<edge from-layer="4005" from-port="0" to-layer="4006" to-port="4" />
		<edge from-layer="4006" from-port="5" to-layer="4011" to-port="0" />
		<edge from-layer="4007" from-port="0" to-layer="4008" to-port="0" />
		<edge from-layer="4008" from-port="1" to-layer="4010" to-port="0" />
		<edge from-layer="4009" from-port="0" to-layer="4010" to-port="1" />
		<edge from-layer="4010" from-port="2" to-layer="4011" to-port="1" />
		<edge from-layer="4011" from-port="2" to-layer="4012" to-port="1" />
		<edge from-layer="4012" from-port="2" to-layer="4017" to-port="0" />
		<edge from-layer="4013" from-port="0" to-layer="4017" to-port="1" />
		<edge from-layer="4014" from-port="0" to-layer="4017" to-port="2" />
		<edge from-layer="4015" from-port="0" to-layer="4017" to-port="3" />
		<edge from-layer="4016" from-port="0" to-layer="4017" to-port="4" />
		<edge from-layer="4017" from-port="5" to-layer="4025" to-port="0" />
		<edge from-layer="4017" from-port="5" to-layer="4018" to-port="0" />
		<edge from-layer="4018" from-port="1" to-layer="4021" to-port="0" />
		<edge from-layer="4019" from-port="0" to-layer="4021" to-port="1" />
		<edge from-layer="4020" from-port="0" to-layer="4021" to-port="2" />
		<edge from-layer="4021" from-port="3" to-layer="4024" to-port="0" />
		<edge from-layer="4022" from-port="0" to-layer="4024" to-port="1" />
		<edge from-layer="4023" from-port="0" to-layer="4024" to-port="2" />
		<edge from-layer="4024" from-port="3" to-layer="4025" to-port="1" />
		<edge from-layer="4025" from-port="2" to-layer="4027" to-port="0" />
		<edge from-layer="4026" from-port="0" to-layer="4027" to-port="1" />
		<edge from-layer="4027" from-port="2" to-layer="4028" to-port="1" />
		<edge from-layer="4028" from-port="2" to-layer="4033" to-port="0" />
		<edge from-layer="4029" from-port="0" to-layer="4033" to-port="1" />
		<edge from-layer="4030" from-port="0" to-layer="4033" to-port="2" />
		<edge from-layer="4031" from-port="0" to-layer="4033" to-port="3" />
		<edge from-layer="4032" from-port="0" to-layer="4033" to-port="4" />
		<edge from-layer="4033" from-port="5" to-layer="4035" to-port="0" />
		<edge from-layer="4034" from-port="0" to-layer="4035" to-port="1" />
		<edge from-layer="4035" from-port="2" to-layer="4037" to-port="0" />
		<edge from-layer="4036" from-port="0" to-layer="4037" to-port="1" />
		<edge from-layer="4037" from-port="2" to-layer="4042" to-port="0" />
		<edge from-layer="4038" from-port="0" to-layer="4039" to-port="0" />
		<edge from-layer="4039" from-port="1" to-layer="4041" to-port="0" />
		<edge from-layer="4040" from-port="0" to-layer="4041" to-port="1" />
		<edge from-layer="4041" from-port="2" to-layer="4042" to-port="1" />
		<edge from-layer="4042" from-port="2" to-layer="4043" to-port="1" />
		<edge from-layer="4043" from-port="2" to-layer="4056" to-port="0" />
		<edge from-layer="4044" from-port="0" to-layer="4048" to-port="1" />
		<edge from-layer="4045" from-port="0" to-layer="4048" to-port="2" />
		<edge from-layer="4046" from-port="0" to-layer="4048" to-port="3" />
		<edge from-layer="4047" from-port="0" to-layer="4048" to-port="4" />
		<edge from-layer="4048" from-port="5" to-layer="4053" to-port="0" />
		<edge from-layer="4049" from-port="0" to-layer="4050" to-port="0" />
		<edge from-layer="4050" from-port="1" to-layer="4052" to-port="0" />
		<edge from-layer="4051" from-port="0" to-layer="4052" to-port="1" />
		<edge from-layer="4052" from-port="2" to-layer="4053" to-port="1" />
		<edge from-layer="4053" from-port="2" to-layer="4055" to-port="0" />
		<edge from-layer="4054" from-port="0" to-layer="4055" to-port="1" />
		<edge from-layer="4055" from-port="2" to-layer="4056" to-port="1" />
		<edge from-layer="4056" from-port="2" to-layer="4061" to-port="0" />
		<edge from-layer="4057" from-port="0" to-layer="4061" to-port="1" />
		<edge from-layer="4058" from-port="0" to-layer="4061" to-port="2" />
		<edge from-layer="4059" from-port="0" to-layer="4061" to-port="3" />
		<edge from-layer="4060" from-port="0" to-layer="4061" to-port="4" />
		<edge from-layer="4061" from-port="5" to-layer="4063" to-port="0" />
		<edge from-layer="4062" from-port="0" to-layer="4063" to-port="1" />
		<edge from-layer="4063" from-port="2" to-layer="4065" to-port="0" />
		<edge from-layer="4064" from-port="0" to-layer="4065" to-port="1" />
		<edge from-layer="4065" from-port="2" to-layer="4088" to-port="1" />
		<edge from-layer="4065" from-port="2" to-layer="4070" to-port="0" />
		<edge from-layer="4066" from-port="0" to-layer="4070" to-port="1" />
		<edge from-layer="4067" from-port="0" to-layer="4070" to-port="2" />
		<edge from-layer="4068" from-port="0" to-layer="4070" to-port="3" />
		<edge from-layer="4069" from-port="0" to-layer="4070" to-port="4" />
		<edge from-layer="4070" from-port="5" to-layer="4075" to-port="0" />
		<edge from-layer="4071" from-port="0" to-layer="4072" to-port="0" />
		<edge from-layer="4072" from-port="1" to-layer="4074" to-port="0" />
		<edge from-layer="4073" from-port="0" to-layer="4074" to-port="1" />
		<edge from-layer="4074" from-port="2" to-layer="4075" to-port="1" />
		<edge from-layer="4075" from-port="2" to-layer="4076" to-port="1" />
		<edge from-layer="4076" from-port="2" to-layer="4081" to-port="0" />
		<edge from-layer="4077" from-port="0" to-layer="4081" to-port="1" />
		<edge from-layer="4078" from-port="0" to-layer="4081" to-port="2" />
		<edge from-layer="4079" from-port="0" to-layer="4081" to-port="3" />
		<edge from-layer="4080" from-port="0" to-layer="4081" to-port="4" />
		<edge from-layer="4081" from-port="5" to-layer="4086" to-port="0" />
		<edge from-layer="4082" from-port="0" to-layer="4083" to-port="0" />
		<edge from-layer="4083" from-port="1" to-layer="4085" to-port="0" />
		<edge from-layer="4084" from-port="0" to-layer="4085" to-port="1" />
		<edge from-layer="4085" from-port="2" to-layer="4086" to-port="1" />
		<edge from-layer="4086" from-port="2" to-layer="4087" to-port="1" />
		<edge from-layer="4087" from-port="2" to-layer="4088" to-port="0" />
		<edge from-layer="4088" from-port="2" to-layer="4093" to-port="0" />
		<edge from-layer="4089" from-port="0" to-layer="4093" to-port="1" />
		<edge from-layer="4090" from-port="0" to-layer="4093" to-port="2" />
		<edge from-layer="4091" from-port="0" to-layer="4093" to-port="3" />
		<edge from-layer="4092" from-port="0" to-layer="4093" to-port="4" />
		<edge from-layer="4093" from-port="5" to-layer="4095" to-port="0" />
		<edge from-layer="4094" from-port="0" to-layer="4095" to-port="1" />
		<edge from-layer="4095" from-port="2" to-layer="4097" to-port="0" />
		<edge from-layer="4096" from-port="0" to-layer="4097" to-port="1" />
		<edge from-layer="4097" from-port="2" to-layer="4102" to-port="0" />
		<edge from-layer="4097" from-port="2" to-layer="4120" to-port="1" />
		<edge from-layer="4098" from-port="0" to-layer="4102" to-port="1" />
		<edge from-layer="4099" from-port="0" to-layer="4102" to-port="2" />
		<edge from-layer="4100" from-port="0" to-layer="4102" to-port="3" />
		<edge from-layer="4101" from-port="0" to-layer="4102" to-port="4" />
		<edge from-layer="4102" from-port="5" to-layer="4107" to-port="0" />
		<edge from-layer="4103" from-port="0" to-layer="4104" to-port="0" />
		<edge from-layer="4104" from-port="1" to-layer="4106" to-port="0" />
		<edge from-layer="4105" from-port="0" to-layer="4106" to-port="1" />
		<edge from-layer="4106" from-port="2" to-layer="4107" to-port="1" />
		<edge from-layer="4107" from-port="2" to-layer="4108" to-port="1" />
		<edge from-layer="4108" from-port="2" to-layer="4113" to-port="0" />
		<edge from-layer="4109" from-port="0" to-layer="4113" to-port="1" />
		<edge from-layer="4110" from-port="0" to-layer="4113" to-port="2" />
		<edge from-layer="4111" from-port="0" to-layer="4113" to-port="3" />
		<edge from-layer="4112" from-port="0" to-layer="4113" to-port="4" />
		<edge from-layer="4113" from-port="5" to-layer="4118" to-port="0" />
		<edge from-layer="4114" from-port="0" to-layer="4115" to-port="0" />
		<edge from-layer="4115" from-port="1" to-layer="4117" to-port="0" />
		<edge from-layer="4116" from-port="0" to-layer="4117" to-port="1" />
		<edge from-layer="4117" from-port="2" to-layer="4118" to-port="1" />
		<edge from-layer="4118" from-port="2" to-layer="4119" to-port="1" />
		<edge from-layer="4119" from-port="2" to-layer="4120" to-port="0" />
		<edge from-layer="4120" from-port="2" to-layer="4125" to-port="0" />
		<edge from-layer="4121" from-port="0" to-layer="4125" to-port="1" />
		<edge from-layer="4122" from-port="0" to-layer="4125" to-port="2" />
		<edge from-layer="4123" from-port="0" to-layer="4125" to-port="3" />
		<edge from-layer="4124" from-port="0" to-layer="4125" to-port="4" />
		<edge from-layer="4125" from-port="5" to-layer="4127" to-port="0" />
		<edge from-layer="4126" from-port="0" to-layer="4127" to-port="1" />
		<edge from-layer="4127" from-port="2" to-layer="4129" to-port="0" />
		<edge from-layer="4128" from-port="0" to-layer="4129" to-port="1" />
		<edge from-layer="4129" from-port="2" to-layer="4134" to-port="0" />
		<edge from-layer="4129" from-port="2" to-layer="4152" to-port="1" />
		<edge from-layer="4130" from-port="0" to-layer="4134" to-port="1" />
		<edge from-layer="4131" from-port="0" to-layer="4134" to-port="2" />
		<edge from-layer="4132" from-port="0" to-layer="4134" to-port="3" />
		<edge from-layer="4133" from-port="0" to-layer="4134" to-port="4" />
		<edge from-layer="4134" from-port="5" to-layer="4139" to-port="0" />
		<edge from-layer="4135" from-port="0" to-layer="4136" to-port="0" />
		<edge from-layer="4136" from-port="1" to-layer="4138" to-port="0" />
		<edge from-layer="4137" from-port="0" to-layer="4138" to-port="1" />
		<edge from-layer="4138" from-port="2" to-layer="4139" to-port="1" />
		<edge from-layer="4139" from-port="2" to-layer="4140" to-port="1" />
		<edge from-layer="4140" from-port="2" to-layer="4145" to-port="0" />
		<edge from-layer="4141" from-port="0" to-layer="4145" to-port="1" />
		<edge from-layer="4142" from-port="0" to-layer="4145" to-port="2" />
		<edge from-layer="4143" from-port="0" to-layer="4145" to-port="3" />
		<edge from-layer="4144" from-port="0" to-layer="4145" to-port="4" />
		<edge from-layer="4145" from-port="5" to-layer="4150" to-port="0" />
		<edge from-layer="4146" from-port="0" to-layer="4147" to-port="0" />
		<edge from-layer="4147" from-port="1" to-layer="4149" to-port="0" />
		<edge from-layer="4148" from-port="0" to-layer="4149" to-port="1" />
		<edge from-layer="4149" from-port="2" to-layer="4150" to-port="1" />
		<edge from-layer="4150" from-port="2" to-layer="4151" to-port="1" />
		<edge from-layer="4151" from-port="2" to-layer="4152" to-port="0" />
		<edge from-layer="4152" from-port="2" to-layer="4157" to-port="0" />
		<edge from-layer="4153" from-port="0" to-layer="4157" to-port="1" />
		<edge from-layer="4154" from-port="0" to-layer="4157" to-port="2" />
		<edge from-layer="4155" from-port="0" to-layer="4157" to-port="3" />
		<edge from-layer="4156" from-port="0" to-layer="4157" to-port="4" />
		<edge from-layer="4157" from-port="5" to-layer="4159" to-port="0" />
		<edge from-layer="4158" from-port="0" to-layer="4159" to-port="1" />
		<edge from-layer="4159" from-port="2" to-layer="4161" to-port="0" />
		<edge from-layer="4160" from-port="0" to-layer="4161" to-port="1" />
		<edge from-layer="4161" from-port="2" to-layer="4166" to-port="0" />
		<edge from-layer="4161" from-port="2" to-layer="4184" to-port="1" />
		<edge from-layer="4162" from-port="0" to-layer="4166" to-port="1" />
		<edge from-layer="4163" from-port="0" to-layer="4166" to-port="2" />
		<edge from-layer="4164" from-port="0" to-layer="4166" to-port="3" />
		<edge from-layer="4165" from-port="0" to-layer="4166" to-port="4" />
		<edge from-layer="4166" from-port="5" to-layer="4171" to-port="0" />
		<edge from-layer="4167" from-port="0" to-layer="4168" to-port="0" />
		<edge from-layer="4168" from-port="1" to-layer="4170" to-port="0" />
		<edge from-layer="4169" from-port="0" to-layer="4170" to-port="1" />
		<edge from-layer="4170" from-port="2" to-layer="4171" to-port="1" />
		<edge from-layer="4171" from-port="2" to-layer="4172" to-port="1" />
		<edge from-layer="4172" from-port="2" to-layer="4177" to-port="0" />
		<edge from-layer="4173" from-port="0" to-layer="4177" to-port="1" />
		<edge from-layer="4174" from-port="0" to-layer="4177" to-port="2" />
		<edge from-layer="4175" from-port="0" to-layer="4177" to-port="3" />
		<edge from-layer="4176" from-port="0" to-layer="4177" to-port="4" />
		<edge from-layer="4177" from-port="5" to-layer="4182" to-port="0" />
		<edge from-layer="4178" from-port="0" to-layer="4179" to-port="0" />
		<edge from-layer="4179" from-port="1" to-layer="4181" to-port="0" />
		<edge from-layer="4180" from-port="0" to-layer="4181" to-port="1" />
		<edge from-layer="4181" from-port="2" to-layer="4182" to-port="1" />
		<edge from-layer="4182" from-port="2" to-layer="4183" to-port="1" />
		<edge from-layer="4183" from-port="2" to-layer="4184" to-port="0" />
		<edge from-layer="4184" from-port="2" to-layer="4189" to-port="0" />
		<edge from-layer="4185" from-port="0" to-layer="4189" to-port="1" />
		<edge from-layer="4186" from-port="0" to-layer="4189" to-port="2" />
		<edge from-layer="4187" from-port="0" to-layer="4189" to-port="3" />
		<edge from-layer="4188" from-port="0" to-layer="4189" to-port="4" />
		<edge from-layer="4189" from-port="5" to-layer="4191" to-port="0" />
		<edge from-layer="4190" from-port="0" to-layer="4191" to-port="1" />
		<edge from-layer="4191" from-port="2" to-layer="4193" to-port="0" />
		<edge from-layer="4192" from-port="0" to-layer="4193" to-port="1" />
		<edge from-layer="4193" from-port="2" to-layer="4198" to-port="0" />
		<edge from-layer="4194" from-port="0" to-layer="4198" to-port="1" />
		<edge from-layer="4195" from-port="0" to-layer="4198" to-port="2" />
		<edge from-layer="4196" from-port="0" to-layer="4198" to-port="3" />
		<edge from-layer="4197" from-port="0" to-layer="4198" to-port="4" />
		<edge from-layer="4198" from-port="5" to-layer="4203" to-port="0" />
		<edge from-layer="4199" from-port="0" to-layer="4200" to-port="0" />
		<edge from-layer="4200" from-port="1" to-layer="4202" to-port="0" />
		<edge from-layer="4201" from-port="0" to-layer="4202" to-port="1" />
		<edge from-layer="4202" from-port="2" to-layer="4203" to-port="1" />
		<edge from-layer="4203" from-port="2" to-layer="4204" to-port="1" />
		<edge from-layer="4204" from-port="2" to-layer="4205" to-port="0" />
		<edge from-layer="4205" from-port="2" to-layer="4210" to-port="0" />
		<edge from-layer="4206" from-port="0" to-layer="4210" to-port="1" />
		<edge from-layer="4207" from-port="0" to-layer="4210" to-port="2" />
		<edge from-layer="4208" from-port="0" to-layer="4210" to-port="3" />
		<edge from-layer="4209" from-port="0" to-layer="4210" to-port="4" />
		<edge from-layer="4210" from-port="5" to-layer="4212" to-port="0" />
		<edge from-layer="4211" from-port="0" to-layer="4212" to-port="1" />
		<edge from-layer="4212" from-port="2" to-layer="4214" to-port="0" />
		<edge from-layer="4213" from-port="0" to-layer="4214" to-port="1" />
		<edge from-layer="4214" from-port="2" to-layer="4332" to-port="0" />
		<edge from-layer="4214" from-port="2" to-layer="4219" to-port="0" />
		<edge from-layer="4214" from-port="2" to-layer="4290" to-port="0" />
		<edge from-layer="4214" from-port="2" to-layer="4491" to-port="1" />
		<edge from-layer="4215" from-port="0" to-layer="4219" to-port="1" />
		<edge from-layer="4216" from-port="0" to-layer="4219" to-port="2" />
		<edge from-layer="4217" from-port="0" to-layer="4219" to-port="3" />
		<edge from-layer="4218" from-port="0" to-layer="4219" to-port="4" />
		<edge from-layer="4219" from-port="5" to-layer="4224" to-port="0" />
		<edge from-layer="4220" from-port="0" to-layer="4221" to-port="0" />
		<edge from-layer="4221" from-port="1" to-layer="4223" to-port="0" />
		<edge from-layer="4222" from-port="0" to-layer="4223" to-port="1" />
		<edge from-layer="4223" from-port="2" to-layer="4224" to-port="1" />
		<edge from-layer="4224" from-port="2" to-layer="4226" to-port="0" />
		<edge from-layer="4225" from-port="0" to-layer="4226" to-port="1" />
		<edge from-layer="4226" from-port="2" to-layer="4231" to-port="0" />
		<edge from-layer="4227" from-port="0" to-layer="4231" to-port="1" />
		<edge from-layer="4228" from-port="0" to-layer="4231" to-port="2" />
		<edge from-layer="4229" from-port="0" to-layer="4231" to-port="3" />
		<edge from-layer="4230" from-port="0" to-layer="4231" to-port="4" />
		<edge from-layer="4231" from-port="5" to-layer="4258" to-port="0" />
		<edge from-layer="4231" from-port="5" to-layer="4236" to-port="0" />
		<edge from-layer="4232" from-port="0" to-layer="4233" to-port="0" />
		<edge from-layer="4233" from-port="1" to-layer="4235" to-port="0" />
		<edge from-layer="4234" from-port="0" to-layer="4235" to-port="1" />
		<edge from-layer="4235" from-port="2" to-layer="4236" to-port="1" />
		<edge from-layer="4236" from-port="2" to-layer="4237" to-port="1" />
		<edge from-layer="4237" from-port="2" to-layer="4242" to-port="0" />
		<edge from-layer="4238" from-port="0" to-layer="4242" to-port="1" />
		<edge from-layer="4239" from-port="0" to-layer="4242" to-port="2" />
		<edge from-layer="4240" from-port="0" to-layer="4242" to-port="3" />
		<edge from-layer="4241" from-port="0" to-layer="4242" to-port="4" />
		<edge from-layer="4242" from-port="5" to-layer="4243" to-port="0" />
		<edge from-layer="4242" from-port="5" to-layer="4250" to-port="0" />
		<edge from-layer="4243" from-port="1" to-layer="4246" to-port="0" />
		<edge from-layer="4244" from-port="0" to-layer="4246" to-port="1" />
		<edge from-layer="4245" from-port="0" to-layer="4246" to-port="2" />
		<edge from-layer="4246" from-port="3" to-layer="4249" to-port="0" />
		<edge from-layer="4247" from-port="0" to-layer="4249" to-port="1" />
		<edge from-layer="4248" from-port="0" to-layer="4249" to-port="2" />
		<edge from-layer="4249" from-port="3" to-layer="4250" to-port="1" />
		<edge from-layer="4250" from-port="2" to-layer="4252" to-port="0" />
		<edge from-layer="4251" from-port="0" to-layer="4252" to-port="1" />
		<edge from-layer="4252" from-port="2" to-layer="4277" to-port="0" />
		<edge from-layer="4253" from-port="0" to-layer="4259" to-port="0" />
		<edge from-layer="4254" from-port="0" to-layer="4255" to-port="0" />
		<edge from-layer="4255" from-port="1" to-layer="4257" to-port="0" />
		<edge from-layer="4256" from-port="0" to-layer="4257" to-port="1" />
		<edge from-layer="4257" from-port="2" to-layer="4258" to-port="1" />
		<edge from-layer="4258" from-port="2" to-layer="4259" to-port="1" />
		<edge from-layer="4259" from-port="2" to-layer="4264" to-port="0" />
		<edge from-layer="4260" from-port="0" to-layer="4264" to-port="1" />
		<edge from-layer="4261" from-port="0" to-layer="4264" to-port="2" />
		<edge from-layer="4262" from-port="0" to-layer="4264" to-port="3" />
		<edge from-layer="4263" from-port="0" to-layer="4264" to-port="4" />
		<edge from-layer="4264" from-port="5" to-layer="4272" to-port="0" />
		<edge from-layer="4264" from-port="5" to-layer="4265" to-port="0" />
		<edge from-layer="4265" from-port="1" to-layer="4268" to-port="0" />
		<edge from-layer="4266" from-port="0" to-layer="4268" to-port="1" />
		<edge from-layer="4267" from-port="0" to-layer="4268" to-port="2" />
		<edge from-layer="4268" from-port="3" to-layer="4271" to-port="0" />
		<edge from-layer="4269" from-port="0" to-layer="4271" to-port="1" />
		<edge from-layer="4270" from-port="0" to-layer="4271" to-port="2" />
		<edge from-layer="4271" from-port="3" to-layer="4272" to-port="1" />
		<edge from-layer="4272" from-port="2" to-layer="4274" to-port="0" />
		<edge from-layer="4273" from-port="0" to-layer="4274" to-port="1" />
		<edge from-layer="4274" from-port="2" to-layer="4276" to-port="0" />
		<edge from-layer="4275" from-port="0" to-layer="4276" to-port="1" />
		<edge from-layer="4276" from-port="2" to-layer="4277" to-port="1" />
		<edge from-layer="4277" from-port="2" to-layer="4278" to-port="0" />
		<edge from-layer="4278" from-port="2" to-layer="4279" to-port="0" />
		<edge from-layer="4279" from-port="1" to-layer="4284" to-port="0" />
		<edge from-layer="4280" from-port="0" to-layer="4284" to-port="1" />
		<edge from-layer="4281" from-port="0" to-layer="4284" to-port="2" />
		<edge from-layer="4282" from-port="0" to-layer="4284" to-port="3" />
		<edge from-layer="4283" from-port="0" to-layer="4284" to-port="4" />
		<edge from-layer="4284" from-port="5" to-layer="4312" to-port="0" />
		<edge from-layer="4285" from-port="0" to-layer="4296" to-port="0" />
		<edge from-layer="4286" from-port="0" to-layer="4290" to-port="1" />
		<edge from-layer="4287" from-port="0" to-layer="4290" to-port="2" />
		<edge from-layer="4288" from-port="0" to-layer="4290" to-port="3" />
		<edge from-layer="4289" from-port="0" to-layer="4290" to-port="4" />
		<edge from-layer="4290" from-port="5" to-layer="4295" to-port="0" />
		<edge from-layer="4291" from-port="0" to-layer="4292" to-port="0" />
		<edge from-layer="4292" from-port="1" to-layer="4294" to-port="0" />
		<edge from-layer="4293" from-port="0" to-layer="4294" to-port="1" />
		<edge from-layer="4294" from-port="2" to-layer="4295" to-port="1" />
		<edge from-layer="4295" from-port="2" to-layer="4296" to-port="1" />
		<edge from-layer="4296" from-port="2" to-layer="4301" to-port="0" />
		<edge from-layer="4297" from-port="0" to-layer="4301" to-port="1" />
		<edge from-layer="4298" from-port="0" to-layer="4301" to-port="2" />
		<edge from-layer="4299" from-port="0" to-layer="4301" to-port="3" />
		<edge from-layer="4300" from-port="0" to-layer="4301" to-port="4" />
		<edge from-layer="4301" from-port="5" to-layer="4302" to-port="0" />
		<edge from-layer="4301" from-port="5" to-layer="4309" to-port="0" />
		<edge from-layer="4302" from-port="1" to-layer="4305" to-port="0" />
		<edge from-layer="4303" from-port="0" to-layer="4305" to-port="1" />
		<edge from-layer="4304" from-port="0" to-layer="4305" to-port="2" />
		<edge from-layer="4305" from-port="3" to-layer="4308" to-port="0" />
		<edge from-layer="4306" from-port="0" to-layer="4308" to-port="1" />
		<edge from-layer="4307" from-port="0" to-layer="4308" to-port="2" />
		<edge from-layer="4308" from-port="3" to-layer="4309" to-port="1" />
		<edge from-layer="4309" from-port="2" to-layer="4311" to-port="0" />
		<edge from-layer="4310" from-port="0" to-layer="4311" to-port="1" />
		<edge from-layer="4311" from-port="2" to-layer="4312" to-port="1" />
		<edge from-layer="4312" from-port="2" to-layer="4317" to-port="0" />
		<edge from-layer="4313" from-port="0" to-layer="4317" to-port="1" />
		<edge from-layer="4314" from-port="0" to-layer="4317" to-port="2" />
		<edge from-layer="4315" from-port="0" to-layer="4317" to-port="3" />
		<edge from-layer="4316" from-port="0" to-layer="4317" to-port="4" />
		<edge from-layer="4317" from-port="5" to-layer="4319" to-port="0" />
		<edge from-layer="4318" from-port="0" to-layer="4319" to-port="1" />
		<edge from-layer="4319" from-port="2" to-layer="4321" to-port="0" />
		<edge from-layer="4320" from-port="0" to-layer="4321" to-port="1" />
		<edge from-layer="4321" from-port="2" to-layer="4326" to-port="0" />
		<edge from-layer="4322" from-port="0" to-layer="4323" to-port="0" />
		<edge from-layer="4323" from-port="1" to-layer="4325" to-port="0" />
		<edge from-layer="4324" from-port="0" to-layer="4325" to-port="1" />
		<edge from-layer="4325" from-port="2" to-layer="4326" to-port="1" />
		<edge from-layer="4326" from-port="2" to-layer="4327" to-port="1" />
		<edge from-layer="4327" from-port="2" to-layer="4340" to-port="0" />
		<edge from-layer="4328" from-port="0" to-layer="4332" to-port="1" />
		<edge from-layer="4329" from-port="0" to-layer="4332" to-port="2" />
		<edge from-layer="4330" from-port="0" to-layer="4332" to-port="3" />
		<edge from-layer="4331" from-port="0" to-layer="4332" to-port="4" />
		<edge from-layer="4332" from-port="5" to-layer="4337" to-port="0" />
		<edge from-layer="4333" from-port="0" to-layer="4334" to-port="0" />
		<edge from-layer="4334" from-port="1" to-layer="4336" to-port="0" />
		<edge from-layer="4335" from-port="0" to-layer="4336" to-port="1" />
		<edge from-layer="4336" from-port="2" to-layer="4337" to-port="1" />
		<edge from-layer="4337" from-port="2" to-layer="4339" to-port="0" />
		<edge from-layer="4338" from-port="0" to-layer="4339" to-port="1" />
		<edge from-layer="4339" from-port="2" to-layer="4340" to-port="1" />
		<edge from-layer="4340" from-port="2" to-layer="4345" to-port="0" />
		<edge from-layer="4341" from-port="0" to-layer="4345" to-port="1" />
		<edge from-layer="4342" from-port="0" to-layer="4345" to-port="2" />
		<edge from-layer="4343" from-port="0" to-layer="4345" to-port="3" />
		<edge from-layer="4344" from-port="0" to-layer="4345" to-port="4" />
		<edge from-layer="4345" from-port="5" to-layer="4347" to-port="0" />
		<edge from-layer="4346" from-port="0" to-layer="4347" to-port="1" />
		<edge from-layer="4347" from-port="2" to-layer="4349" to-port="0" />
		<edge from-layer="4348" from-port="0" to-layer="4349" to-port="1" />
		<edge from-layer="4349" from-port="2" to-layer="4354" to-port="0" />
		<edge from-layer="4349" from-port="2" to-layer="4372" to-port="1" />
		<edge from-layer="4350" from-port="0" to-layer="4354" to-port="1" />
		<edge from-layer="4351" from-port="0" to-layer="4354" to-port="2" />
		<edge from-layer="4352" from-port="0" to-layer="4354" to-port="3" />
		<edge from-layer="4353" from-port="0" to-layer="4354" to-port="4" />
		<edge from-layer="4354" from-port="5" to-layer="4359" to-port="0" />
		<edge from-layer="4355" from-port="0" to-layer="4356" to-port="0" />
		<edge from-layer="4356" from-port="1" to-layer="4358" to-port="0" />
		<edge from-layer="4357" from-port="0" to-layer="4358" to-port="1" />
		<edge from-layer="4358" from-port="2" to-layer="4359" to-port="1" />
		<edge from-layer="4359" from-port="2" to-layer="4360" to-port="1" />
		<edge from-layer="4360" from-port="2" to-layer="4365" to-port="0" />
		<edge from-layer="4361" from-port="0" to-layer="4365" to-port="1" />
		<edge from-layer="4362" from-port="0" to-layer="4365" to-port="2" />
		<edge from-layer="4363" from-port="0" to-layer="4365" to-port="3" />
		<edge from-layer="4364" from-port="0" to-layer="4365" to-port="4" />
		<edge from-layer="4365" from-port="5" to-layer="4370" to-port="0" />
		<edge from-layer="4366" from-port="0" to-layer="4367" to-port="0" />
		<edge from-layer="4367" from-port="1" to-layer="4369" to-port="0" />
		<edge from-layer="4368" from-port="0" to-layer="4369" to-port="1" />
		<edge from-layer="4369" from-port="2" to-layer="4370" to-port="1" />
		<edge from-layer="4370" from-port="2" to-layer="4371" to-port="1" />
		<edge from-layer="4371" from-port="2" to-layer="4372" to-port="0" />
		<edge from-layer="4372" from-port="2" to-layer="4377" to-port="0" />
		<edge from-layer="4373" from-port="0" to-layer="4377" to-port="1" />
		<edge from-layer="4374" from-port="0" to-layer="4377" to-port="2" />
		<edge from-layer="4375" from-port="0" to-layer="4377" to-port="3" />
		<edge from-layer="4376" from-port="0" to-layer="4377" to-port="4" />
		<edge from-layer="4377" from-port="5" to-layer="4379" to-port="0" />
		<edge from-layer="4378" from-port="0" to-layer="4379" to-port="1" />
		<edge from-layer="4379" from-port="2" to-layer="4381" to-port="0" />
		<edge from-layer="4380" from-port="0" to-layer="4381" to-port="1" />
		<edge from-layer="4381" from-port="2" to-layer="4405" to-port="1" />
		<edge from-layer="4381" from-port="2" to-layer="4386" to-port="0" />
		<edge from-layer="4382" from-port="0" to-layer="4386" to-port="1" />
		<edge from-layer="4383" from-port="0" to-layer="4386" to-port="2" />
		<edge from-layer="4384" from-port="0" to-layer="4386" to-port="3" />
		<edge from-layer="4385" from-port="0" to-layer="4386" to-port="4" />
		<edge from-layer="4386" from-port="5" to-layer="4391" to-port="0" />
		<edge from-layer="4387" from-port="0" to-layer="4388" to-port="0" />
		<edge from-layer="4388" from-port="1" to-layer="4390" to-port="0" />
		<edge from-layer="4389" from-port="0" to-layer="4390" to-port="1" />
		<edge from-layer="4390" from-port="2" to-layer="4391" to-port="1" />
		<edge from-layer="4391" from-port="2" to-layer="4392" to-port="1" />
		<edge from-layer="4392" from-port="2" to-layer="4393" to-port="0" />
		<edge from-layer="4393" from-port="1" to-layer="4398" to-port="0" />
		<edge from-layer="4394" from-port="0" to-layer="4398" to-port="1" />
		<edge from-layer="4395" from-port="0" to-layer="4398" to-port="2" />
		<edge from-layer="4396" from-port="0" to-layer="4398" to-port="3" />
		<edge from-layer="4397" from-port="0" to-layer="4398" to-port="4" />
		<edge from-layer="4398" from-port="5" to-layer="4403" to-port="0" />
		<edge from-layer="4399" from-port="0" to-layer="4400" to-port="0" />
		<edge from-layer="4400" from-port="1" to-layer="4402" to-port="0" />
		<edge from-layer="4401" from-port="0" to-layer="4402" to-port="1" />
		<edge from-layer="4402" from-port="2" to-layer="4403" to-port="1" />
		<edge from-layer="4403" from-port="2" to-layer="4404" to-port="1" />
		<edge from-layer="4404" from-port="2" to-layer="4405" to-port="0" />
		<edge from-layer="4405" from-port="2" to-layer="4410" to-port="0" />
		<edge from-layer="4406" from-port="0" to-layer="4410" to-port="1" />
		<edge from-layer="4407" from-port="0" to-layer="4410" to-port="2" />
		<edge from-layer="4408" from-port="0" to-layer="4410" to-port="3" />
		<edge from-layer="4409" from-port="0" to-layer="4410" to-port="4" />
		<edge from-layer="4410" from-port="5" to-layer="4412" to-port="0" />
		<edge from-layer="4411" from-port="0" to-layer="4412" to-port="1" />
		<edge from-layer="4412" from-port="2" to-layer="4414" to-port="0" />
		<edge from-layer="4413" from-port="0" to-layer="4414" to-port="1" />
		<edge from-layer="4414" from-port="2" to-layer="4419" to-port="0" />
		<edge from-layer="4414" from-port="2" to-layer="4438" to-port="1" />
		<edge from-layer="4415" from-port="0" to-layer="4419" to-port="1" />
		<edge from-layer="4416" from-port="0" to-layer="4419" to-port="2" />
		<edge from-layer="4417" from-port="0" to-layer="4419" to-port="3" />
		<edge from-layer="4418" from-port="0" to-layer="4419" to-port="4" />
		<edge from-layer="4419" from-port="5" to-layer="4424" to-port="0" />
		<edge from-layer="4420" from-port="0" to-layer="4421" to-port="0" />
		<edge from-layer="4421" from-port="1" to-layer="4423" to-port="0" />
		<edge from-layer="4422" from-port="0" to-layer="4423" to-port="1" />
		<edge from-layer="4423" from-port="2" to-layer="4424" to-port="1" />
		<edge from-layer="4424" from-port="2" to-layer="4425" to-port="1" />
		<edge from-layer="4425" from-port="2" to-layer="4426" to-port="0" />
		<edge from-layer="4426" from-port="1" to-layer="4431" to-port="0" />
		<edge from-layer="4427" from-port="0" to-layer="4431" to-port="1" />
		<edge from-layer="4428" from-port="0" to-layer="4431" to-port="2" />
		<edge from-layer="4429" from-port="0" to-layer="4431" to-port="3" />
		<edge from-layer="4430" from-port="0" to-layer="4431" to-port="4" />
		<edge from-layer="4431" from-port="5" to-layer="4436" to-port="0" />
		<edge from-layer="4432" from-port="0" to-layer="4433" to-port="0" />
		<edge from-layer="4433" from-port="1" to-layer="4435" to-port="0" />
		<edge from-layer="4434" from-port="0" to-layer="4435" to-port="1" />
		<edge from-layer="4435" from-port="2" to-layer="4436" to-port="1" />
		<edge from-layer="4436" from-port="2" to-layer="4437" to-port="1" />
		<edge from-layer="4437" from-port="2" to-layer="4438" to-port="0" />
		<edge from-layer="4438" from-port="2" to-layer="4443" to-port="0" />
		<edge from-layer="4439" from-port="0" to-layer="4443" to-port="1" />
		<edge from-layer="4440" from-port="0" to-layer="4443" to-port="2" />
		<edge from-layer="4441" from-port="0" to-layer="4443" to-port="3" />
		<edge from-layer="4442" from-port="0" to-layer="4443" to-port="4" />
		<edge from-layer="4443" from-port="5" to-layer="4445" to-port="0" />
		<edge from-layer="4444" from-port="0" to-layer="4445" to-port="1" />
		<edge from-layer="4445" from-port="2" to-layer="4447" to-port="0" />
		<edge from-layer="4446" from-port="0" to-layer="4447" to-port="1" />
		<edge from-layer="4447" from-port="2" to-layer="4470" to-port="1" />
		<edge from-layer="4447" from-port="2" to-layer="4452" to-port="0" />
		<edge from-layer="4448" from-port="0" to-layer="4452" to-port="1" />
		<edge from-layer="4449" from-port="0" to-layer="4452" to-port="2" />
		<edge from-layer="4450" from-port="0" to-layer="4452" to-port="3" />
		<edge from-layer="4451" from-port="0" to-layer="4452" to-port="4" />
		<edge from-layer="4452" from-port="5" to-layer="4457" to-port="0" />
		<edge from-layer="4453" from-port="0" to-layer="4454" to-port="0" />
		<edge from-layer="4454" from-port="1" to-layer="4456" to-port="0" />
		<edge from-layer="4455" from-port="0" to-layer="4456" to-port="1" />
		<edge from-layer="4456" from-port="2" to-layer="4457" to-port="1" />
		<edge from-layer="4457" from-port="2" to-layer="4458" to-port="1" />
		<edge from-layer="4458" from-port="2" to-layer="4463" to-port="0" />
		<edge from-layer="4459" from-port="0" to-layer="4463" to-port="1" />
		<edge from-layer="4460" from-port="0" to-layer="4463" to-port="2" />
		<edge from-layer="4461" from-port="0" to-layer="4463" to-port="3" />
		<edge from-layer="4462" from-port="0" to-layer="4463" to-port="4" />
		<edge from-layer="4463" from-port="5" to-layer="4468" to-port="0" />
		<edge from-layer="4464" from-port="0" to-layer="4465" to-port="0" />
		<edge from-layer="4465" from-port="1" to-layer="4467" to-port="0" />
		<edge from-layer="4466" from-port="0" to-layer="4467" to-port="1" />
		<edge from-layer="4467" from-port="2" to-layer="4468" to-port="1" />
		<edge from-layer="4468" from-port="2" to-layer="4469" to-port="1" />
		<edge from-layer="4469" from-port="2" to-layer="4470" to-port="0" />
		<edge from-layer="4470" from-port="2" to-layer="4475" to-port="0" />
		<edge from-layer="4471" from-port="0" to-layer="4475" to-port="1" />
		<edge from-layer="4472" from-port="0" to-layer="4475" to-port="2" />
		<edge from-layer="4473" from-port="0" to-layer="4475" to-port="3" />
		<edge from-layer="4474" from-port="0" to-layer="4475" to-port="4" />
		<edge from-layer="4475" from-port="5" to-layer="4477" to-port="0" />
		<edge from-layer="4476" from-port="0" to-layer="4477" to-port="1" />
		<edge from-layer="4477" from-port="2" to-layer="4479" to-port="0" />
		<edge from-layer="4478" from-port="0" to-layer="4479" to-port="1" />
		<edge from-layer="4479" from-port="2" to-layer="4484" to-port="0" />
		<edge from-layer="4480" from-port="0" to-layer="4484" to-port="1" />
		<edge from-layer="4481" from-port="0" to-layer="4484" to-port="2" />
		<edge from-layer="4482" from-port="0" to-layer="4484" to-port="3" />
		<edge from-layer="4483" from-port="0" to-layer="4484" to-port="4" />
		<edge from-layer="4484" from-port="5" to-layer="4489" to-port="0" />
		<edge from-layer="4485" from-port="0" to-layer="4486" to-port="0" />
		<edge from-layer="4486" from-port="1" to-layer="4488" to-port="0" />
		<edge from-layer="4487" from-port="0" to-layer="4488" to-port="1" />
		<edge from-layer="4488" from-port="2" to-layer="4489" to-port="1" />
		<edge from-layer="4489" from-port="2" to-layer="4490" to-port="1" />
		<edge from-layer="4490" from-port="2" to-layer="4491" to-port="0" />
		<edge from-layer="4491" from-port="2" to-layer="4496" to-port="0" />
		<edge from-layer="4492" from-port="0" to-layer="4496" to-port="1" />
		<edge from-layer="4493" from-port="0" to-layer="4496" to-port="2" />
		<edge from-layer="4494" from-port="0" to-layer="4496" to-port="3" />
		<edge from-layer="4495" from-port="0" to-layer="4496" to-port="4" />
		<edge from-layer="4496" from-port="5" to-layer="4498" to-port="0" />
		<edge from-layer="4497" from-port="0" to-layer="4498" to-port="1" />
		<edge from-layer="4498" from-port="2" to-layer="4500" to-port="0" />
		<edge from-layer="4499" from-port="0" to-layer="4500" to-port="1" />
		<edge from-layer="4500" from-port="2" to-layer="4505" to-port="0" />
		<edge from-layer="4501" from-port="0" to-layer="4505" to-port="1" />
		<edge from-layer="4502" from-port="0" to-layer="4505" to-port="2" />
		<edge from-layer="4503" from-port="0" to-layer="4505" to-port="3" />
		<edge from-layer="4504" from-port="0" to-layer="4505" to-port="4" />
		<edge from-layer="4505" from-port="5" to-layer="4510" to-port="0" />
		<edge from-layer="4506" from-port="0" to-layer="4507" to-port="0" />
		<edge from-layer="4507" from-port="1" to-layer="4509" to-port="0" />
		<edge from-layer="4508" from-port="0" to-layer="4509" to-port="1" />
		<edge from-layer="4509" from-port="2" to-layer="4510" to-port="1" />
		<edge from-layer="4510" from-port="2" to-layer="4511" to-port="1" />
		<edge from-layer="4511" from-port="2" to-layer="4514" to-port="0" />
		<edge from-layer="4512" from-port="0" to-layer="4514" to-port="1" />
		<edge from-layer="4513" from-port="0" to-layer="4514" to-port="2" />
		<edge from-layer="4514" from-port="4" to-layer="4521" to-port="2" />
		<edge from-layer="4514" from-port="3" to-layer="4529" to-port="2" />
		<edge from-layer="4514" from-port="3" to-layer="4529" to-port="1" />
		<edge from-layer="4514" from-port="3" to-layer="4523" to-port="0" />
		<edge from-layer="4514" from-port="4" to-layer="4521" to-port="1" />
		<edge from-layer="4514" from-port="4" to-layer="4515" to-port="0" />
		<edge from-layer="4515" from-port="1" to-layer="4518" to-port="0" />
		<edge from-layer="4516" from-port="0" to-layer="4518" to-port="1" />
		<edge from-layer="4517" from-port="0" to-layer="4518" to-port="2" />
		<edge from-layer="4518" from-port="3" to-layer="4520" to-port="0" />
		<edge from-layer="4519" from-port="0" to-layer="4520" to-port="1" />
		<edge from-layer="4520" from-port="2" to-layer="4521" to-port="0" />
		<edge from-layer="4521" from-port="3" to-layer="4522" to-port="0" />
		<edge from-layer="4523" from-port="1" to-layer="4526" to-port="0" />
		<edge from-layer="4524" from-port="0" to-layer="4526" to-port="1" />
		<edge from-layer="4525" from-port="0" to-layer="4526" to-port="2" />
		<edge from-layer="4526" from-port="3" to-layer="4528" to-port="0" />
		<edge from-layer="4527" from-port="0" to-layer="4528" to-port="1" />
		<edge from-layer="4528" from-port="2" to-layer="4529" to-port="0" />
		<edge from-layer="4529" from-port="3" to-layer="4530" to-port="0" />
	</edges>
	<rt_info>
		<MO_version value="2022.3.0-9052-9752fafe8eb-releases/2022/3" />
		<Runtime_version value="2022.3.0-9052-9752fafe8eb-releases/2022/3" />
		<conversion_parameters>
			<input_model value="DIR/model.onnx" />
			<transform value="Pruning" />
		</conversion_parameters>
		<legacy_frontend value="False" />
	</rt_info>
</net>
